…
I1128 12:56:44.569700  5822 upgrade_proto.cpp:77] Attempting to upgrade batch norm layers using deprecated params: models/coco/ResNet50/faster_rcnn_end2end/train.prototxt
I1128 12:56:44.569712  5822 upgrade_proto.cpp:80] Successfully upgraded batch norm layers using deprecated params.
I1128 12:56:44.570773  5822 net.cpp:51] Initializing net from parameters: 
name: "ResNet-50"
state {
  phase: TRAIN
}
layer {
  name: "input-data"
  type: "Python"
  top: "data"
  top: "im_info"
  top: "gt_boxes"
  python_param {
    module: "roi_data_layer.layer"
    layer: "RoIDataLayer"
    param_str: "\'num_classes\': 81"
  }
}
layer {
  name: "conv1"
  type: "Convolution"
  bottom: "data"
  top: "conv1"
  param {
    lr_mult: 0
    decay_mult: 0
  }
  param {
    lr_mult: 0
    decay_mult: 0
  }
  convolution_param {
    num_output: 64
    pad: 3
    kernel_size: 7
    stride: 2
    weight_filler {
      type: "msra"
      std: 0.01
    }
    bias_filler {
      type: "constant"
      value: 0
    }
  }
}
layer {
  name: "bn_conv1"
  type: "BatchNorm"
  bottom: "conv1"
  top: "conv1"
  param {
    lr_mult: 0
    decay_mult: 0
  }
  param {
    lr_mult: 0
    decay_mult: 0
  }
  param {
    lr_mult: 0
    decay_mult: 0
  }
  batch_norm_param {
    use_global_stats: false
  }
}
layer {
  name: "scale_conv1"
  type: "Scale"
  bottom: "conv1"
  top: "conv1"
  param {
    lr_mult: 1
  }
  scale_param {
    bias_term: true
  }
}
layer {
  name: "conv1_relu"
  type: "ReLU"
  bottom: "conv1"
  top: "conv1"
}
layer {
  name: "pool1"
  type: "Pooling"
  bottom: "conv1"
  top: "pool1"
  pooling_param {
    pool: MAX
    kernel_size: 3
    stride: 2
  }
}
layer {
  name: "res2a_branch2a"
  type: "Convolution"
  bottom: "pool1"
  top: "res2a_branch2a"
  param {
    lr_mult: 0
    decay_mult: 0
  }
  convolution_param {
    num_output: 64
    bias_term: false
    pad: 0
    kernel_size: 1
    stride: 1
    weight_filler {
      type: "msra"
      std: 0.01
    }
  }
}
layer {
  name: "bn2a_branch2a"
  type: "BatchNorm"
  bottom: "res2a_branch2a"
  top: "res2a_branch2a"
  param {
    lr_mult: 0
    decay_mult: 0
  }
  param {
    lr_mult: 0
    decay_mult: 0
  }
  param {
    lr_mult: 0
    decay_mult: 0
  }
  batch_norm_param {
    use_global_stats: false
  }
}
layer {
  name: "scale2a_branch2a"
  type: "Scale"
  bottom: "res2a_branch2a"
  top: "res2a_branch2a"
  param {
    lr_mult: 1
  }
  scale_param {
    bias_term: true
  }
}
layer {
  name: "res2a_branch2a_relu"
  type: "ReLU"
  bottom: "res2a_branch2a"
  top: "res2a_branch2a"
}
layer {
  name: "res2a_branch2b"
  type: "Convolution"
  bottom: "res2a_branch2a"
  top: "res2a_branch2b"
  param {
    lr_mult: 0
    decay_mult: 0
  }
  convolution_param {
    num_output: 64
    bias_term: false
    pad: 1
    kernel_size: 3
    stride: 1
    weight_filler {
      type: "msra"
      std: 0.01
    }
  }
}
layer {
  name: "bn2a_branch2b"
  type: "BatchNorm"
  bottom: "res2a_branch2b"
  top: "res2a_branch2b"
  param {
    lr_mult: 0
    decay_mult: 0
  }
  param {
    lr_mult: 0
    decay_mult: 0
  }
  param {
    lr_mult: 0
    decay_mult: 0
  }
  batch_norm_param {
    use_global_stats: false
  }
}
layer {
  name: "scale2a_branch2b"
  type: "Scale"
  bottom: "res2a_branch2b"
  top: "res2a_branch2b"
  param {
    lr_mult: 1
  }
  scale_param {
    bias_term: true
  }
}
layer {
  name: "res2a_branch2b_relu"
  type: "ReLU"
  bottom: "res2a_branch2b"
  top: "res2a_branch2b"
}
layer {
  name: "res2a_branch2c"
  type: "Convolution"
  bottom: "res2a_branch2b"
  top: "res2a_branch2c"
  param {
    lr_mult: 0
    decay_mult: 0
  }
  convolution_param {
    num_output: 256
    bias_term: false
    pad: 0
    kernel_size: 1
    stride: 1
    weight_filler {
      type: "msra"
      std: 0.01
    }
  }
}
layer {
  name: "bn2a_branch2c"
  type: "BatchNorm"
  bottom: "res2a_branch2c"
  top: "res2a_branch2c"
  param {
    lr_mult: 0
    decay_mult: 0
  }
  param {
    lr_mult: 0
    decay_mult: 0
  }
  param {
    lr_mult: 0
    decay_mult: 0
  }
  batch_norm_param {
    use_global_stats: false
  }
}
layer {
  name: "scale2a_branch2c"
  type: "Scale"
  bottom: "res2a_branch2c"
  top: "res2a_branch2c"
  param {
    lr_mult: 1
  }
  scale_param {
    bias_term: true
  }
}
layer {
  name: "res2a_branch1"
  type: "Convolution"
  bottom: "pool1"
  top: "res2a_branch1"
  param {
    lr_mult: 0
    decay_mult: 0
  }
  convolution_param {
    num_output: 256
    bias_term: false
    pad: 0
    kernel_size: 1
    stride: 1
    weight_filler {
      type: "msra"
      std: 0.01
    }
  }
}
layer {
  name: "bn2a_branch1"
  type: "BatchNorm"
  bottom: "res2a_branch1"
  top: "res2a_branch1"
  param {
    lr_mult: 0
    decay_mult: 0
  }
  param {
    lr_mult: 0
    decay_mult: 0
  }
  param {
    lr_mult: 0
    decay_mult: 0
  }
  batch_norm_param {
    use_global_stats: false
  }
}
layer {
  name: "scale2a_branch1"
  type: "Scale"
  bottom: "res2a_branch1"
  top: "res2a_branch1"
  param {
    lr_mult: 1
  }
  scale_param {
    bias_term: true
  }
}
layer {
  name: "res2a"
  type: "Eltwise"
  bottom: "res2a_branch1"
  bottom: "res2a_branch2c"
  top: "res2a"
}
layer {
  name: "res2a_relu"
  type: "ReLU"
  bottom: "res2a"
  top: "res2a"
}
layer {
  name: "res2b_branch2a"
  type: "Convolution"
  bottom: "res2a"
  top: "res2b_branch2a"
  param {
    lr_mult: 0
    decay_mult: 0
  }
  convolution_param {
    num_output: 64
    bias_term: false
    pad: 0
    kernel_size: 1
    stride: 1
    weight_filler {
      type: "msra"
      std: 0.01
    }
  }
}
layer {
  name: "bn2b_branch2a"
  type: "BatchNorm"
  bottom: "res2b_branch2a"
  top: "res2b_branch2a"
  param {
    lr_mult: 0
    decay_mult: 0
  }
  param {
    lr_mult: 0
    decay_mult: 0
  }
  param {
    lr_mult: 0
    decay_mult: 0
  }
  batch_norm_param {
    use_global_stats: false
  }
}
layer {
  name: "scale2b_branch2a"
  type: "Scale"
  bottom: "res2b_branch2a"
  top: "res2b_branch2a"
  param {
    lr_mult: 1
  }
  scale_param {
    bias_term: true
  }
}
layer {
  name: "res2b_branch2a_relu"
  type: "ReLU"
  bottom: "res2b_branch2a"
  top: "res2b_branch2a"
}
layer {
  name: "res2b_branch2b"
  type: "Convolution"
  bottom: "res2b_branch2a"
  top: "res2b_branch2b"
  param {
    lr_mult: 0
    decay_mult: 0
  }
  convolution_param {
    num_output: 64
    bias_term: false
    pad: 1
    kernel_size: 3
    stride: 1
    weight_filler {
      type: "msra"
      std: 0.01
    }
  }
}
layer {
  name: "bn2b_branch2b"
  type: "BatchNorm"
  bottom: "res2b_branch2b"
  top: "res2b_branch2b"
  param {
    lr_mult: 0
    decay_mult: 0
  }
  param {
    lr_mult: 0
    decay_mult: 0
  }
  param {
    lr_mult: 0
    decay_mult: 0
  }
  batch_norm_param {
    use_global_stats: false
  }
}
layer {
  name: "scale2b_branch2b"
  type: "Scale"
  bottom: "res2b_branch2b"
  top: "res2b_branch2b"
  param {
    lr_mult: 1
  }
  scale_param {
    bias_term: true
  }
}
layer {
  name: "res2b_branch2b_relu"
  type: "ReLU"
  bottom: "res2b_branch2b"
  top: "res2b_branch2b"
}
layer {
  name: "res2b_branch2c"
  type: "Convolution"
  bottom: "res2b_branch2b"
  top: "res2b_branch2c"
  param {
    lr_mult: 0
    decay_mult: 0
  }
  convolution_param {
    num_output: 256
    bias_term: false
    pad: 0
    kernel_size: 1
    stride: 1
    weight_filler {
      type: "msra"
      std: 0.01
    }
  }
}
layer {
  name: "bn2b_branch2c"
  type: "BatchNorm"
  bottom: "res2b_branch2c"
  top: "res2b_branch2c"
  param {
    lr_mult: 0
    decay_mult: 0
  }
  param {
    lr_mult: 0
    decay_mult: 0
  }
  param {
    lr_mult: 0
    decay_mult: 0
  }
  batch_norm_param {
    use_global_stats: false
  }
}
layer {
  name: "scale2b_branch2c"
  type: "Scale"
  bottom: "res2b_branch2c"
  top: "res2b_branch2c"
  param {
    lr_mult: 1
  }
  scale_param {
    bias_term: true
  }
}
layer {
  name: "res2b"
  type: "Eltwise"
  bottom: "res2a"
  bottom: "res2b_branch2c"
  top: "res2b"
}
layer {
  name: "res2b_relu"
  type: "ReLU"
  bottom: "res2b"
  top: "res2b"
}
layer {
  name: "res2c_branch2a"
  type: "Convolution"
  bottom: "res2b"
  top: "res2c_branch2a"
  param {
    lr_mult: 0
    decay_mult: 0
  }
  convolution_param {
    num_output: 64
    bias_term: false
    pad: 0
    kernel_size: 1
    stride: 1
    weight_filler {
      type: "msra"
      std: 0.01
    }
  }
}
layer {
  name: "bn2c_branch2a"
  type: "BatchNorm"
  bottom: "res2c_branch2a"
  top: "res2c_branch2a"
  param {
    lr_mult: 0
    decay_mult: 0
  }
  param {
    lr_mult: 0
    decay_mult: 0
  }
  param {
    lr_mult: 0
    decay_mult: 0
  }
  batch_norm_param {
    use_global_stats: false
  }
}
layer {
  name: "scale2c_branch2a"
  type: "Scale"
  bottom: "res2c_branch2a"
  top: "res2c_branch2a"
  param {
    lr_mult: 1
  }
  scale_param {
    bias_term: true
  }
}
layer {
  name: "res2c_branch2a_relu"
  type: "ReLU"
  bottom: "res2c_branch2a"
  top: "res2c_branch2a"
}
layer {
  name: "res2c_branch2b"
  type: "Convolution"
  bottom: "res2c_branch2a"
  top: "res2c_branch2b"
  param {
    lr_mult: 0
    decay_mult: 0
  }
  convolution_param {
    num_output: 64
    bias_term: false
    pad: 1
    kernel_size: 3
    stride: 1
    weight_filler {
      type: "msra"
      std: 0.01
    }
  }
}
layer {
  name: "bn2c_branch2b"
  type: "BatchNorm"
  bottom: "res2c_branch2b"
  top: "res2c_branch2b"
  param {
    lr_mult: 0
    decay_mult: 0
  }
  param {
    lr_mult: 0
    decay_mult: 0
  }
  param {
    lr_mult: 0
    decay_mult: 0
  }
  batch_norm_param {
    use_global_stats: false
  }
}
layer {
  name: "scale2c_branch2b"
  type: "Scale"
  bottom: "res2c_branch2b"
  top: "res2c_branch2b"
  param {
    lr_mult: 1
  }
  scale_param {
    bias_term: true
  }
}
layer {
  name: "res2c_branch2b_relu"
  type: "ReLU"
  bottom: "res2c_branch2b"
  top: "res2c_branch2b"
}
layer {
  name: "res2c_branch2c"
  type: "Convolution"
  bottom: "res2c_branch2b"
  top: "res2c_branch2c"
  param {
    lr_mult: 0
    decay_mult: 0
  }
  convolution_param {
    num_output: 256
    bias_term: false
    pad: 0
    kernel_size: 1
    stride: 1
    weight_filler {
      type: "msra"
      std: 0.01
    }
  }
}
layer {
  name: "bn2c_branch2c"
  type: "BatchNorm"
  bottom: "res2c_branch2c"
  top: "res2c_branch2c"
  param {
    lr_mult: 0
    decay_mult: 0
  }
  param {
    lr_mult: 0
    decay_mult: 0
  }
  param {
    lr_mult: 0
    decay_mult: 0
  }
  batch_norm_param {
    use_global_stats: false
  }
}
layer {
  name: "scale2c_branch2c"
  type: "Scale"
  bottom: "res2c_branch2c"
  top: "res2c_branch2c"
  param {
    lr_mult: 1
  }
  scale_param {
    bias_term: true
  }
}
layer {
  name: "res2c"
  type: "Eltwise"
  bottom: "res2b"
  bottom: "res2c_branch2c"
  top: "res2c"
}
layer {
  name: "res2c_relu"
  type: "ReLU"
  bottom: "res2c"
  top: "res2c"
}
layer {
  name: "res3a_branch2a"
  type: "Convolution"
  bottom: "res2c"
  top: "res3a_branch2a"
  param {
    lr_mult: 1
    decay_mult: 1
  }
  convolution_param {
    num_output: 128
    bias_term: false
    pad: 0
    kernel_size: 1
    stride: 2
    weight_filler {
      type: "msra"
      std: 0.01
    }
  }
}
layer {
  name: "bn3a_branch2a"
  type: "BatchNorm"
  bottom: "res3a_branch2a"
  top: "res3a_branch2a"
  param {
    lr_mult: 0
    decay_mult: 0
  }
  param {
    lr_mult: 0
    decay_mult: 0
  }
  param {
    lr_mult: 0
    decay_mult: 0
  }
  batch_norm_param {
    use_global_stats: false
  }
}
layer {
  name: "scale3a_branch2a"
  type: "Scale"
  bottom: "res3a_branch2a"
  top: "res3a_branch2a"
  param {
    lr_mult: 1
  }
  scale_param {
    bias_term: true
  }
}
layer {
  name: "res3a_branch2a_relu"
  type: "ReLU"
  bottom: "res3a_branch2a"
  top: "res3a_branch2a"
}
layer {
  name: "res3a_branch2b"
  type: "Convolution"
  bottom: "res3a_branch2a"
  top: "res3a_branch2b"
  param {
    lr_mult: 1
    decay_mult: 1
  }
  convolution_param {
    num_output: 128
    bias_term: false
    pad: 1
    kernel_size: 3
    stride: 1
    weight_filler {
      type: "msra"
      std: 0.01
    }
  }
}
layer {
  name: "bn3a_branch2b"
  type: "BatchNorm"
  bottom: "res3a_branch2b"
  top: "res3a_branch2b"
  param {
    lr_mult: 0
    decay_mult: 0
  }
  param {
    lr_mult: 0
    decay_mult: 0
  }
  param {
    lr_mult: 0
    decay_mult: 0
  }
  batch_norm_param {
    use_global_stats: false
  }
}
layer {
  name: "scale3a_branch2b"
  type: "Scale"
  bottom: "res3a_branch2b"
  top: "res3a_branch2b"
  param {
    lr_mult: 1
  }
  scale_param {
    bias_term: true
  }
}
layer {
  name: "res3a_branch2b_relu"
  type: "ReLU"
  bottom: "res3a_branch2b"
  top: "res3a_branch2b"
}
layer {
  name: "res3a_branch2c"
  type: "Convolution"
  bottom: "res3a_branch2b"
  top: "res3a_branch2c"
  param {
    lr_mult: 1
    decay_mult: 1
  }
  convolution_param {
    num_output: 512
    bias_term: false
    pad: 0
    kernel_size: 1
    stride: 1
    weight_filler {
      type: "msra"
      std: 0.01
    }
  }
}
layer {
  name: "bn3a_branch2c"
  type: "BatchNorm"
  bottom: "res3a_branch2c"
  top: "res3a_branch2c"
  param {
    lr_mult: 0
    decay_mult: 0
  }
  param {
    lr_mult: 0
    decay_mult: 0
  }
  param {
    lr_mult: 0
    decay_mult: 0
  }
  batch_norm_param {
    use_global_stats: false
  }
}
layer {
  name: "scale3a_branch2c"
  type: "Scale"
  bottom: "res3a_branch2c"
  top: "res3a_branch2c"
  param {
    lr_mult: 1
  }
  scale_param {
    bias_term: true
  }
}
layer {
  name: "res3a_branch1"
  type: "Convolution"
  bottom: "res2c"
  top: "res3a_branch1"
  param {
    lr_mult: 1
    decay_mult: 1
  }
  convolution_param {
    num_output: 512
    bias_term: false
    pad: 0
    kernel_size: 1
    stride: 2
    weight_filler {
      type: "msra"
      std: 0.01
    }
  }
}
layer {
  name: "bn3a_branch1"
  type: "BatchNorm"
  bottom: "res3a_branch1"
  top: "res3a_branch1"
  param {
    lr_mult: 0
    decay_mult: 0
  }
  param {
    lr_mult: 0
    decay_mult: 0
  }
  param {
    lr_mult: 0
    decay_mult: 0
  }
  batch_norm_param {
    use_global_stats: false
  }
}
layer {
  name: "scale3a_branch1"
  type: "Scale"
  bottom: "res3a_branch1"
  top: "res3a_branch1"
  param {
    lr_mult: 1
  }
  scale_param {
    bias_term: true
  }
}
layer {
  name: "res3a"
  type: "Eltwise"
  bottom: "res3a_branch1"
  bottom: "res3a_branch2c"
  top: "res3a"
}
layer {
  name: "res3a_relu"
  type: "ReLU"
  bottom: "res3a"
  top: "res3a"
}
layer {
  name: "res3b_branch2a"
  type: "Convolution"
  bottom: "res3a"
  top: "res3b_branch2a"
  param {
    lr_mult: 1
    decay_mult: 1
  }
  convolution_param {
    num_output: 128
    bias_term: false
    pad: 0
    kernel_size: 1
    stride: 1
    weight_filler {
      type: "msra"
      std: 0.01
    }
  }
}
layer {
  name: "bn3b_branch2a"
  type: "BatchNorm"
  bottom: "res3b_branch2a"
  top: "res3b_branch2a"
  param {
    lr_mult: 0
    decay_mult: 0
  }
  param {
    lr_mult: 0
    decay_mult: 0
  }
  param {
    lr_mult: 0
    decay_mult: 0
  }
  batch_norm_param {
    use_global_stats: false
  }
}
layer {
  name: "scale3b_branch2a"
  type: "Scale"
  bottom: "res3b_branch2a"
  top: "res3b_branch2a"
  param {
    lr_mult: 1
  }
  scale_param {
    bias_term: true
  }
}
layer {
  name: "res3b_branch2a_relu"
  type: "ReLU"
  bottom: "res3b_branch2a"
  top: "res3b_branch2a"
}
layer {
  name: "res3b_branch2b"
  type: "Convolution"
  bottom: "res3b_branch2a"
  top: "res3b_branch2b"
  param {
    lr_mult: 1
    decay_mult: 1
  }
  convolution_param {
    num_output: 128
    bias_term: false
    pad: 1
    kernel_size: 3
    stride: 1
    weight_filler {
      type: "msra"
      std: 0.01
    }
  }
}
layer {
  name: "bn3b_branch2b"
  type: "BatchNorm"
  bottom: "res3b_branch2b"
  top: "res3b_branch2b"
  param {
    lr_mult: 0
    decay_mult: 0
  }
  param {
    lr_mult: 0
    decay_mult: 0
  }
  param {
    lr_mult: 0
    decay_mult: 0
  }
  batch_norm_param {
    use_global_stats: false
  }
}
layer {
  name: "scale3b_branch2b"
  type: "Scale"
  bottom: "res3b_branch2b"
  top: "res3b_branch2b"
  param {
    lr_mult: 1
  }
  scale_param {
    bias_term: true
  }
}
layer {
  name: "res3b_branch2b_relu"
  type: "ReLU"
  bottom: "res3b_branch2b"
  top: "res3b_branch2b"
}
layer {
  name: "res3b_branch2c"
  type: "Convolution"
  bottom: "res3b_branch2b"
  top: "res3b_branch2c"
  param {
    lr_mult: 1
    decay_mult: 1
  }
  convolution_param {
    num_output: 512
    bias_term: false
    pad: 0
    kernel_size: 1
    stride: 1
    weight_filler {
      type: "msra"
      std: 0.01
    }
  }
}
layer {
  name: "bn3b_branch2c"
  type: "BatchNorm"
  bottom: "res3b_branch2c"
  top: "res3b_branch2c"
  param {
    lr_mult: 0
    decay_mult: 0
  }
  param {
    lr_mult: 0
    decay_mult: 0
  }
  param {
    lr_mult: 0
    decay_mult: 0
  }
  batch_norm_param {
    use_global_stats: false
  }
}
layer {
  name: "scale3b_branch2c"
  type: "Scale"
  bottom: "res3b_branch2c"
  top: "res3b_branch2c"
  param {
    lr_mult: 1
  }
  scale_param {
    bias_term: true
  }
}
layer {
  name: "res3b"
  type: "Eltwise"
  bottom: "res3a"
  bottom: "res3b_branch2c"
  top: "res3b"
}
layer {
  name: "res3b_relu"
  type: "ReLU"
  bottom: "res3b"
  top: "res3b"
}
layer {
  name: "res3c_branch2a"
  type: "Convolution"
  bottom: "res3b"
  top: "res3c_branch2a"
  param {
    lr_mult: 1
    decay_mult: 1
  }
  convolution_param {
    num_output: 128
    bias_term: false
    pad: 0
    kernel_size: 1
    stride: 1
    weight_filler {
      type: "msra"
      std: 0.01
    }
  }
}
layer {
  name: "bn3c_branch2a"
  type: "BatchNorm"
  bottom: "res3c_branch2a"
  top: "res3c_branch2a"
  param {
    lr_mult: 0
    decay_mult: 0
  }
  param {
    lr_mult: 0
    decay_mult: 0
  }
  param {
    lr_mult: 0
    decay_mult: 0
  }
  batch_norm_param {
    use_global_stats: false
  }
}
layer {
  name: "scale3c_branch2a"
  type: "Scale"
  bottom: "res3c_branch2a"
  top: "res3c_branch2a"
  param {
    lr_mult: 1
  }
  scale_param {
    bias_term: true
  }
}
layer {
  name: "res3c_branch2a_relu"
  type: "ReLU"
  bottom: "res3c_branch2a"
  top: "res3c_branch2a"
}
layer {
  name: "res3c_branch2b"
  type: "Convolution"
  bottom: "res3c_branch2a"
  top: "res3c_branch2b"
  param {
    lr_mult: 1
    decay_mult: 1
  }
  convolution_param {
    num_output: 128
    bias_term: false
    pad: 1
    kernel_size: 3
    stride: 1
    weight_filler {
      type: "msra"
      std: 0.01
    }
  }
}
layer {
  name: "bn3c_branch2b"
  type: "BatchNorm"
  bottom: "res3c_branch2b"
  top: "res3c_branch2b"
  param {
    lr_mult: 0
    decay_mult: 0
  }
  param {
    lr_mult: 0
    decay_mult: 0
  }
  param {
    lr_mult: 0
    decay_mult: 0
  }
  batch_norm_param {
    use_global_stats: false
  }
}
layer {
  name: "scale3c_branch2b"
  type: "Scale"
  bottom: "res3c_branch2b"
  top: "res3c_branch2b"
  param {
    lr_mult: 1
  }
  scale_param {
    bias_term: true
  }
}
layer {
  name: "res3c_branch2b_relu"
  type: "ReLU"
  bottom: "res3c_branch2b"
  top: "res3c_branch2b"
}
layer {
  name: "res3c_branch2c"
  type: "Convolution"
  bottom: "res3c_branch2b"
  top: "res3c_branch2c"
  param {
    lr_mult: 1
    decay_mult: 1
  }
  convolution_param {
    num_output: 512
    bias_term: false
    pad: 0
    kernel_size: 1
    stride: 1
    weight_filler {
      type: "msra"
      std: 0.01
    }
  }
}
layer {
  name: "bn3c_branch2c"
  type: "BatchNorm"
  bottom: "res3c_branch2c"
  top: "res3c_branch2c"
  param {
    lr_mult: 0
    decay_mult: 0
  }
  param {
    lr_mult: 0
    decay_mult: 0
  }
  param {
    lr_mult: 0
    decay_mult: 0
  }
  batch_norm_param {
    use_global_stats: false
  }
}
layer {
  name: "scale3c_branch2c"
  type: "Scale"
  bottom: "res3c_branch2c"
  top: "res3c_branch2c"
  param {
    lr_mult: 1
  }
  scale_param {
    bias_term: true
  }
}
layer {
  name: "res3c"
  type: "Eltwise"
  bottom: "res3b"
  bottom: "res3c_branch2c"
  top: "res3c"
}
layer {
  name: "res3c_relu"
  type: "ReLU"
  bottom: "res3c"
  top: "res3c"
}
layer {
  name: "res3d_branch2a"
  type: "Convolution"
  bottom: "res3c"
  top: "res3d_branch2a"
  param {
    lr_mult: 1
    decay_mult: 1
  }
  convolution_param {
    num_output: 128
    bias_term: false
    pad: 0
    kernel_size: 1
    stride: 1
    weight_filler {
      type: "msra"
      std: 0.01
    }
  }
}
layer {
  name: "bn3d_branch2a"
  type: "BatchNorm"
  bottom: "res3d_branch2a"
  top: "res3d_branch2a"
  param {
    lr_mult: 0
    decay_mult: 0
  }
  param {
    lr_mult: 0
    decay_mult: 0
  }
  param {
    lr_mult: 0
    decay_mult: 0
  }
  batch_norm_param {
    use_global_stats: false
  }
}
layer {
  name: "scale3d_branch2a"
  type: "Scale"
  bottom: "res3d_branch2a"
  top: "res3d_branch2a"
  param {
    lr_mult: 1
  }
  scale_param {
    bias_term: true
  }
}
layer {
  name: "res3d_branch2a_relu"
  type: "ReLU"
  bottom: "res3d_branch2a"
  top: "res3d_branch2a"
}
layer {
  name: "res3d_branch2b"
  type: "Convolution"
  bottom: "res3d_branch2a"
  top: "res3d_branch2b"
  param {
    lr_mult: 1
    decay_mult: 1
  }
  convolution_param {
    num_output: 128
    bias_term: false
    pad: 1
    kernel_size: 3
    stride: 1
    weight_filler {
      type: "msra"
      std: 0.01
    }
  }
}
layer {
  name: "bn3d_branch2b"
  type: "BatchNorm"
  bottom: "res3d_branch2b"
  top: "res3d_branch2b"
  param {
    lr_mult: 0
    decay_mult: 0
  }
  param {
    lr_mult: 0
    decay_mult: 0
  }
  param {
    lr_mult: 0
    decay_mult: 0
  }
  batch_norm_param {
    use_global_stats: false
  }
}
layer {
  name: "scale3d_branch2b"
  type: "Scale"
  bottom: "res3d_branch2b"
  top: "res3d_branch2b"
  param {
    lr_mult: 1
  }
  scale_param {
    bias_term: true
  }
}
layer {
  name: "res3d_branch2b_relu"
  type: "ReLU"
  bottom: "res3d_branch2b"
  top: "res3d_branch2b"
}
layer {
  name: "res3d_branch2c"
  type: "Convolution"
  bottom: "res3d_branch2b"
  top: "res3d_branch2c"
  param {
    lr_mult: 1
    decay_mult: 1
  }
  convolution_param {
    num_output: 512
    bias_term: false
    pad: 0
    kernel_size: 1
    stride: 1
    weight_filler {
      type: "msra"
      std: 0.01
    }
  }
}
layer {
  name: "bn3d_branch2c"
  type: "BatchNorm"
  bottom: "res3d_branch2c"
  top: "res3d_branch2c"
  param {
    lr_mult: 0
    decay_mult: 0
  }
  param {
    lr_mult: 0
    decay_mult: 0
  }
  param {
    lr_mult: 0
    decay_mult: 0
  }
  batch_norm_param {
    use_global_stats: false
  }
}
layer {
  name: "scale3d_branch2c"
  type: "Scale"
  bottom: "res3d_branch2c"
  top: "res3d_branch2c"
  param {
    lr_mult: 1
  }
  scale_param {
    bias_term: true
  }
}
layer {
  name: "res3d"
  type: "Eltwise"
  bottom: "res3c"
  bottom: "res3d_branch2c"
  top: "res3d"
}
layer {
  name: "res3d_relu"
  type: "ReLU"
  bottom: "res3d"
  top: "res3d"
}
layer {
  name: "res4a_branch2a"
  type: "Convolution"
  bottom: "res3d"
  top: "res4a_branch2a"
  param {
    lr_mult: 1
    decay_mult: 1
  }
  convolution_param {
    num_output: 256
    bias_term: false
    pad: 0
    kernel_size: 1
    stride: 2
    weight_filler {
      type: "msra"
      std: 0.01
    }
  }
}
layer {
  name: "bn4a_branch2a"
  type: "BatchNorm"
  bottom: "res4a_branch2a"
  top: "res4a_branch2a"
  param {
    lr_mult: 0
    decay_mult: 0
  }
  param {
    lr_mult: 0
    decay_mult: 0
  }
  param {
    lr_mult: 0
    decay_mult: 0
  }
  batch_norm_param {
    use_global_stats: false
  }
}
layer {
  name: "scale4a_branch2a"
  type: "Scale"
  bottom: "res4a_branch2a"
  top: "res4a_branch2a"
  param {
    lr_mult: 1
  }
  scale_param {
    bias_term: true
  }
}
layer {
  name: "res4a_branch2a_relu"
  type: "ReLU"
  bottom: "res4a_branch2a"
  top: "res4a_branch2a"
}
layer {
  name: "res4a_branch2b"
  type: "Convolution"
  bottom: "res4a_branch2a"
  top: "res4a_branch2b"
  param {
    lr_mult: 1
    decay_mult: 1
  }
  convolution_param {
    num_output: 256
    bias_term: false
    pad: 1
    kernel_size: 3
    stride: 1
    weight_filler {
      type: "msra"
      std: 0.01
    }
  }
}
layer {
  name: "bn4a_branch2b"
  type: "BatchNorm"
  bottom: "res4a_branch2b"
  top: "res4a_branch2b"
  param {
    lr_mult: 0
    decay_mult: 0
  }
  param {
    lr_mult: 0
    decay_mult: 0
  }
  param {
    lr_mult: 0
    decay_mult: 0
  }
  batch_norm_param {
    use_global_stats: false
  }
}
layer {
  name: "scale4a_branch2b"
  type: "Scale"
  bottom: "res4a_branch2b"
  top: "res4a_branch2b"
  param {
    lr_mult: 1
  }
  scale_param {
    bias_term: true
  }
}
layer {
  name: "res4a_branch2b_relu"
  type: "ReLU"
  bottom: "res4a_branch2b"
  top: "res4a_branch2b"
}
layer {
  name: "res4a_branch2c"
  type: "Convolution"
  bottom: "res4a_branch2b"
  top: "res4a_branch2c"
  param {
    lr_mult: 1
    decay_mult: 1
  }
  convolution_param {
    num_output: 1024
    bias_term: false
    pad: 0
    kernel_size: 1
    stride: 1
    weight_filler {
      type: "msra"
      std: 0.01
    }
  }
}
layer {
  name: "bn4a_branch2c"
  type: "BatchNorm"
  bottom: "res4a_branch2c"
  top: "res4a_branch2c"
  param {
    lr_mult: 0
    decay_mult: 0
  }
  param {
    lr_mult: 0
    decay_mult: 0
  }
  param {
    lr_mult: 0
    decay_mult: 0
  }
  batch_norm_param {
    use_global_stats: false
  }
}
layer {
  name: "scale4a_branch2c"
  type: "Scale"
  bottom: "res4a_branch2c"
  top: "res4a_branch2c"
  param {
    lr_mult: 1
  }
  scale_param {
    bias_term: true
  }
}
layer {
  name: "res4a_branch1"
  type: "Convolution"
  bottom: "res3d"
  top: "res4a_branch1"
  param {
    lr_mult: 1
    decay_mult: 1
  }
  convolution_param {
    num_output: 1024
    bias_term: false
    pad: 0
    kernel_size: 1
    stride: 2
    weight_filler {
      type: "msra"
      std: 0.01
    }
  }
}
layer {
  name: "bn4a_branch1"
  type: "BatchNorm"
  bottom: "res4a_branch1"
  top: "res4a_branch1"
  param {
    lr_mult: 0
    decay_mult: 0
  }
  param {
    lr_mult: 0
    decay_mult: 0
  }
  param {
    lr_mult: 0
    decay_mult: 0
  }
  batch_norm_param {
    use_global_stats: false
  }
}
layer {
  name: "scale4a_branch1"
  type: "Scale"
  bottom: "res4a_branch1"
  top: "res4a_branch1"
  param {
    lr_mult: 1
  }
  scale_param {
    bias_term: true
  }
}
layer {
  name: "res4a"
  type: "Eltwise"
  bottom: "res4a_branch1"
  bottom: "res4a_branch2c"
  top: "res4a"
}
layer {
  name: "res4a_relu"
  type: "ReLU"
  bottom: "res4a"
  top: "res4a"
}
layer {
  name: "res4b_branch2a"
  type: "Convolution"
  bottom: "res4a"
  top: "res4b_branch2a"
  param {
    lr_mult: 1
    decay_mult: 1
  }
  convolution_param {
    num_output: 256
    bias_term: false
    pad: 0
    kernel_size: 1
    stride: 1
    weight_filler {
      type: "msra"
      std: 0.01
    }
  }
}
layer {
  name: "bn4b_branch2a"
  type: "BatchNorm"
  bottom: "res4b_branch2a"
  top: "res4b_branch2a"
  param {
    lr_mult: 0
    decay_mult: 0
  }
  param {
    lr_mult: 0
    decay_mult: 0
  }
  param {
    lr_mult: 0
    decay_mult: 0
  }
  batch_norm_param {
    use_global_stats: false
  }
}
layer {
  name: "scale4b_branch2a"
  type: "Scale"
  bottom: "res4b_branch2a"
  top: "res4b_branch2a"
  param {
    lr_mult: 1
  }
  scale_param {
    bias_term: true
  }
}
layer {
  name: "res4b_branch2a_relu"
  type: "ReLU"
  bottom: "res4b_branch2a"
  top: "res4b_branch2a"
}
layer {
  name: "res4b_branch2b"
  type: "Convolution"
  bottom: "res4b_branch2a"
  top: "res4b_branch2b"
  param {
    lr_mult: 1
    decay_mult: 1
  }
  convolution_param {
    num_output: 256
    bias_term: false
    pad: 1
    kernel_size: 3
    stride: 1
    weight_filler {
      type: "msra"
      std: 0.01
    }
  }
}
layer {
  name: "bn4b_branch2b"
  type: "BatchNorm"
  bottom: "res4b_branch2b"
  top: "res4b_branch2b"
  param {
    lr_mult: 0
    decay_mult: 0
  }
  param {
    lr_mult: 0
    decay_mult: 0
  }
  param {
    lr_mult: 0
    decay_mult: 0
  }
  batch_norm_param {
    use_global_stats: false
  }
}
layer {
  name: "scale4b_branch2b"
  type: "Scale"
  bottom: "res4b_branch2b"
  top: "res4b_branch2b"
  param {
    lr_mult: 1
  }
  scale_param {
    bias_term: true
  }
}
layer {
  name: "res4b_branch2b_relu"
  type: "ReLU"
  bottom: "res4b_branch2b"
  top: "res4b_branch2b"
}
layer {
  name: "res4b_branch2c"
  type: "Convolution"
  bottom: "res4b_branch2b"
  top: "res4b_branch2c"
  param {
    lr_mult: 1
    decay_mult: 1
  }
  convolution_param {
    num_output: 1024
    bias_term: false
    pad: 0
    kernel_size: 1
    stride: 1
    weight_filler {
      type: "msra"
      std: 0.01
    }
  }
}
layer {
  name: "bn4b_branch2c"
  type: "BatchNorm"
  bottom: "res4b_branch2c"
  top: "res4b_branch2c"
  param {
    lr_mult: 0
    decay_mult: 0
  }
  param {
    lr_mult: 0
    decay_mult: 0
  }
  param {
    lr_mult: 0
    decay_mult: 0
  }
  batch_norm_param {
    use_global_stats: false
  }
}
layer {
  name: "scale4b_branch2c"
  type: "Scale"
  bottom: "res4b_branch2c"
  top: "res4b_branch2c"
  param {
    lr_mult: 1
  }
  scale_param {
    bias_term: true
  }
}
layer {
  name: "res4b"
  type: "Eltwise"
  bottom: "res4a"
  bottom: "res4b_branch2c"
  top: "res4b"
}
layer {
  name: "res4b_relu"
  type: "ReLU"
  bottom: "res4b"
  top: "res4b"
}
layer {
  name: "res4c_branch2a"
  type: "Convolution"
  bottom: "res4b"
  top: "res4c_branch2a"
  param {
    lr_mult: 1
    decay_mult: 1
  }
  convolution_param {
    num_output: 256
    bias_term: false
    pad: 0
    kernel_size: 1
    stride: 1
    weight_filler {
      type: "msra"
      std: 0.01
    }
  }
}
layer {
  name: "bn4c_branch2a"
  type: "BatchNorm"
  bottom: "res4c_branch2a"
  top: "res4c_branch2a"
  param {
    lr_mult: 0
    decay_mult: 0
  }
  param {
    lr_mult: 0
    decay_mult: 0
  }
  param {
    lr_mult: 0
    decay_mult: 0
  }
  batch_norm_param {
    use_global_stats: false
  }
}
layer {
  name: "scale4c_branch2a"
  type: "Scale"
  bottom: "res4c_branch2a"
  top: "res4c_branch2a"
  param {
    lr_mult: 1
  }
  scale_param {
    bias_term: true
  }
}
layer {
  name: "res4c_branch2a_relu"
  type: "ReLU"
  bottom: "res4c_branch2a"
  top: "res4c_branch2a"
}
layer {
  name: "res4c_branch2b"
  type: "Convolution"
  bottom: "res4c_branch2a"
  top: "res4c_branch2b"
  param {
    lr_mult: 1
    decay_mult: 1
  }
  convolution_param {
    num_output: 256
    bias_term: false
    pad: 1
    kernel_size: 3
    stride: 1
    weight_filler {
      type: "msra"
      std: 0.01
  
I1128 12:56:44.571506  5822 layer_factory.hpp:77] Creating layer input-data
I1128 12:56:44.603819  5822 net.cpp:84] Creating Layer input-data
I1128 12:56:44.603839  5822 net.cpp:380] input-data -> data
I1128 12:56:44.603848  5822 net.cpp:380] input-data -> im_info
I1128 12:56:44.603854  5822 net.cpp:380] input-data -> gt_boxes
RoiDataLayer: name_to_top: {'gt_boxes': 2, 'data': 0, 'im_info': 1}
I1128 12:56:44.605422  5822 net.cpp:122] Setting up input-data
I1128 12:56:44.605433  5822 net.cpp:129] Top shape: 1 3 600 1000 (1800000)
I1128 12:56:44.605438  5822 net.cpp:129] Top shape: 1 3 (3)
I1128 12:56:44.605442  5822 net.cpp:129] Top shape: 1 4 (4)
I1128 12:56:44.605443  5822 net.cpp:137] Memory required for data: 7200028
I1128 12:56:44.605446  5822 layer_factory.hpp:77] Creating layer data_input-data_0_split
I1128 12:56:44.605453  5822 net.cpp:84] Creating Layer data_input-data_0_split
I1128 12:56:44.605458  5822 net.cpp:406] data_input-data_0_split <- data
I1128 12:56:44.605463  5822 net.cpp:380] data_input-data_0_split -> data_input-data_0_split_0
I1128 12:56:44.605469  5822 net.cpp:380] data_input-data_0_split -> data_input-data_0_split_1
I1128 12:56:44.605506  5822 net.cpp:122] Setting up data_input-data_0_split
I1128 12:56:44.605512  5822 net.cpp:129] Top shape: 1 3 600 1000 (1800000)
I1128 12:56:44.605520  5822 net.cpp:129] Top shape: 1 3 600 1000 (1800000)
I1128 12:56:44.605521  5822 net.cpp:137] Memory required for data: 21600028
I1128 12:56:44.605523  5822 layer_factory.hpp:77] Creating layer im_info_input-data_1_split
I1128 12:56:44.605530  5822 net.cpp:84] Creating Layer im_info_input-data_1_split
I1128 12:56:44.605531  5822 net.cpp:406] im_info_input-data_1_split <- im_info
I1128 12:56:44.605535  5822 net.cpp:380] im_info_input-data_1_split -> im_info_input-data_1_split_0
I1128 12:56:44.605540  5822 net.cpp:380] im_info_input-data_1_split -> im_info_input-data_1_split_1
I1128 12:56:44.605573  5822 net.cpp:122] Setting up im_info_input-data_1_split
I1128 12:56:44.605577  5822 net.cpp:129] Top shape: 1 3 (3)
I1128 12:56:44.605581  5822 net.cpp:129] Top shape: 1 3 (3)
I1128 12:56:44.605582  5822 net.cpp:137] Memory required for data: 21600052
I1128 12:56:44.605584  5822 layer_factory.hpp:77] Creating layer gt_boxes_input-data_2_split
I1128 12:56:44.605588  5822 net.cpp:84] Creating Layer gt_boxes_input-data_2_split
I1128 12:56:44.605592  5822 net.cpp:406] gt_boxes_input-data_2_split <- gt_boxes
I1128 12:56:44.605597  5822 net.cpp:380] gt_boxes_input-data_2_split -> gt_boxes_input-data_2_split_0
I1128 12:56:44.605602  5822 net.cpp:380] gt_boxes_input-data_2_split -> gt_boxes_input-data_2_split_1
I1128 12:56:44.605633  5822 net.cpp:122] Setting up gt_boxes_input-data_2_split
I1128 12:56:44.605638  5822 net.cpp:129] Top shape: 1 4 (4)
I1128 12:56:44.605641  5822 net.cpp:129] Top shape: 1 4 (4)
I1128 12:56:44.605644  5822 net.cpp:137] Memory required for data: 21600084
I1128 12:56:44.605646  5822 layer_factory.hpp:77] Creating layer conv1
I1128 12:56:44.605657  5822 net.cpp:84] Creating Layer conv1
I1128 12:56:44.605660  5822 net.cpp:406] conv1 <- data_input-data_0_split_0
I1128 12:56:44.605665  5822 net.cpp:380] conv1 -> conv1
I1128 12:56:45.022835  5822 net.cpp:122] Setting up conv1
I1128 12:56:45.022858  5822 net.cpp:129] Top shape: 1 64 300 500 (9600000)
I1128 12:56:45.022861  5822 net.cpp:137] Memory required for data: 60000084
I1128 12:56:45.022876  5822 layer_factory.hpp:77] Creating layer bn_conv1
I1128 12:56:45.022884  5822 net.cpp:84] Creating Layer bn_conv1
I1128 12:56:45.022888  5822 net.cpp:406] bn_conv1 <- conv1
I1128 12:56:45.022893  5822 net.cpp:367] bn_conv1 -> conv1 (in-place)
I1128 12:56:45.023200  5822 net.cpp:122] Setting up bn_conv1
I1128 12:56:45.023207  5822 net.cpp:129] Top shape: 1 64 300 500 (9600000)
I1128 12:56:45.023210  5822 net.cpp:137] Memory required for data: 98400084
I1128 12:56:45.023217  5822 layer_factory.hpp:77] Creating layer scale_conv1
I1128 12:56:45.023223  5822 net.cpp:84] Creating Layer scale_conv1
I1128 12:56:45.023226  5822 net.cpp:406] scale_conv1 <- conv1
I1128 12:56:45.023231  5822 net.cpp:367] scale_conv1 -> conv1 (in-place)
I1128 12:56:45.023273  5822 layer_factory.hpp:77] Creating layer scale_conv1
I1128 12:56:45.024485  5822 net.cpp:122] Setting up scale_conv1
I1128 12:56:45.024497  5822 net.cpp:129] Top shape: 1 64 300 500 (9600000)
I1128 12:56:45.024499  5822 net.cpp:137] Memory required for data: 136800084
I1128 12:56:45.024504  5822 layer_factory.hpp:77] Creating layer conv1_relu
I1128 12:56:45.024509  5822 net.cpp:84] Creating Layer conv1_relu
I1128 12:56:45.024513  5822 net.cpp:406] conv1_relu <- conv1
I1128 12:56:45.024516  5822 net.cpp:367] conv1_relu -> conv1 (in-place)
I1128 12:56:45.024824  5822 net.cpp:122] Setting up conv1_relu
I1128 12:56:45.024833  5822 net.cpp:129] Top shape: 1 64 300 500 (9600000)
I1128 12:56:45.024835  5822 net.cpp:137] Memory required for data: 175200084
I1128 12:56:45.024838  5822 layer_factory.hpp:77] Creating layer pool1
I1128 12:56:45.024845  5822 net.cpp:84] Creating Layer pool1
I1128 12:56:45.024848  5822 net.cpp:406] pool1 <- conv1
I1128 12:56:45.024853  5822 net.cpp:380] pool1 -> pool1
I1128 12:56:45.024902  5822 net.cpp:122] Setting up pool1
I1128 12:56:45.024909  5822 net.cpp:129] Top shape: 1 64 150 250 (2400000)
I1128 12:56:45.024910  5822 net.cpp:137] Memory required for data: 184800084
I1128 12:56:45.024914  5822 layer_factory.hpp:77] Creating layer pool1_pool1_0_split
I1128 12:56:45.024917  5822 net.cpp:84] Creating Layer pool1_pool1_0_split
I1128 12:56:45.024919  5822 net.cpp:406] pool1_pool1_0_split <- pool1
I1128 12:56:45.024924  5822 net.cpp:380] pool1_pool1_0_split -> pool1_pool1_0_split_0
I1128 12:56:45.024929  5822 net.cpp:380] pool1_pool1_0_split -> pool1_pool1_0_split_1
I1128 12:56:45.024965  5822 net.cpp:122] Setting up pool1_pool1_0_split
I1128 12:56:45.024969  5822 net.cpp:129] Top shape: 1 64 150 250 (2400000)
I1128 12:56:45.024972  5822 net.cpp:129] Top shape: 1 64 150 250 (2400000)
I1128 12:56:45.024976  5822 net.cpp:137] Memory required for data: 204000084
I1128 12:56:45.024977  5822 layer_factory.hpp:77] Creating layer res2a_branch2a
I1128 12:56:45.024986  5822 net.cpp:84] Creating Layer res2a_branch2a
I1128 12:56:45.024987  5822 net.cpp:406] res2a_branch2a <- pool1_pool1_0_split_0
I1128 12:56:45.024991  5822 net.cpp:380] res2a_branch2a -> res2a_branch2a
I1128 12:56:45.027400  5822 net.cpp:122] Setting up res2a_branch2a
I1128 12:56:45.027411  5822 net.cpp:129] Top shape: 1 64 150 250 (2400000)
I1128 12:56:45.027415  5822 net.cpp:137] Memory required for data: 213600084
I1128 12:56:45.027418  5822 layer_factory.hpp:77] Creating layer bn2a_branch2a
I1128 12:56:45.027425  5822 net.cpp:84] Creating Layer bn2a_branch2a
I1128 12:56:45.027426  5822 net.cpp:406] bn2a_branch2a <- res2a_branch2a
I1128 12:56:45.027431  5822 net.cpp:367] bn2a_branch2a -> res2a_branch2a (in-place)
I1128 12:56:45.028934  5822 net.cpp:122] Setting up bn2a_branch2a
I1128 12:56:45.028944  5822 net.cpp:129] Top shape: 1 64 150 250 (2400000)
I1128 12:56:45.028947  5822 net.cpp:137] Memory required for data: 223200084
I1128 12:56:45.028955  5822 layer_factory.hpp:77] Creating layer scale2a_branch2a
I1128 12:56:45.028961  5822 net.cpp:84] Creating Layer scale2a_branch2a
I1128 12:56:45.028964  5822 net.cpp:406] scale2a_branch2a <- res2a_branch2a
I1128 12:56:45.028969  5822 net.cpp:367] scale2a_branch2a -> res2a_branch2a (in-place)
I1128 12:56:45.029021  5822 layer_factory.hpp:77] Creating layer scale2a_branch2a
I1128 12:56:45.029186  5822 net.cpp:122] Setting up scale2a_branch2a
I1128 12:56:45.029193  5822 net.cpp:129] Top shape: 1 64 150 250 (2400000)
I1128 12:56:45.029196  5822 net.cpp:137] Memory required for data: 232800084
I1128 12:56:45.029201  5822 layer_factory.hpp:77] Creating layer res2a_branch2a_relu
I1128 12:56:45.029204  5822 net.cpp:84] Creating Layer res2a_branch2a_relu
I1128 12:56:45.029207  5822 net.cpp:406] res2a_branch2a_relu <- res2a_branch2a
I1128 12:56:45.029211  5822 net.cpp:367] res2a_branch2a_relu -> res2a_branch2a (in-place)
I1128 12:56:45.029525  5822 net.cpp:122] Setting up res2a_branch2a_relu
I1128 12:56:45.029534  5822 net.cpp:129] Top shape: 1 64 150 250 (2400000)
I1128 12:56:45.029537  5822 net.cpp:137] Memory required for data: 242400084
I1128 12:56:45.029541  5822 layer_factory.hpp:77] Creating layer res2a_branch2b
I1128 12:56:45.029547  5822 net.cpp:84] Creating Layer res2a_branch2b
I1128 12:56:45.029549  5822 net.cpp:406] res2a_branch2b <- res2a_branch2a
I1128 12:56:45.029554  5822 net.cpp:380] res2a_branch2b -> res2a_branch2b
I1128 12:56:45.031288  5822 net.cpp:122] Setting up res2a_branch2b
I1128 12:56:45.031301  5822 net.cpp:129] Top shape: 1 64 150 250 (2400000)
I1128 12:56:45.031303  5822 net.cpp:137] Memory required for data: 252000084
I1128 12:56:45.031307  5822 layer_factory.hpp:77] Creating layer bn2a_branch2b
I1128 12:56:45.031312  5822 net.cpp:84] Creating Layer bn2a_branch2b
I1128 12:56:45.031316  5822 net.cpp:406] bn2a_branch2b <- res2a_branch2b
I1128 12:56:45.031319  5822 net.cpp:367] bn2a_branch2b -> res2a_branch2b (in-place)
I1128 12:56:45.031555  5822 net.cpp:122] Setting up bn2a_branch2b
I1128 12:56:45.031561  5822 net.cpp:129] Top shape: 1 64 150 250 (2400000)
I1128 12:56:45.031564  5822 net.cpp:137] Memory required for data: 261600084
I1128 12:56:45.031572  5822 layer_factory.hpp:77] Creating layer scale2a_branch2b
I1128 12:56:45.031579  5822 net.cpp:84] Creating Layer scale2a_branch2b
I1128 12:56:45.031581  5822 net.cpp:406] scale2a_branch2b <- res2a_branch2b
I1128 12:56:45.031585  5822 net.cpp:367] scale2a_branch2b -> res2a_branch2b (in-place)
I1128 12:56:45.031626  5822 layer_factory.hpp:77] Creating layer scale2a_branch2b
I1128 12:56:45.031797  5822 net.cpp:122] Setting up scale2a_branch2b
I1128 12:56:45.031803  5822 net.cpp:129] Top shape: 1 64 150 250 (2400000)
I1128 12:56:45.031805  5822 net.cpp:137] Memory required for data: 271200084
I1128 12:56:45.031810  5822 layer_factory.hpp:77] Creating layer res2a_branch2b_relu
I1128 12:56:45.031813  5822 net.cpp:84] Creating Layer res2a_branch2b_relu
I1128 12:56:45.031816  5822 net.cpp:406] res2a_branch2b_relu <- res2a_branch2b
I1128 12:56:45.031819  5822 net.cpp:367] res2a_branch2b_relu -> res2a_branch2b (in-place)
I1128 12:56:45.032449  5822 net.cpp:122] Setting up res2a_branch2b_relu
I1128 12:56:45.032459  5822 net.cpp:129] Top shape: 1 64 150 250 (2400000)
I1128 12:56:45.032461  5822 net.cpp:137] Memory required for data: 280800084
I1128 12:56:45.032464  5822 layer_factory.hpp:77] Creating layer res2a_branch2c
I1128 12:56:45.032471  5822 net.cpp:84] Creating Layer res2a_branch2c
I1128 12:56:45.032474  5822 net.cpp:406] res2a_branch2c <- res2a_branch2b
I1128 12:56:45.032479  5822 net.cpp:380] res2a_branch2c -> res2a_branch2c
I1128 12:56:45.034364  5822 net.cpp:122] Setting up res2a_branch2c
I1128 12:56:45.034375  5822 net.cpp:129] Top shape: 1 256 150 250 (9600000)
I1128 12:56:45.034379  5822 net.cpp:137] Memory required for data: 319200084
I1128 12:56:45.034384  5822 layer_factory.hpp:77] Creating layer bn2a_branch2c
I1128 12:56:45.034389  5822 net.cpp:84] Creating Layer bn2a_branch2c
I1128 12:56:45.034391  5822 net.cpp:406] bn2a_branch2c <- res2a_branch2c
I1128 12:56:45.034395  5822 net.cpp:367] bn2a_branch2c -> res2a_branch2c (in-place)
I1128 12:56:45.034639  5822 net.cpp:122] Setting up bn2a_branch2c
I1128 12:56:45.034646  5822 net.cpp:129] Top shape: 1 256 150 250 (9600000)
I1128 12:56:45.034648  5822 net.cpp:137] Memory required for data: 357600084
I1128 12:56:45.034652  5822 layer_factory.hpp:77] Creating layer scale2a_branch2c
I1128 12:56:45.034658  5822 net.cpp:84] Creating Layer scale2a_branch2c
I1128 12:56:45.034660  5822 net.cpp:406] scale2a_branch2c <- res2a_branch2c
I1128 12:56:45.034664  5822 net.cpp:367] scale2a_branch2c -> res2a_branch2c (in-place)
I1128 12:56:45.034704  5822 layer_factory.hpp:77] Creating layer scale2a_branch2c
I1128 12:56:45.034865  5822 net.cpp:122] Setting up scale2a_branch2c
I1128 12:56:45.034871  5822 net.cpp:129] Top shape: 1 256 150 250 (9600000)
I1128 12:56:45.034873  5822 net.cpp:137] Memory required for data: 396000084
I1128 12:56:45.034878  5822 layer_factory.hpp:77] Creating layer res2a_branch1
I1128 12:56:45.034883  5822 net.cpp:84] Creating Layer res2a_branch1
I1128 12:56:45.034886  5822 net.cpp:406] res2a_branch1 <- pool1_pool1_0_split_1
I1128 12:56:45.034890  5822 net.cpp:380] res2a_branch1 -> res2a_branch1
I1128 12:56:45.036501  5822 net.cpp:122] Setting up res2a_branch1
I1128 12:56:45.036512  5822 net.cpp:129] Top shape: 1 256 150 250 (9600000)
I1128 12:56:45.036515  5822 net.cpp:137] Memory required for data: 434400084
I1128 12:56:45.036520  5822 layer_factory.hpp:77] Creating layer bn2a_branch1
I1128 12:56:45.036525  5822 net.cpp:84] Creating Layer bn2a_branch1
I1128 12:56:45.036528  5822 net.cpp:406] bn2a_branch1 <- res2a_branch1
I1128 12:56:45.036532  5822 net.cpp:367] bn2a_branch1 -> res2a_branch1 (in-place)
I1128 12:56:45.036772  5822 net.cpp:122] Setting up bn2a_branch1
I1128 12:56:45.036778  5822 net.cpp:129] Top shape: 1 256 150 250 (9600000)
I1128 12:56:45.036782  5822 net.cpp:137] Memory required for data: 472800084
I1128 12:56:45.036787  5822 layer_factory.hpp:77] Creating layer scale2a_branch1
I1128 12:56:45.036793  5822 net.cpp:84] Creating Layer scale2a_branch1
I1128 12:56:45.036797  5822 net.cpp:406] scale2a_branch1 <- res2a_branch1
I1128 12:56:45.036799  5822 net.cpp:367] scale2a_branch1 -> res2a_branch1 (in-place)
I1128 12:56:45.036844  5822 layer_factory.hpp:77] Creating layer scale2a_branch1
I1128 12:56:45.037004  5822 net.cpp:122] Setting up scale2a_branch1
I1128 12:56:45.037010  5822 net.cpp:129] Top shape: 1 256 150 250 (9600000)
I1128 12:56:45.037012  5822 net.cpp:137] Memory required for data: 511200084
I1128 12:56:45.037016  5822 layer_factory.hpp:77] Creating layer res2a
I1128 12:56:45.037021  5822 net.cpp:84] Creating Layer res2a
I1128 12:56:45.037024  5822 net.cpp:406] res2a <- res2a_branch1
I1128 12:56:45.037026  5822 net.cpp:406] res2a <- res2a_branch2c
I1128 12:56:45.037030  5822 net.cpp:380] res2a -> res2a
I1128 12:56:45.037057  5822 net.cpp:122] Setting up res2a
I1128 12:56:45.037062  5822 net.cpp:129] Top shape: 1 256 150 250 (9600000)
I1128 12:56:45.037065  5822 net.cpp:137] Memory required for data: 549600084
I1128 12:56:45.037067  5822 layer_factory.hpp:77] Creating layer res2a_relu
I1128 12:56:45.037070  5822 net.cpp:84] Creating Layer res2a_relu
I1128 12:56:45.037075  5822 net.cpp:406] res2a_relu <- res2a
I1128 12:56:45.037077  5822 net.cpp:367] res2a_relu -> res2a (in-place)
I1128 12:56:45.037366  5822 net.cpp:122] Setting up res2a_relu
I1128 12:56:45.037382  5822 net.cpp:129] Top shape: 1 256 150 250 (9600000)
I1128 12:56:45.037384  5822 net.cpp:137] Memory required for data: 588000084
I1128 12:56:45.037387  5822 layer_factory.hpp:77] Creating layer res2a_res2a_relu_0_split
I1128 12:56:45.037391  5822 net.cpp:84] Creating Layer res2a_res2a_relu_0_split
I1128 12:56:45.037394  5822 net.cpp:406] res2a_res2a_relu_0_split <- res2a
I1128 12:56:45.037398  5822 net.cpp:380] res2a_res2a_relu_0_split -> res2a_res2a_relu_0_split_0
I1128 12:56:45.037402  5822 net.cpp:380] res2a_res2a_relu_0_split -> res2a_res2a_relu_0_split_1
I1128 12:56:45.037449  5822 net.cpp:122] Setting up res2a_res2a_relu_0_split
I1128 12:56:45.037456  5822 net.cpp:129] Top shape: 1 256 150 250 (9600000)
I1128 12:56:45.037458  5822 net.cpp:129] Top shape: 1 256 150 250 (9600000)
I1128 12:56:45.037461  5822 net.cpp:137] Memory required for data: 664800084
I1128 12:56:45.037462  5822 layer_factory.hpp:77] Creating layer res2b_branch2a
I1128 12:56:45.037469  5822 net.cpp:84] Creating Layer res2b_branch2a
I1128 12:56:45.037472  5822 net.cpp:406] res2b_branch2a <- res2a_res2a_relu_0_split_0
I1128 12:56:45.037477  5822 net.cpp:380] res2b_branch2a -> res2b_branch2a
I1128 12:56:45.039041  5822 net.cpp:122] Setting up res2b_branch2a
I1128 12:56:45.039052  5822 net.cpp:129] Top shape: 1 64 150 250 (2400000)
I1128 12:56:45.039053  5822 net.cpp:137] Memory required for data: 674400084
I1128 12:56:45.039057  5822 layer_factory.hpp:77] Creating layer bn2b_branch2a
I1128 12:56:45.039063  5822 net.cpp:84] Creating Layer bn2b_branch2a
I1128 12:56:45.039067  5822 net.cpp:406] bn2b_branch2a <- res2b_branch2a
I1128 12:56:45.039070  5822 net.cpp:367] bn2b_branch2a -> res2b_branch2a (in-place)
I1128 12:56:45.040271  5822 net.cpp:122] Setting up bn2b_branch2a
I1128 12:56:45.040280  5822 net.cpp:129] Top shape: 1 64 150 250 (2400000)
I1128 12:56:45.040283  5822 net.cpp:137] Memory required for data: 684000084
I1128 12:56:45.040292  5822 layer_factory.hpp:77] Creating layer scale2b_branch2a
I1128 12:56:45.040298  5822 net.cpp:84] Creating Layer scale2b_branch2a
I1128 12:56:45.040300  5822 net.cpp:406] scale2b_branch2a <- res2b_branch2a
I1128 12:56:45.040304  5822 net.cpp:367] scale2b_branch2a -> res2b_branch2a (in-place)
I1128 12:56:45.040351  5822 layer_factory.hpp:77] Creating layer scale2b_branch2a
I1128 12:56:45.040527  5822 net.cpp:122] Setting up scale2b_branch2a
I1128 12:56:45.040534  5822 net.cpp:129] Top shape: 1 64 150 250 (2400000)
I1128 12:56:45.040537  5822 net.cpp:137] Memory required for data: 693600084
I1128 12:56:45.040541  5822 layer_factory.hpp:77] Creating layer res2b_branch2a_relu
I1128 12:56:45.040545  5822 net.cpp:84] Creating Layer res2b_branch2a_relu
I1128 12:56:45.040549  5822 net.cpp:406] res2b_branch2a_relu <- res2b_branch2a
I1128 12:56:45.040552  5822 net.cpp:367] res2b_branch2a_relu -> res2b_branch2a (in-place)
I1128 12:56:45.040856  5822 net.cpp:122] Setting up res2b_branch2a_relu
I1128 12:56:45.040864  5822 net.cpp:129] Top shape: 1 64 150 250 (2400000)
I1128 12:56:45.040868  5822 net.cpp:137] Memory required for data: 703200084
I1128 12:56:45.040870  5822 layer_factory.hpp:77] Creating layer res2b_branch2b
I1128 12:56:45.040877  5822 net.cpp:84] Creating Layer res2b_branch2b
I1128 12:56:45.040879  5822 net.cpp:406] res2b_branch2b <- res2b_branch2a
I1128 12:56:45.040884  5822 net.cpp:380] res2b_branch2b -> res2b_branch2b
I1128 12:56:45.042940  5822 net.cpp:122] Setting up res2b_branch2b
I1128 12:56:45.042951  5822 net.cpp:129] Top shape: 1 64 150 250 (2400000)
I1128 12:56:45.042954  5822 net.cpp:137] Memory required for data: 712800084
I1128 12:56:45.042959  5822 layer_factory.hpp:77] Creating layer bn2b_branch2b
I1128 12:56:45.042966  5822 net.cpp:84] Creating Layer bn2b_branch2b
I1128 12:56:45.042970  5822 net.cpp:406] bn2b_branch2b <- res2b_branch2b
I1128 12:56:45.042974  5822 net.cpp:367] bn2b_branch2b -> res2b_branch2b (in-place)
I1128 12:56:45.043227  5822 net.cpp:122] Setting up bn2b_branch2b
I1128 12:56:45.043234  5822 net.cpp:129] Top shape: 1 64 150 250 (2400000)
I1128 12:56:45.043237  5822 net.cpp:137] Memory required for data: 722400084
I1128 12:56:45.043242  5822 layer_factory.hpp:77] Creating layer scale2b_branch2b
I1128 12:56:45.043247  5822 net.cpp:84] Creating Layer scale2b_branch2b
I1128 12:56:45.043249  5822 net.cpp:406] scale2b_branch2b <- res2b_branch2b
I1128 12:56:45.043253  5822 net.cpp:367] scale2b_branch2b -> res2b_branch2b (in-place)
I1128 12:56:45.043296  5822 layer_factory.hpp:77] Creating layer scale2b_branch2b
I1128 12:56:45.043475  5822 net.cpp:122] Setting up scale2b_branch2b
I1128 12:56:45.043481  5822 net.cpp:129] Top shape: 1 64 150 250 (2400000)
I1128 12:56:45.043484  5822 net.cpp:137] Memory required for data: 732000084
I1128 12:56:45.043488  5822 layer_factory.hpp:77] Creating layer res2b_branch2b_relu
I1128 12:56:45.043493  5822 net.cpp:84] Creating Layer res2b_branch2b_relu
I1128 12:56:45.043495  5822 net.cpp:406] res2b_branch2b_relu <- res2b_branch2b
I1128 12:56:45.043498  5822 net.cpp:367] res2b_branch2b_relu -> res2b_branch2b (in-place)
I1128 12:56:45.044121  5822 net.cpp:122] Setting up res2b_branch2b_relu
I1128 12:56:45.044131  5822 net.cpp:129] Top shape: 1 64 150 250 (2400000)
I1128 12:56:45.044133  5822 net.cpp:137] Memory required for data: 741600084
I1128 12:56:45.044137  5822 layer_factory.hpp:77] Creating layer res2b_branch2c
I1128 12:56:45.044143  5822 net.cpp:84] Creating Layer res2b_branch2c
I1128 12:56:45.044147  5822 net.cpp:406] res2b_branch2c <- res2b_branch2b
I1128 12:56:45.044150  5822 net.cpp:380] res2b_branch2c -> res2b_branch2c
I1128 12:56:45.045747  5822 net.cpp:122] Setting up res2b_branch2c
I1128 12:56:45.045758  5822 net.cpp:129] Top shape: 1 256 150 250 (9600000)
I1128 12:56:45.045760  5822 net.cpp:137] Memory required for data: 780000084
I1128 12:56:45.045764  5822 layer_factory.hpp:77] Creating layer bn2b_branch2c
I1128 12:56:45.045769  5822 net.cpp:84] Creating Layer bn2b_branch2c
I1128 12:56:45.045771  5822 net.cpp:406] bn2b_branch2c <- res2b_branch2c
I1128 12:56:45.045776  5822 net.cpp:367] bn2b_branch2c -> res2b_branch2c (in-place)
I1128 12:56:45.046022  5822 net.cpp:122] Setting up bn2b_branch2c
I1128 12:56:45.046030  5822 net.cpp:129] Top shape: 1 256 150 250 (9600000)
I1128 12:56:45.046031  5822 net.cpp:137] Memory required for data: 818400084
I1128 12:56:45.046037  5822 layer_factory.hpp:77] Creating layer scale2b_branch2c
I1128 12:56:45.046041  5822 net.cpp:84] Creating Layer scale2b_branch2c
I1128 12:56:45.046043  5822 net.cpp:406] scale2b_branch2c <- res2b_branch2c
I1128 12:56:45.046047  5822 net.cpp:367] scale2b_branch2c -> res2b_branch2c (in-place)
I1128 12:56:45.046089  5822 layer_factory.hpp:77] Creating layer scale2b_branch2c
I1128 12:56:45.046258  5822 net.cpp:122] Setting up scale2b_branch2c
I1128 12:56:45.046265  5822 net.cpp:129] Top shape: 1 256 150 250 (9600000)
I1128 12:56:45.046267  5822 net.cpp:137] Memory required for data: 856800084
I1128 12:56:45.046272  5822 layer_factory.hpp:77] Creating layer res2b
I1128 12:56:45.046275  5822 net.cpp:84] Creating Layer res2b
I1128 12:56:45.046278  5822 net.cpp:406] res2b <- res2a_res2a_relu_0_split_1
I1128 12:56:45.046281  5822 net.cpp:406] res2b <- res2b_branch2c
I1128 12:56:45.046284  5822 net.cpp:380] res2b -> res2b
I1128 12:56:45.046314  5822 net.cpp:122] Setting up res2b
I1128 12:56:45.046319  5822 net.cpp:129] Top shape: 1 256 150 250 (9600000)
I1128 12:56:45.046320  5822 net.cpp:137] Memory required for data: 895200084
I1128 12:56:45.046324  5822 layer_factory.hpp:77] Creating layer res2b_relu
I1128 12:56:45.046326  5822 net.cpp:84] Creating Layer res2b_relu
I1128 12:56:45.046329  5822 net.cpp:406] res2b_relu <- res2b
I1128 12:56:45.046332  5822 net.cpp:367] res2b_relu -> res2b (in-place)
I1128 12:56:45.046627  5822 net.cpp:122] Setting up res2b_relu
I1128 12:56:45.046635  5822 net.cpp:129] Top shape: 1 256 150 250 (9600000)
I1128 12:56:45.046638  5822 net.cpp:137] Memory required for data: 933600084
I1128 12:56:45.046640  5822 layer_factory.hpp:77] Creating layer res2b_res2b_relu_0_split
I1128 12:56:45.046644  5822 net.cpp:84] Creating Layer res2b_res2b_relu_0_split
I1128 12:56:45.046648  5822 net.cpp:406] res2b_res2b_relu_0_split <- res2b
I1128 12:56:45.046651  5822 net.cpp:380] res2b_res2b_relu_0_split -> res2b_res2b_relu_0_split_0
I1128 12:56:45.046658  5822 net.cpp:380] res2b_res2b_relu_0_split -> res2b_res2b_relu_0_split_1
I1128 12:56:45.046705  5822 net.cpp:122] Setting up res2b_res2b_relu_0_split
I1128 12:56:45.046710  5822 net.cpp:129] Top shape: 1 256 150 250 (9600000)
I1128 12:56:45.046713  5822 net.cpp:129] Top shape: 1 256 150 250 (9600000)
I1128 12:56:45.046715  5822 net.cpp:137] Memory required for data: 1010400084
I1128 12:56:45.046718  5822 layer_factory.hpp:77] Creating layer res2c_branch2a
I1128 12:56:45.046725  5822 net.cpp:84] Creating Layer res2c_branch2a
I1128 12:56:45.046727  5822 net.cpp:406] res2c_branch2a <- res2b_res2b_relu_0_split_0
I1128 12:56:45.046731  5822 net.cpp:380] res2c_branch2a -> res2c_branch2a
I1128 12:56:45.049475  5822 net.cpp:122] Setting up res2c_branch2a
I1128 12:56:45.049486  5822 net.cpp:129] Top shape: 1 64 150 250 (2400000)
I1128 12:56:45.049489  5822 net.cpp:137] Memory required for data: 1020000084
I1128 12:56:45.049494  5822 layer_factory.hpp:77] Creating layer bn2c_branch2a
I1128 12:56:45.049499  5822 net.cpp:84] Creating Layer bn2c_branch2a
I1128 12:56:45.049502  5822 net.cpp:406] bn2c_branch2a <- res2c_branch2a
I1128 12:56:45.049506  5822 net.cpp:367] bn2c_branch2a -> res2c_branch2a (in-place)
I1128 12:56:45.049772  5822 net.cpp:122] Setting up bn2c_branch2a
I1128 12:56:45.049779  5822 net.cpp:129] Top shape: 1 64 150 250 (2400000)
I1128 12:56:45.049782  5822 net.cpp:137] Memory required for data: 1029600084
I1128 12:56:45.049787  5822 layer_factory.hpp:77] Creating layer scale2c_branch2a
I1128 12:56:45.049791  5822 net.cpp:84] Creating Layer scale2c_branch2a
I1128 12:56:45.049793  5822 net.cpp:406] scale2c_branch2a <- res2c_branch2a
I1128 12:56:45.049798  5822 net.cpp:367] scale2c_branch2a -> res2c_branch2a (in-place)
I1128 12:56:45.049844  5822 layer_factory.hpp:77] Creating layer scale2c_branch2a
I1128 12:56:45.050025  5822 net.cpp:122] Setting up scale2c_branch2a
I1128 12:56:45.050034  5822 net.cpp:129] Top shape: 1 64 150 250 (2400000)
I1128 12:56:45.050036  5822 net.cpp:137] Memory required for data: 1039200084
I1128 12:56:45.050040  5822 layer_factory.hpp:77] Creating layer res2c_branch2a_relu
I1128 12:56:45.050045  5822 net.cpp:84] Creating Layer res2c_branch2a_relu
I1128 12:56:45.050047  5822 net.cpp:406] res2c_branch2a_relu <- res2c_branch2a
I1128 12:56:45.050051  5822 net.cpp:367] res2c_branch2a_relu -> res2c_branch2a (in-place)
I1128 12:56:45.050354  5822 net.cpp:122] Setting up res2c_branch2a_relu
I1128 12:56:45.050361  5822 net.cpp:129] Top shape: 1 64 150 250 (2400000)
I1128 12:56:45.050364  5822 net.cpp:137] Memory required for data: 1048800084
I1128 12:56:45.050367  5822 layer_factory.hpp:77] Creating layer res2c_branch2b
I1128 12:56:45.050374  5822 net.cpp:84] Creating Layer res2c_branch2b
I1128 12:56:45.050376  5822 net.cpp:406] res2c_branch2b <- res2c_branch2a
I1128 12:56:45.050380  5822 net.cpp:380] res2c_branch2b -> res2c_branch2b
I1128 12:56:45.052130  5822 net.cpp:122] Setting up res2c_branch2b
I1128 12:56:45.052141  5822 net.cpp:129] Top shape: 1 64 150 250 (2400000)
I1128 12:56:45.052144  5822 net.cpp:137] Memory required for data: 1058400084
I1128 12:56:45.052148  5822 layer_factory.hpp:77] Creating layer bn2c_branch2b
I1128 12:56:45.052153  5822 net.cpp:84] Creating Layer bn2c_branch2b
I1128 12:56:45.052156  5822 net.cpp:406] bn2c_branch2b <- res2c_branch2b
I1128 12:56:45.052160  5822 net.cpp:367] bn2c_branch2b -> res2c_branch2b (in-place)
I1128 12:56:45.053367  5822 net.cpp:122] Setting up bn2c_branch2b
I1128 12:56:45.053386  5822 net.cpp:129] Top shape: 1 64 150 250 (2400000)
I1128 12:56:45.053388  5822 net.cpp:137] Memory required for data: 1068000084
I1128 12:56:45.053395  5822 layer_factory.hpp:77] Creating layer scale2c_branch2b
I1128 12:56:45.053401  5822 net.cpp:84] Creating Layer scale2c_branch2b
I1128 12:56:45.053403  5822 net.cpp:406] scale2c_branch2b <- res2c_branch2b
I1128 12:56:45.053407  5822 net.cpp:367] scale2c_branch2b -> res2c_branch2b (in-place)
I1128 12:56:45.053458  5822 layer_factory.hpp:77] Creating layer scale2c_branch2b
I1128 12:56:45.053640  5822 net.cpp:122] Setting up scale2c_branch2b
I1128 12:56:45.053647  5822 net.cpp:129] Top shape: 1 64 150 250 (2400000)
I1128 12:56:45.053649  5822 net.cpp:137] Memory required for data: 1077600084
I1128 12:56:45.053655  5822 layer_factory.hpp:77] Creating layer res2c_branch2b_relu
I1128 12:56:45.053660  5822 net.cpp:84] Creating Layer res2c_branch2b_relu
I1128 12:56:45.053663  5822 net.cpp:406] res2c_branch2b_relu <- res2c_branch2b
I1128 12:56:45.053666  5822 net.cpp:367] res2c_branch2b_relu -> res2c_branch2b (in-place)
I1128 12:56:45.053994  5822 net.cpp:122] Setting up res2c_branch2b_relu
I1128 12:56:45.054003  5822 net.cpp:129] Top shape: 1 64 150 250 (2400000)
I1128 12:56:45.054005  5822 net.cpp:137] Memory required for data: 1087200084
I1128 12:56:45.054008  5822 layer_factory.hpp:77] Creating layer res2c_branch2c
I1128 12:56:45.054015  5822 net.cpp:84] Creating Layer res2c_branch2c
I1128 12:56:45.054018  5822 net.cpp:406] res2c_branch2c <- res2c_branch2b
I1128 12:56:45.054023  5822 net.cpp:380] res2c_branch2c -> res2c_branch2c
I1128 12:56:45.055935  5822 net.cpp:122] Setting up res2c_branch2c
I1128 12:56:45.055946  5822 net.cpp:129] Top shape: 1 256 150 250 (9600000)
I1128 12:56:45.055949  5822 net.cpp:137] Memory required for data: 1125600084
I1128 12:56:45.055953  5822 layer_factory.hpp:77] Creating layer bn2c_branch2c
I1128 12:56:45.055958  5822 net.cpp:84] Creating Layer bn2c_branch2c
I1128 12:56:45.055961  5822 net.cpp:406] bn2c_branch2c <- res2c_branch2c
I1128 12:56:45.055965  5822 net.cpp:367] bn2c_branch2c -> res2c_branch2c (in-place)
I1128 12:56:45.056226  5822 net.cpp:122] Setting up bn2c_branch2c
I1128 12:56:45.056233  5822 net.cpp:129] Top shape: 1 256 150 250 (9600000)
I1128 12:56:45.056236  5822 net.cpp:137] Memory required for data: 1164000084
I1128 12:56:45.056246  5822 layer_factory.hpp:77] Creating layer scale2c_branch2c
I1128 12:56:45.056252  5822 net.cpp:84] Creating Layer scale2c_branch2c
I1128 12:56:45.056253  5822 net.cpp:406] scale2c_branch2c <- res2c_branch2c
I1128 12:56:45.056257  5822 net.cpp:367] scale2c_branch2c -> res2c_branch2c (in-place)
I1128 12:56:45.056303  5822 layer_factory.hpp:77] Creating layer scale2c_branch2c
I1128 12:56:45.056473  5822 net.cpp:122] Setting up scale2c_branch2c
I1128 12:56:45.056479  5822 net.cpp:129] Top shape: 1 256 150 250 (9600000)
I1128 12:56:45.056483  5822 net.cpp:137] Memory required for data: 1202400084
I1128 12:56:45.056488  5822 layer_factory.hpp:77] Creating layer res2c
I1128 12:56:45.056493  5822 net.cpp:84] Creating Layer res2c
I1128 12:56:45.056494  5822 net.cpp:406] res2c <- res2b_res2b_relu_0_split_1
I1128 12:56:45.056499  5822 net.cpp:406] res2c <- res2c_branch2c
I1128 12:56:45.056501  5822 net.cpp:380] res2c -> res2c
I1128 12:56:45.056530  5822 net.cpp:122] Setting up res2c
I1128 12:56:45.056535  5822 net.cpp:129] Top shape: 1 256 150 250 (9600000)
I1128 12:56:45.056537  5822 net.cpp:137] Memory required for data: 1240800084
I1128 12:56:45.056540  5822 layer_factory.hpp:77] Creating layer res2c_relu
I1128 12:56:45.056545  5822 net.cpp:84] Creating Layer res2c_relu
I1128 12:56:45.056546  5822 net.cpp:406] res2c_relu <- res2c
I1128 12:56:45.056550  5822 net.cpp:367] res2c_relu -> res2c (in-place)
I1128 12:56:45.057183  5822 net.cpp:122] Setting up res2c_relu
I1128 12:56:45.057193  5822 net.cpp:129] Top shape: 1 256 150 250 (9600000)
I1128 12:56:45.057194  5822 net.cpp:137] Memory required for data: 1279200084
I1128 12:56:45.057198  5822 layer_factory.hpp:77] Creating layer res2c_res2c_relu_0_split
I1128 12:56:45.057201  5822 net.cpp:84] Creating Layer res2c_res2c_relu_0_split
I1128 12:56:45.057204  5822 net.cpp:406] res2c_res2c_relu_0_split <- res2c
I1128 12:56:45.057209  5822 net.cpp:380] res2c_res2c_relu_0_split -> res2c_res2c_relu_0_split_0
I1128 12:56:45.057214  5822 net.cpp:380] res2c_res2c_relu_0_split -> res2c_res2c_relu_0_split_1
I1128 12:56:45.057265  5822 net.cpp:122] Setting up res2c_res2c_relu_0_split
I1128 12:56:45.057271  5822 net.cpp:129] Top shape: 1 256 150 250 (9600000)
I1128 12:56:45.057273  5822 net.cpp:129] Top shape: 1 256 150 250 (9600000)
I1128 12:56:45.057276  5822 net.cpp:137] Memory required for data: 1356000084
I1128 12:56:45.057277  5822 layer_factory.hpp:77] Creating layer res3a_branch2a
I1128 12:56:45.057286  5822 net.cpp:84] Creating Layer res3a_branch2a
I1128 12:56:45.057287  5822 net.cpp:406] res3a_branch2a <- res2c_res2c_relu_0_split_0
I1128 12:56:45.057291  5822 net.cpp:380] res3a_branch2a -> res3a_branch2a
I1128 12:56:45.059361  5822 net.cpp:122] Setting up res3a_branch2a
I1128 12:56:45.059372  5822 net.cpp:129] Top shape: 1 128 75 125 (1200000)
I1128 12:56:45.059376  5822 net.cpp:137] Memory required for data: 1360800084
I1128 12:56:45.059381  5822 layer_factory.hpp:77] Creating layer bn3a_branch2a
I1128 12:56:45.059386  5822 net.cpp:84] Creating Layer bn3a_branch2a
I1128 12:56:45.059388  5822 net.cpp:406] bn3a_branch2a <- res3a_branch2a
I1128 12:56:45.059392  5822 net.cpp:367] bn3a_branch2a -> res3a_branch2a (in-place)
I1128 12:56:45.059636  5822 net.cpp:122] Setting up bn3a_branch2a
I1128 12:56:45.059643  5822 net.cpp:129] Top shape: 1 128 75 125 (1200000)
I1128 12:56:45.059645  5822 net.cpp:137] Memory required for data: 1365600084
I1128 12:56:45.059651  5822 layer_factory.hpp:77] Creating layer scale3a_branch2a
I1128 12:56:45.059656  5822 net.cpp:84] Creating Layer scale3a_branch2a
I1128 12:56:45.059659  5822 net.cpp:406] scale3a_branch2a <- res3a_branch2a
I1128 12:56:45.059662  5822 net.cpp:367] scale3a_branch2a -> res3a_branch2a (in-place)
I1128 12:56:45.059705  5822 layer_factory.hpp:77] Creating layer scale3a_branch2a
I1128 12:56:45.059850  5822 net.cpp:122] Setting up scale3a_branch2a
I1128 12:56:45.059857  5822 net.cpp:129] Top shape: 1 128 75 125 (1200000)
I1128 12:56:45.059859  5822 net.cpp:137] Memory required for data: 1370400084
I1128 12:56:45.059864  5822 layer_factory.hpp:77] Creating layer res3a_branch2a_relu
I1128 12:56:45.059867  5822 net.cpp:84] Creating Layer res3a_branch2a_relu
I1128 12:56:45.059870  5822 net.cpp:406] res3a_branch2a_relu <- res3a_branch2a
I1128 12:56:45.059873  5822 net.cpp:367] res3a_branch2a_relu -> res3a_branch2a (in-place)
I1128 12:56:45.060184  5822 net.cpp:122] Setting up res3a_branch2a_relu
I1128 12:56:45.060192  5822 net.cpp:129] Top shape: 1 128 75 125 (1200000)
I1128 12:56:45.060194  5822 net.cpp:137] Memory required for data: 1375200084
I1128 12:56:45.060196  5822 layer_factory.hpp:77] Creating layer res3a_branch2b
I1128 12:56:45.060204  5822 net.cpp:84] Creating Layer res3a_branch2b
I1128 12:56:45.060206  5822 net.cpp:406] res3a_branch2b <- res3a_branch2a
I1128 12:56:45.060210  5822 net.cpp:380] res3a_branch2b -> res3a_branch2b
I1128 12:56:45.063096  5822 net.cpp:122] Setting up res3a_branch2b
I1128 12:56:45.063107  5822 net.cpp:129] Top shape: 1 128 75 125 (1200000)
I1128 12:56:45.063109  5822 net.cpp:137] Memory required for data: 1380000084
I1128 12:56:45.063114  5822 layer_factory.hpp:77] Creating layer bn3a_branch2b
I1128 12:56:45.063119  5822 net.cpp:84] Creating Layer bn3a_branch2b
I1128 12:56:45.063122  5822 net.cpp:406] bn3a_branch2b <- res3a_branch2b
I1128 12:56:45.063127  5822 net.cpp:367] bn3a_branch2b -> res3a_branch2b (in-place)
I1128 12:56:45.063380  5822 net.cpp:122] Setting up bn3a_branch2b
I1128 12:56:45.063386  5822 net.cpp:129] Top shape: 1 128 75 125 (1200000)
I1128 12:56:45.063388  5822 net.cpp:137] Memory required for data: 1384800084
I1128 12:56:45.063395  5822 layer_factory.hpp:77] Creating layer scale3a_branch2b
I1128 12:56:45.063398  5822 net.cpp:84] Creating Layer scale3a_branch2b
I1128 12:56:45.063401  5822 net.cpp:406] scale3a_branch2b <- res3a_branch2b
I1128 12:56:45.063405  5822 net.cpp:367] scale3a_branch2b -> res3a_branch2b (in-place)
I1128 12:56:45.063453  5822 layer_factory.hpp:77] Creating layer scale3a_branch2b
I1128 12:56:45.063604  5822 net.cpp:122] Setting up scale3a_branch2b
I1128 12:56:45.063611  5822 net.cpp:129] Top shape: 1 128 75 125 (1200000)
I1128 12:56:45.063612  5822 net.cpp:137] Memory required for data: 1389600084
I1128 12:56:45.063616  5822 layer_factory.hpp:77] Creating layer res3a_branch2b_relu
I1128 12:56:45.063621  5822 net.cpp:84] Creating Layer res3a_branch2b_relu
I1128 12:56:45.063623  5822 net.cpp:406] res3a_branch2b_relu <- res3a_branch2b
I1128 12:56:45.063627  5822 net.cpp:367] res3a_branch2b_relu -> res3a_branch2b (in-place)
I1128 12:56:45.063930  5822 net.cpp:122] Setting up res3a_branch2b_relu
I1128 12:56:45.063940  5822 net.cpp:129] Top shape: 1 128 75 125 (1200000)
I1128 12:56:45.063942  5822 net.cpp:137] Memory required for data: 1394400084
I1128 12:56:45.063944  5822 layer_factory.hpp:77] Creating layer res3a_branch2c
I1128 12:56:45.063951  5822 net.cpp:84] Creating Layer res3a_branch2c
I1128 12:56:45.063956  5822 net.cpp:406] res3a_branch2c <- res3a_branch2b
I1128 12:56:45.063959  5822 net.cpp:380] res3a_branch2c -> res3a_branch2c
I1128 12:56:45.065963  5822 net.cpp:122] Setting up res3a_branch2c
I1128 12:56:45.065974  5822 net.cpp:129] Top shape: 1 512 75 125 (4800000)
I1128 12:56:45.065978  5822 net.cpp:137] Memory required for data: 1413600084
I1128 12:56:45.065981  5822 layer_factory.hpp:77] Creating layer bn3a_branch2c
I1128 12:56:45.065991  5822 net.cpp:84] Creating Layer bn3a_branch2c
I1128 12:56:45.065996  5822 net.cpp:406] bn3a_branch2c <- res3a_branch2c
I1128 12:56:45.066000  5822 net.cpp:367] bn3a_branch2c -> res3a_branch2c (in-place)
I1128 12:56:45.067207  5822 net.cpp:122] Setting up bn3a_branch2c
I1128 12:56:45.067217  5822 net.cpp:129] Top shape: 1 512 75 125 (4800000)
I1128 12:56:45.067220  5822 net.cpp:137] Memory required for data: 1432800084
I1128 12:56:45.067227  5822 layer_factory.hpp:77] Creating layer scale3a_branch2c
I1128 12:56:45.067232  5822 net.cpp:84] Creating Layer scale3a_branch2c
I1128 12:56:45.067235  5822 net.cpp:406] scale3a_branch2c <- res3a_branch2c
I1128 12:56:45.067239  5822 net.cpp:367] scale3a_branch2c -> res3a_branch2c (in-place)
I1128 12:56:45.067281  5822 layer_factory.hpp:77] Creating layer scale3a_branch2c
I1128 12:56:45.067438  5822 net.cpp:122] Setting up scale3a_branch2c
I1128 12:56:45.067445  5822 net.cpp:129] Top shape: 1 512 75 125 (4800000)
I1128 12:56:45.067446  5822 net.cpp:137] Memory required for data: 1452000084
I1128 12:56:45.067451  5822 layer_factory.hpp:77] Creating layer res3a_branch1
I1128 12:56:45.067458  5822 net.cpp:84] Creating Layer res3a_branch1
I1128 12:56:45.067461  5822 net.cpp:406] res3a_branch1 <- res2c_res2c_relu_0_split_1
I1128 12:56:45.067467  5822 net.cpp:380] res3a_branch1 -> res3a_branch1
I1128 12:56:45.069908  5822 net.cpp:122] Setting up res3a_branch1
I1128 12:56:45.069921  5822 net.cpp:129] Top shape: 1 512 75 125 (4800000)
I1128 12:56:45.069923  5822 net.cpp:137] Memory required for data: 1471200084
I1128 12:56:45.069927  5822 layer_factory.hpp:77] Creating layer bn3a_branch1
I1128 12:56:45.069932  5822 net.cpp:84] Creating Layer bn3a_branch1
I1128 12:56:45.069936  5822 net.cpp:406] bn3a_branch1 <- res3a_branch1
I1128 12:56:45.069941  5822 net.cpp:367] bn3a_branch1 -> res3a_branch1 (in-place)
I1128 12:56:45.070190  5822 net.cpp:122] Setting up bn3a_branch1
I1128 12:56:45.070197  5822 net.cpp:129] Top shape: 1 512 75 125 (4800000)
I1128 12:56:45.070199  5822 net.cpp:137] Memory required for data: 1490400084
I1128 12:56:45.070204  5822 layer_factory.hpp:77] Creating layer scale3a_branch1
I1128 12:56:45.070209  5822 net.cpp:84] Creating Layer scale3a_branch1
I1128 12:56:45.070211  5822 net.cpp:406] scale3a_branch1 <- res3a_branch1
I1128 12:56:45.070214  5822 net.cpp:367] scale3a_branch1 -> res3a_branch1 (in-place)
I1128 12:56:45.070257  5822 layer_factory.hpp:77] Creating layer scale3a_branch1
I1128 12:56:45.070415  5822 net.cpp:122] Setting up scale3a_branch1
I1128 12:56:45.070423  5822 net.cpp:129] Top shape: 1 512 75 125 (4800000)
I1128 12:56:45.070425  5822 net.cpp:137] Memory required for data: 1509600084
I1128 12:56:45.070430  5822 layer_factory.hpp:77] Creating layer res3a
I1128 12:56:45.070433  5822 net.cpp:84] Creating Layer res3a
I1128 12:56:45.070436  5822 net.cpp:406] res3a <- res3a_branch1
I1128 12:56:45.070439  5822 net.cpp:406] res3a <- res3a_branch2c
I1128 12:56:45.070442  5822 net.cpp:380] res3a -> res3a
I1128 12:56:45.070472  5822 net.cpp:122] Setting up res3a
I1128 12:56:45.070477  5822 net.cpp:129] Top shape: 1 512 75 125 (4800000)
I1128 12:56:45.070479  5822 net.cpp:137] Memory required for data: 1528800084
I1128 12:56:45.070482  5822 layer_factory.hpp:77] Creating layer res3a_relu
I1128 12:56:45.070485  5822 net.cpp:84] Creating Layer res3a_relu
I1128 12:56:45.070487  5822 net.cpp:406] res3a_relu <- res3a
I1128 12:56:45.070492  5822 net.cpp:367] res3a_relu -> res3a (in-place)
I1128 12:56:45.071122  5822 net.cpp:122] Setting up res3a_relu
I1128 12:56:45.071133  5822 net.cpp:129] Top shape: 1 512 75 125 (4800000)
I1128 12:56:45.071135  5822 net.cpp:137] Memory required for data: 1548000084
I1128 12:56:45.071138  5822 layer_factory.hpp:77] Creating layer res3a_res3a_relu_0_split
I1128 12:56:45.071143  5822 net.cpp:84] Creating Layer res3a_res3a_relu_0_split
I1128 12:56:45.071146  5822 net.cpp:406] res3a_res3a_relu_0_split <- res3a
I1128 12:56:45.071151  5822 net.cpp:380] res3a_res3a_relu_0_split -> res3a_res3a_relu_0_split_0
I1128 12:56:45.071156  5822 net.cpp:380] res3a_res3a_relu_0_split -> res3a_res3a_relu_0_split_1
I1128 12:56:45.071207  5822 net.cpp:122] Setting up res3a_res3a_relu_0_split
I1128 12:56:45.071213  5822 net.cpp:129] Top shape: 1 512 75 125 (4800000)
I1128 12:56:45.071215  5822 net.cpp:129] Top shape: 1 512 75 125 (4800000)
I1128 12:56:45.071218  5822 net.cpp:137] Memory required for data: 1586400084
I1128 12:56:45.071219  5822 layer_factory.hpp:77] Creating layer res3b_branch2a
I1128 12:56:45.071226  5822 net.cpp:84] Creating Layer res3b_branch2a
I1128 12:56:45.071229  5822 net.cpp:406] res3b_branch2a <- res3a_res3a_relu_0_split_0
I1128 12:56:45.071233  5822 net.cpp:380] res3b_branch2a -> res3b_branch2a
I1128 12:56:45.073232  5822 net.cpp:122] Setting up res3b_branch2a
I1128 12:56:45.073243  5822 net.cpp:129] Top shape: 1 128 75 125 (1200000)
I1128 12:56:45.073246  5822 net.cpp:137] Memory required for data: 1591200084
I1128 12:56:45.073251  5822 layer_factory.hpp:77] Creating layer bn3b_branch2a
I1128 12:56:45.073256  5822 net.cpp:84] Creating Layer bn3b_branch2a
I1128 12:56:45.073259  5822 net.cpp:406] bn3b_branch2a <- res3b_branch2a
I1128 12:56:45.073263  5822 net.cpp:367] bn3b_branch2a -> res3b_branch2a (in-place)
I1128 12:56:45.073535  5822 net.cpp:122] Setting up bn3b_branch2a
I1128 12:56:45.073544  5822 net.cpp:129] Top shape: 1 128 75 125 (1200000)
I1128 12:56:45.073545  5822 net.cpp:137] Memory required for data: 1596000084
I1128 12:56:45.073551  5822 layer_factory.hpp:77] Creating layer scale3b_branch2a
I1128 12:56:45.073555  5822 net.cpp:84] Creating Layer scale3b_branch2a
I1128 12:56:45.073559  5822 net.cpp:406] scale3b_branch2a <- res3b_branch2a
I1128 12:56:45.073561  5822 net.cpp:367] scale3b_branch2a -> res3b_branch2a (in-place)
I1128 12:56:45.073606  5822 layer_factory.hpp:77] Creating layer scale3b_branch2a
I1128 12:56:45.073756  5822 net.cpp:122] Setting up scale3b_branch2a
I1128 12:56:45.073762  5822 net.cpp:129] Top shape: 1 128 75 125 (1200000)
I1128 12:56:45.073765  5822 net.cpp:137] Memory required for data: 1600800084
I1128 12:56:45.073768  5822 layer_factory.hpp:77] Creating layer res3b_branch2a_relu
I1128 12:56:45.073772  5822 net.cpp:84] Creating Layer res3b_branch2a_relu
I1128 12:56:45.073774  5822 net.cpp:406] res3b_branch2a_relu <- res3b_branch2a
I1128 12:56:45.073777  5822 net.cpp:367] res3b_branch2a_relu -> res3b_branch2a (in-place)
I1128 12:56:45.074084  5822 net.cpp:122] Setting up res3b_branch2a_relu
I1128 12:56:45.074092  5822 net.cpp:129] Top shape: 1 128 75 125 (1200000)
I1128 12:56:45.074095  5822 net.cpp:137] Memory required for data: 1605600084
I1128 12:56:45.074098  5822 layer_factory.hpp:77] Creating layer res3b_branch2b
I1128 12:56:45.074105  5822 net.cpp:84] Creating Layer res3b_branch2b
I1128 12:56:45.074108  5822 net.cpp:406] res3b_branch2b <- res3b_branch2a
I1128 12:56:45.074112  5822 net.cpp:380] res3b_branch2b -> res3b_branch2b
I1128 12:56:45.078233  5822 net.cpp:122] Setting up res3b_branch2b
I1128 12:56:45.078244  5822 net.cpp:129] Top shape: 1 128 75 125 (1200000)
I1128 12:56:45.078248  5822 net.cpp:137] Memory required for data: 1610400084
I1128 12:56:45.078251  5822 layer_factory.hpp:77] Creating layer bn3b_branch2b
I1128 12:56:45.078256  5822 net.cpp:84] Creating Layer bn3b_branch2b
I1128 12:56:45.078259  5822 net.cpp:406] bn3b_branch2b <- res3b_branch2b
I1128 12:56:45.078264  5822 net.cpp:367] bn3b_branch2b -> res3b_branch2b (in-place)
I1128 12:56:45.078517  5822 net.cpp:122] Setting up bn3b_branch2b
I1128 12:56:45.078524  5822 net.cpp:129] Top shape: 1 128 75 125 (1200000)
I1128 12:56:45.078526  5822 net.cpp:137] Memory required for data: 1615200084
I1128 12:56:45.078531  5822 layer_factory.hpp:77] Creating layer scale3b_branch2b
I1128 12:56:45.078538  5822 net.cpp:84] Creating Layer scale3b_branch2b
I1128 12:56:45.078541  5822 net.cpp:406] scale3b_branch2b <- res3b_branch2b
I1128 12:56:45.078546  5822 net.cpp:367] scale3b_branch2b -> res3b_branch2b (in-place)
I1128 12:56:45.078590  5822 layer_factory.hpp:77] Creating layer scale3b_branch2b
I1128 12:56:45.078742  5822 net.cpp:122] Setting up scale3b_branch2b
I1128 12:56:45.078749  5822 net.cpp:129] Top shape: 1 128 75 125 (1200000)
I1128 12:56:45.078752  5822 net.cpp:137] Memory required for data: 1620000084
I1128 12:56:45.078757  5822 layer_factory.hpp:77] Creating layer res3b_branch2b_relu
I1128 12:56:45.078759  5822 net.cpp:84] Creating Layer res3b_branch2b_relu
I1128 12:56:45.078763  5822 net.cpp:406] res3b_branch2b_relu <- res3b_branch2b
I1128 12:56:45.078766  5822 net.cpp:367] res3b_branch2b_relu -> res3b_branch2b (in-place)
I1128 12:56:45.079074  5822 net.cpp:122] Setting up res3b_branch2b_relu
I1128 12:56:45.079083  5822 net.cpp:129] Top shape: 1 128 75 125 (1200000)
I1128 12:56:45.079087  5822 net.cpp:137] Memory required for data: 1624800084
I1128 12:56:45.079089  5822 layer_factory.hpp:77] Creating layer res3b_branch2c
I1128 12:56:45.079095  5822 net.cpp:84] Creating Layer res3b_branch2c
I1128 12:56:45.079098  5822 net.cpp:406] res3b_branch2c <- res3b_branch2b
I1128 12:56:45.079102  5822 net.cpp:380] res3b_branch2c -> res3b_branch2c
I1128 12:56:45.081089  5822 net.cpp:122] Setting up res3b_branch2c
I1128 12:56:45.081099  5822 net.cpp:129] Top shape: 1 512 75 125 (4800000)
I1128 12:56:45.081101  5822 net.cpp:137] Memory required for data: 1644000084
I1128 12:56:45.081106  5822 layer_factory.hpp:77] Creating layer bn3b_branch2c
I1128 12:56:45.081112  5822 net.cpp:84] Creating Layer bn3b_branch2c
I1128 12:56:45.081115  5822 net.cpp:406] bn3b_branch2c <- res3b_branch2c
I1128 12:56:45.081120  5822 net.cpp:367] bn3b_branch2c -> res3b_branch2c (in-place)
I1128 12:56:45.081383  5822 net.cpp:122] Setting up bn3b_branch2c
I1128 12:56:45.081392  5822 net.cpp:129] Top shape: 1 512 75 125 (4800000)
I1128 12:56:45.081393  5822 net.cpp:137] Memory required for data: 1663200084
I1128 12:56:45.081399  5822 layer_factory.hpp:77] Creating layer scale3b_branch2c
I1128 12:56:45.081403  5822 net.cpp:84] Creating Layer scale3b_branch2c
I1128 12:56:45.081406  5822 net.cpp:406] scale3b_branch2c <- res3b_branch2c
I1128 12:56:45.081410  5822 net.cpp:367] scale3b_branch2c -> res3b_branch2c (in-place)
I1128 12:56:45.081451  5822 layer_factory.hpp:77] Creating layer scale3b_branch2c
I1128 12:56:45.081614  5822 net.cpp:122] Setting up scale3b_branch2c
I1128 12:56:45.081619  5822 net.cpp:129] Top shape: 1 512 75 125 (4800000)
I1128 12:56:45.081622  5822 net.cpp:137] Memory required for data: 1682400084
I1128 12:56:45.081626  5822 layer_factory.hpp:77] Creating layer res3b
I1128 12:56:45.081630  5822 net.cpp:84] Creating Layer res3b
I1128 12:56:45.081634  5822 net.cpp:406] res3b <- res3a_res3a_relu_0_split_1
I1128 12:56:45.081637  5822 net.cpp:406] res3b <- res3b_branch2c
I1128 12:56:45.081641  5822 net.cpp:380] res3b -> res3b
I1128 12:56:45.081670  5822 net.cpp:122] Setting up res3b
I1128 12:56:45.081676  5822 net.cpp:129] Top shape: 1 512 75 125 (4800000)
I1128 12:56:45.081678  5822 net.cpp:137] Memory required for data: 1701600084
I1128 12:56:45.081681  5822 layer_factory.hpp:77] Creating layer res3b_relu
I1128 12:56:45.081684  5822 net.cpp:84] Creating Layer res3b_relu
I1128 12:56:45.081686  5822 net.cpp:406] res3b_relu <- res3b
I1128 12:56:45.081691  5822 net.cpp:367] res3b_relu -> res3b (in-place)
I1128 12:56:45.082322  5822 net.cpp:122] Setting up res3b_relu
I1128 12:56:45.082334  5822 net.cpp:129] Top shape: 1 512 75 125 (4800000)
I1128 12:56:45.082335  5822 net.cpp:137] Memory required for data: 1720800084
I1128 12:56:45.082339  5822 layer_factory.hpp:77] Creating layer res3b_res3b_relu_0_split
I1128 12:56:45.082343  5822 net.cpp:84] Creating Layer res3b_res3b_relu_0_split
I1128 12:56:45.082346  5822 net.cpp:406] res3b_res3b_relu_0_split <- res3b
I1128 12:56:45.082351  5822 net.cpp:380] res3b_res3b_relu_0_split -> res3b_res3b_relu_0_split_0
I1128 12:56:45.082356  5822 net.cpp:380] res3b_res3b_relu_0_split -> res3b_res3b_relu_0_split_1
I1128 12:56:45.082408  5822 net.cpp:122] Setting up res3b_res3b_relu_0_split
I1128 12:56:45.082415  5822 net.cpp:129] Top shape: 1 512 75 125 (4800000)
I1128 12:56:45.082418  5822 net.cpp:129] Top shape: 1 512 75 125 (4800000)
I1128 12:56:45.082420  5822 net.cpp:137] Memory required for data: 1759200084
I1128 12:56:45.082422  5822 layer_factory.hpp:77] Creating layer res3c_branch2a
I1128 12:56:45.082429  5822 net.cpp:84] Creating Layer res3c_branch2a
I1128 12:56:45.082432  5822 net.cpp:406] res3c_branch2a <- res3b_res3b_relu_0_split_0
I1128 12:56:45.082437  5822 net.cpp:380] res3c_branch2a -> res3c_branch2a
I1128 12:56:45.084414  5822 net.cpp:122] Setting up res3c_branch2a
I1128 12:56:45.084424  5822 net.cpp:129] Top shape: 1 128 75 125 (1200000)
I1128 12:56:45.084427  5822 net.cpp:137] Memory required for data: 1764000084
I1128 12:56:45.084431  5822 layer_factory.hpp:77] Creating layer bn3c_branch2a
I1128 12:56:45.084437  5822 net.cpp:84] Creating Layer bn3c_branch2a
I1128 12:56:45.084440  5822 net.cpp:406] bn3c_branch2a <- res3c_branch2a
I1128 12:56:45.084444  5822 net.cpp:367] bn3c_branch2a -> res3c_branch2a (in-place)
I1128 12:56:45.084694  5822 net.cpp:122] Setting up bn3c_branch2a
I1128 12:56:45.084702  5822 net.cpp:129] Top shape: 1 128 75 125 (1200000)
I1128 12:56:45.084703  5822 net.cpp:137] Memory required for data: 1768800084
I1128 12:56:45.084709  5822 layer_factory.hpp:77] Creating layer scale3c_branch2a
I1128 12:56:45.084713  5822 net.cpp:84] Creating Layer scale3c_branch2a
I1128 12:56:45.084717  5822 net.cpp:406] scale3c_branch2a <- res3c_branch2a
I1128 12:56:45.084719  5822 net.cpp:367] scale3c_branch2a -> res3c_branch2a (in-place)
I1128 12:56:45.084764  5822 layer_factory.hpp:77] Creating layer scale3c_branch2a
I1128 12:56:45.084919  5822 net.cpp:122] Setting up scale3c_branch2a
I1128 12:56:45.084926  5822 net.cpp:129] Top shape: 1 128 75 125 (1200000)
I1128 12:56:45.084929  5822 net.cpp:137] Memory required for data: 1773600084
I1128 12:56:45.084934  5822 layer_factory.hpp:77] Creating layer res3c_branch2a_relu
I1128 12:56:45.084939  5822 net.cpp:84] Creating Layer res3c_branch2a_relu
I1128 12:56:45.084940  5822 net.cpp:406] res3c_branch2a_relu <- res3c_branch2a
I1128 12:56:45.084944  5822 net.cpp:367] res3c_branch2a_relu -> res3c_branch2a (in-place)
I1128 12:56:45.085243  5822 net.cpp:122] Setting up res3c_branch2a_relu
I1128 12:56:45.085252  5822 net.cpp:129] Top shape: 1 128 75 125 (1200000)
I1128 12:56:45.085254  5822 net.cpp:137] Memory required for data: 1778400084
I1128 12:56:45.085256  5822 layer_factory.hpp:77] Creating layer res3c_branch2b
I1128 12:56:45.085264  5822 net.cpp:84] Creating Layer res3c_branch2b
I1128 12:56:45.085266  5822 net.cpp:406] res3c_branch2b <- res3c_branch2a
I1128 12:56:45.085271  5822 net.cpp:380] res3c_branch2b -> res3c_branch2b
I1128 12:56:45.088129  5822 net.cpp:122] Setting up res3c_branch2b
I1128 12:56:45.088141  5822 net.cpp:129] Top shape: 1 128 75 125 (1200000)
I1128 12:56:45.088145  5822 net.cpp:137] Memory required for data: 1783200084
I1128 12:56:45.088148  5822 layer_factory.hpp:77] Creating layer bn3c_branch2b
I1128 12:56:45.088153  5822 net.cpp:84] Creating Layer bn3c_branch2b
I1128 12:56:45.088156  5822 net.cpp:406] bn3c_branch2b <- res3c_branch2b
I1128 12:56:45.088160  5822 net.cpp:367] bn3c_branch2b -> res3c_branch2b (in-place)
I1128 12:56:45.088423  5822 net.cpp:122] Setting up bn3c_branch2b
I1128 12:56:45.088429  5822 net.cpp:129] Top shape: 1 128 75 125 (1200000)
I1128 12:56:45.088433  5822 net.cpp:137] Memory required for data: 1788000084
I1128 12:56:45.088438  5822 layer_factory.hpp:77] Creating layer scale3c_branch2b
I1128 12:56:45.088443  5822 net.cpp:84] Creating Layer scale3c_branch2b
I1128 12:56:45.088445  5822 net.cpp:406] scale3c_branch2b <- res3c_branch2b
I1128 12:56:45.088449  5822 net.cpp:367] scale3c_branch2b -> res3c_branch2b (in-place)
I1128 12:56:45.088496  5822 layer_factory.hpp:77] Creating layer scale3c_branch2b
I1128 12:56:45.088649  5822 net.cpp:122] Setting up scale3c_branch2b
I1128 12:56:45.088654  5822 net.cpp:129] Top shape: 1 128 75 125 (1200000)
I1128 12:56:45.088657  5822 net.cpp:137] Memory required for data: 1792800084
I1128 12:56:45.088660  5822 layer_factory.hpp:77] Creating layer res3c_branch2b_relu
I1128 12:56:45.088665  5822 net.cpp:84] Creating Layer res3c_branch2b_relu
I1128 12:56:45.088667  5822 net.cpp:406] res3c_branch2b_relu <- res3c_branch2b
I1128 12:56:45.088670  5822 net.cpp:367] res3c_branch2b_relu -> res3c_branch2b (in-place)
I1128 12:56:45.088980  5822 net.cpp:122] Setting up res3c_branch2b_relu
I1128 12:56:45.088999  5822 net.cpp:129] Top shape: 1 128 75 125 (1200000)
I1128 12:56:45.089004  5822 net.cpp:137] Memory required for data: 1797600084
I1128 12:56:45.089006  5822 layer_factory.hpp:77] Creating layer res3c_branch2c
I1128 12:56:45.089012  5822 net.cpp:84] Creating Layer res3c_branch2c
I1128 12:56:45.089015  5822 net.cpp:406] res3c_branch2c <- res3c_branch2b
I1128 12:56:45.089020  5822 net.cpp:380] res3c_branch2c -> res3c_branch2c
I1128 12:56:45.091967  5822 net.cpp:122] Setting up res3c_branch2c
I1128 12:56:45.091979  5822 net.cpp:129] Top shape: 1 512 75 125 (4800000)
I1128 12:56:45.091982  5822 net.cpp:137] Memory required for data: 1816800084
I1128 12:56:45.091986  5822 layer_factory.hpp:77] Creating layer bn3c_branch2c
I1128 12:56:45.091991  5822 net.cpp:84] Creating Layer bn3c_branch2c
I1128 12:56:45.091995  5822 net.cpp:406] bn3c_branch2c <- res3c_branch2c
I1128 12:56:45.091998  5822 net.cpp:367] bn3c_branch2c -> res3c_branch2c (in-place)
I1128 12:56:45.092260  5822 net.cpp:122] Setting up bn3c_branch2c
I1128 12:56:45.092267  5822 net.cpp:129] Top shape: 1 512 75 125 (4800000)
I1128 12:56:45.092270  5822 net.cpp:137] Memory required for data: 1836000084
I1128 12:56:45.092275  5822 layer_factory.hpp:77] Creating layer scale3c_branch2c
I1128 12:56:45.092280  5822 net.cpp:84] Creating Layer scale3c_branch2c
I1128 12:56:45.092283  5822 net.cpp:406] scale3c_branch2c <- res3c_branch2c
I1128 12:56:45.092286  5822 net.cpp:367] scale3c_branch2c -> res3c_branch2c (in-place)
I1128 12:56:45.092327  5822 layer_factory.hpp:77] Creating layer scale3c_branch2c
I1128 12:56:45.092491  5822 net.cpp:122] Setting up scale3c_branch2c
I1128 12:56:45.092499  5822 net.cpp:129] Top shape: 1 512 75 125 (4800000)
I1128 12:56:45.092500  5822 net.cpp:137] Memory required for data: 1855200084
I1128 12:56:45.092504  5822 layer_factory.hpp:77] Creating layer res3c
I1128 12:56:45.092509  5822 net.cpp:84] Creating Layer res3c
I1128 12:56:45.092511  5822 net.cpp:406] res3c <- res3b_res3b_relu_0_split_1
I1128 12:56:45.092515  5822 net.cpp:406] res3c <- res3c_branch2c
I1128 12:56:45.092519  5822 net.cpp:380] res3c -> res3c
I1128 12:56:45.092547  5822 net.cpp:122] Setting up res3c
I1128 12:56:45.092552  5822 net.cpp:129] Top shape: 1 512 75 125 (4800000)
I1128 12:56:45.092555  5822 net.cpp:137] Memory required for data: 1874400084
I1128 12:56:45.092557  5822 layer_factory.hpp:77] Creating layer res3c_relu
I1128 12:56:45.092561  5822 net.cpp:84] Creating Layer res3c_relu
I1128 12:56:45.092563  5822 net.cpp:406] res3c_relu <- res3c
I1128 12:56:45.092566  5822 net.cpp:367] res3c_relu -> res3c (in-place)
I1128 12:56:45.092869  5822 net.cpp:122] Setting up res3c_relu
I1128 12:56:45.092876  5822 net.cpp:129] Top shape: 1 512 75 125 (4800000)
I1128 12:56:45.092880  5822 net.cpp:137] Memory required for data: 1893600084
I1128 12:56:45.092881  5822 layer_factory.hpp:77] Creating layer res3c_res3c_relu_0_split
I1128 12:56:45.092885  5822 net.cpp:84] Creating Layer res3c_res3c_relu_0_split
I1128 12:56:45.092888  5822 net.cpp:406] res3c_res3c_relu_0_split <- res3c
I1128 12:56:45.092892  5822 net.cpp:380] res3c_res3c_relu_0_split -> res3c_res3c_relu_0_split_0
I1128 12:56:45.092897  5822 net.cpp:380] res3c_res3c_relu_0_split -> res3c_res3c_relu_0_split_1
I1128 12:56:45.092948  5822 net.cpp:122] Setting up res3c_res3c_relu_0_split
I1128 12:56:45.092953  5822 net.cpp:129] Top shape: 1 512 75 125 (4800000)
I1128 12:56:45.092957  5822 net.cpp:129] Top shape: 1 512 75 125 (4800000)
I1128 12:56:45.092958  5822 net.cpp:137] Memory required for data: 1932000084
I1128 12:56:45.092962  5822 layer_factory.hpp:77] Creating layer res3d_branch2a
I1128 12:56:45.092968  5822 net.cpp:84] Creating Layer res3d_branch2a
I1128 12:56:45.092970  5822 net.cpp:406] res3d_branch2a <- res3c_res3c_relu_0_split_0
I1128 12:56:45.092974  5822 net.cpp:380] res3d_branch2a -> res3d_branch2a
I1128 12:56:45.094960  5822 net.cpp:122] Setting up res3d_branch2a
I1128 12:56:45.094970  5822 net.cpp:129] Top shape: 1 128 75 125 (1200000)
I1128 12:56:45.094974  5822 net.cpp:137] Memory required for data: 1936800084
I1128 12:56:45.094979  5822 layer_factory.hpp:77] Creating layer bn3d_branch2a
I1128 12:56:45.094983  5822 net.cpp:84] Creating Layer bn3d_branch2a
I1128 12:56:45.094986  5822 net.cpp:406] bn3d_branch2a <- res3d_branch2a
I1128 12:56:45.094990  5822 net.cpp:367] bn3d_branch2a -> res3d_branch2a (in-place)
I1128 12:56:45.095244  5822 net.cpp:122] Setting up bn3d_branch2a
I1128 12:56:45.095252  5822 net.cpp:129] Top shape: 1 128 75 125 (1200000)
I1128 12:56:45.095253  5822 net.cpp:137] Memory required for data: 1941600084
I1128 12:56:45.095269  5822 layer_factory.hpp:77] Creating layer scale3d_branch2a
I1128 12:56:45.095276  5822 net.cpp:84] Creating Layer scale3d_branch2a
I1128 12:56:45.095278  5822 net.cpp:406] scale3d_branch2a <- res3d_branch2a
I1128 12:56:45.095283  5822 net.cpp:367] scale3d_branch2a -> res3d_branch2a (in-place)
I1128 12:56:45.095329  5822 layer_factory.hpp:77] Creating layer scale3d_branch2a
I1128 12:56:45.095485  5822 net.cpp:122] Setting up scale3d_branch2a
I1128 12:56:45.095492  5822 net.cpp:129] Top shape: 1 128 75 125 (1200000)
I1128 12:56:45.095495  5822 net.cpp:137] Memory required for data: 1946400084
I1128 12:56:45.095499  5822 layer_factory.hpp:77] Creating layer res3d_branch2a_relu
I1128 12:56:45.095504  5822 net.cpp:84] Creating Layer res3d_branch2a_relu
I1128 12:56:45.095505  5822 net.cpp:406] res3d_branch2a_relu <- res3d_branch2a
I1128 12:56:45.095510  5822 net.cpp:367] res3d_branch2a_relu -> res3d_branch2a (in-place)
I1128 12:56:45.096141  5822 net.cpp:122] Setting up res3d_branch2a_relu
I1128 12:56:45.096151  5822 net.cpp:129] Top shape: 1 128 75 125 (1200000)
I1128 12:56:45.096154  5822 net.cpp:137] Memory required for data: 1951200084
I1128 12:56:45.096158  5822 layer_factory.hpp:77] Creating layer res3d_branch2b
I1128 12:56:45.096165  5822 net.cpp:84] Creating Layer res3d_branch2b
I1128 12:56:45.096168  5822 net.cpp:406] res3d_branch2b <- res3d_branch2a
I1128 12:56:45.096174  5822 net.cpp:380] res3d_branch2b -> res3d_branch2b
I1128 12:56:45.099108  5822 net.cpp:122] Setting up res3d_branch2b
I1128 12:56:45.099119  5822 net.cpp:129] Top shape: 1 128 75 125 (1200000)
I1128 12:56:45.099123  5822 net.cpp:137] Memory required for data: 1956000084
I1128 12:56:45.099128  5822 layer_factory.hpp:77] Creating layer bn3d_branch2b
I1128 12:56:45.099133  5822 net.cpp:84] Creating Layer bn3d_branch2b
I1128 12:56:45.099136  5822 net.cpp:406] bn3d_branch2b <- res3d_branch2b
I1128 12:56:45.099139  5822 net.cpp:367] bn3d_branch2b -> res3d_branch2b (in-place)
I1128 12:56:45.099406  5822 net.cpp:122] Setting up bn3d_branch2b
I1128 12:56:45.099414  5822 net.cpp:129] Top shape: 1 128 75 125 (1200000)
I1128 12:56:45.099417  5822 net.cpp:137] Memory required for data: 1960800084
I1128 12:56:45.099422  5822 layer_factory.hpp:77] Creating layer scale3d_branch2b
I1128 12:56:45.099427  5822 net.cpp:84] Creating Layer scale3d_branch2b
I1128 12:56:45.099429  5822 net.cpp:406] scale3d_branch2b <- res3d_branch2b
I1128 12:56:45.099433  5822 net.cpp:367] scale3d_branch2b -> res3d_branch2b (in-place)
I1128 12:56:45.099479  5822 layer_factory.hpp:77] Creating layer scale3d_branch2b
I1128 12:56:45.099634  5822 net.cpp:122] Setting up scale3d_branch2b
I1128 12:56:45.099640  5822 net.cpp:129] Top shape: 1 128 75 125 (1200000)
I1128 12:56:45.099642  5822 net.cpp:137] Memory required for data: 1965600084
I1128 12:56:45.099647  5822 layer_factory.hpp:77] Creating layer res3d_branch2b_relu
I1128 12:56:45.099650  5822 net.cpp:84] Creating Layer res3d_branch2b_relu
I1128 12:56:45.099653  5822 net.cpp:406] res3d_branch2b_relu <- res3d_branch2b
I1128 12:56:45.099656  5822 net.cpp:367] res3d_branch2b_relu -> res3d_branch2b (in-place)
I1128 12:56:45.099969  5822 net.cpp:122] Setting up res3d_branch2b_relu
I1128 12:56:45.099977  5822 net.cpp:129] Top shape: 1 128 75 125 (1200000)
I1128 12:56:45.099980  5822 net.cpp:137] Memory required for data: 1970400084
I1128 12:56:45.099983  5822 layer_factory.hpp:77] Creating layer res3d_branch2c
I1128 12:56:45.099989  5822 net.cpp:84] Creating Layer res3d_branch2c
I1128 12:56:45.099992  5822 net.cpp:406] res3d_branch2c <- res3d_branch2b
I1128 12:56:45.099997  5822 net.cpp:380] res3d_branch2c -> res3d_branch2c
I1128 12:56:45.102006  5822 net.cpp:122] Setting up res3d_branch2c
I1128 12:56:45.102017  5822 net.cpp:129] Top shape: 1 512 75 125 (4800000)
I1128 12:56:45.102020  5822 net.cpp:137] Memory required for data: 1989600084
I1128 12:56:45.102025  5822 layer_factory.hpp:77] Creating layer bn3d_branch2c
I1128 12:56:45.102030  5822 net.cpp:84] Creating Layer bn3d_branch2c
I1128 12:56:45.102032  5822 net.cpp:406] bn3d_branch2c <- res3d_branch2c
I1128 12:56:45.102036  5822 net.cpp:367] bn3d_branch2c -> res3d_branch2c (in-place)
I1128 12:56:45.102300  5822 net.cpp:122] Setting up bn3d_branch2c
I1128 12:56:45.102308  5822 net.cpp:129] Top shape: 1 512 75 125 (4800000)
I1128 12:56:45.102310  5822 net.cpp:137] Memory required for data: 2008800084
I1128 12:56:45.102315  5822 layer_factory.hpp:77] Creating layer scale3d_branch2c
I1128 12:56:45.102320  5822 net.cpp:84] Creating Layer scale3d_branch2c
I1128 12:56:45.102324  5822 net.cpp:406] scale3d_branch2c <- res3d_branch2c
I1128 12:56:45.102327  5822 net.cpp:367] scale3d_branch2c -> res3d_branch2c (in-place)
I1128 12:56:45.102367  5822 layer_factory.hpp:77] Creating layer scale3d_branch2c
I1128 12:56:45.102532  5822 net.cpp:122] Setting up scale3d_branch2c
I1128 12:56:45.102538  5822 net.cpp:129] Top shape: 1 512 75 125 (4800000)
I1128 12:56:45.102541  5822 net.cpp:137] Memory required for data: 2028000084
I1128 12:56:45.102546  5822 layer_factory.hpp:77] Creating layer res3d
I1128 12:56:45.102550  5822 net.cpp:84] Creating Layer res3d
I1128 12:56:45.102552  5822 net.cpp:406] res3d <- res3c_res3c_relu_0_split_1
I1128 12:56:45.102556  5822 net.cpp:406] res3d <- res3d_branch2c
I1128 12:56:45.102560  5822 net.cpp:380] res3d -> res3d
I1128 12:56:45.102589  5822 net.cpp:122] Setting up res3d
I1128 12:56:45.102594  5822 net.cpp:129] Top shape: 1 512 75 125 (4800000)
I1128 12:56:45.102597  5822 net.cpp:137] Memory required for data: 2047200084
I1128 12:56:45.102599  5822 layer_factory.hpp:77] Creating layer res3d_relu
I1128 12:56:45.102603  5822 net.cpp:84] Creating Layer res3d_relu
I1128 12:56:45.102605  5822 net.cpp:406] res3d_relu <- res3d
I1128 12:56:45.102609  5822 net.cpp:367] res3d_relu -> res3d (in-place)
I1128 12:56:45.102916  5822 net.cpp:122] Setting up res3d_relu
I1128 12:56:45.102924  5822 net.cpp:129] Top shape: 1 512 75 125 (4800000)
I1128 12:56:45.102926  5822 net.cpp:137] Memory required for data: 2066400084
I1128 12:56:45.102928  5822 layer_factory.hpp:77] Creating layer res3d_res3d_relu_0_split
I1128 12:56:45.102932  5822 net.cpp:84] Creating Layer res3d_res3d_relu_0_split
I1128 12:56:45.102936  5822 net.cpp:406] res3d_res3d_relu_0_split <- res3d
I1128 12:56:45.102939  5822 net.cpp:380] res3d_res3d_relu_0_split -> res3d_res3d_relu_0_split_0
I1128 12:56:45.102944  5822 net.cpp:380] res3d_res3d_relu_0_split -> res3d_res3d_relu_0_split_1
I1128 12:56:45.102996  5822 net.cpp:122] Setting up res3d_res3d_relu_0_split
I1128 12:56:45.103001  5822 net.cpp:129] Top shape: 1 512 75 125 (4800000)
I1128 12:56:45.103004  5822 net.cpp:129] Top shape: 1 512 75 125 (4800000)
I1128 12:56:45.103006  5822 net.cpp:137] Memory required for data: 2104800084
I1128 12:56:45.103008  5822 layer_factory.hpp:77] Creating layer res4a_branch2a
I1128 12:56:45.103015  5822 net.cpp:84] Creating Layer res4a_branch2a
I1128 12:56:45.103020  5822 net.cpp:406] res4a_branch2a <- res3d_res3d_relu_0_split_0
I1128 12:56:45.103024  5822 net.cpp:380] res4a_branch2a -> res4a_branch2a
I1128 12:56:45.106420  5822 net.cpp:122] Setting up res4a_branch2a
I1128 12:56:45.106432  5822 net.cpp:129] Top shape: 1 256 38 63 (612864)
I1128 12:56:45.106436  5822 net.cpp:137] Memory required for data: 2107251540
I1128 12:56:45.106439  5822 layer_factory.hpp:77] Creating layer bn4a_branch2a
I1128 12:56:45.106446  5822 net.cpp:84] Creating Layer bn4a_branch2a
I1128 12:56:45.106448  5822 net.cpp:406] bn4a_branch2a <- res4a_branch2a
I1128 12:56:45.106452  5822 net.cpp:367] bn4a_branch2a -> res4a_branch2a (in-place)
I1128 12:56:45.106701  5822 net.cpp:122] Setting up bn4a_branch2a
I1128 12:56:45.106709  5822 net.cpp:129] Top shape: 1 256 38 63 (612864)
I1128 12:56:45.106711  5822 net.cpp:137] Memory required for data: 2109702996
I1128 12:56:45.106717  5822 layer_factory.hpp:77] Creating layer scale4a_branch2a
I1128 12:56:45.106722  5822 net.cpp:84] Creating Layer scale4a_branch2a
I1128 12:56:45.106725  5822 net.cpp:406] scale4a_branch2a <- res4a_branch2a
I1128 12:56:45.106729  5822 net.cpp:367] scale4a_branch2a -> res4a_branch2a (in-place)
I1128 12:56:45.106775  5822 layer_factory.hpp:77] Creating layer scale4a_branch2a
I1128 12:56:45.106931  5822 net.cpp:122] Setting up scale4a_branch2a
I1128 12:56:45.106938  5822 net.cpp:129] Top shape: 1 256 38 63 (612864)
I1128 12:56:45.106940  5822 net.cpp:137] Memory required for data: 2112154452
I1128 12:56:45.106945  5822 layer_factory.hpp:77] Creating layer res4a_branch2a_relu
I1128 12:56:45.106950  5822 net.cpp:84] Creating Layer res4a_branch2a_relu
I1128 12:56:45.106951  5822 net.cpp:406] res4a_branch2a_relu <- res4a_branch2a
I1128 12:56:45.106956  5822 net.cpp:367] res4a_branch2a_relu -> res4a_branch2a (in-place)
I1128 12:56:45.107604  5822 net.cpp:122] Setting up res4a_branch2a_relu
I1128 12:56:45.107614  5822 net.cpp:129] Top shape: 1 256 38 63 (612864)
I1128 12:56:45.107616  5822 net.cpp:137] Memory required for data: 2114605908
I1128 12:56:45.107620  5822 layer_factory.hpp:77] Creating layer res4a_branch2b
I1128 12:56:45.107627  5822 net.cpp:84] Creating Layer res4a_branch2b
I1128 12:56:45.107630  5822 net.cpp:406] res4a_branch2b <- res4a_branch2a
I1128 12:56:45.107635  5822 net.cpp:380] res4a_branch2b -> res4a_branch2b
I1128 12:56:45.114687  5822 net.cpp:122] Setting up res4a_branch2b
I1128 12:56:45.114699  5822 net.cpp:129] Top shape: 1 256 38 63 (612864)
I1128 12:56:45.114702  5822 net.cpp:137] Memory required for data: 2117057364
I1128 12:56:45.114706  5822 layer_factory.hpp:77] Creating layer bn4a_branch2b
I1128 12:56:45.114711  5822 net.cpp:84] Creating Layer bn4a_branch2b
I1128 12:56:45.114714  5822 net.cpp:406] bn4a_branch2b <- res4a_branch2b
I1128 12:56:45.114718  5822 net.cpp:367] bn4a_branch2b -> res4a_branch2b (in-place)
I1128 12:56:45.114979  5822 net.cpp:122] Setting up bn4a_branch2b
I1128 12:56:45.114986  5822 net.cpp:129] Top shape: 1 256 38 63 (612864)
I1128 12:56:45.114989  5822 net.cpp:137] Memory required for data: 2119508820
I1128 12:56:45.114995  5822 layer_factory.hpp:77] Creating layer scale4a_branch2b
I1128 12:56:45.115000  5822 net.cpp:84] Creating Layer scale4a_branch2b
I1128 12:56:45.115002  5822 net.cpp:406] scale4a_branch2b <- res4a_branch2b
I1128 12:56:45.115006  5822 net.cpp:367] scale4a_branch2b -> res4a_branch2b (in-place)
I1128 12:56:45.115052  5822 layer_factory.hpp:77] Creating layer scale4a_branch2b
I1128 12:56:45.115222  5822 net.cpp:122] Setting up scale4a_branch2b
I1128 12:56:45.115229  5822 net.cpp:129] Top shape: 1 256 38 63 (612864)
I1128 12:56:45.115231  5822 net.cpp:137] Memory required for data: 2121960276
I1128 12:56:45.115236  5822 layer_factory.hpp:77] Creating layer res4a_branch2b_relu
I1128 12:56:45.115241  5822 net.cpp:84] Creating Layer res4a_branch2b_relu
I1128 12:56:45.115242  5822 net.cpp:406] res4a_branch2b_relu <- res4a_branch2b
I1128 12:56:45.115247  5822 net.cpp:367] res4a_branch2b_relu -> res4a_branch2b (in-place)
I1128 12:56:45.115563  5822 net.cpp:122] Setting up res4a_branch2b_relu
I1128 12:56:45.115571  5822 net.cpp:129] Top shape: 1 256 38 63 (612864)
I1128 12:56:45.115574  5822 net.cpp:137] Memory required for data: 2124411732
I1128 12:56:45.115576  5822 layer_factory.hpp:77] Creating layer res4a_branch2c
I1128 12:56:45.115583  5822 net.cpp:84] Creating Layer res4a_branch2c
I1128 12:56:45.115586  5822 net.cpp:406] res4a_branch2c <- res4a_branch2b
I1128 12:56:45.115591  5822 net.cpp:380] res4a_branch2c -> res4a_branch2c
I1128 12:56:45.119004  5822 net.cpp:122] Setting up res4a_branch2c
I1128 12:56:45.119015  5822 net.cpp:129] Top shape: 1 1024 38 63 (2451456)
I1128 12:56:45.119017  5822 net.cpp:137] Memory required for data: 2134217556
I1128 12:56:45.119022  5822 layer_factory.hpp:77] Creating layer bn4a_branch2c
I1128 12:56:45.119027  5822 net.cpp:84] Creating Layer bn4a_branch2c
I1128 12:56:45.119030  5822 net.cpp:406] bn4a_branch2c <- res4a_branch2c
I1128 12:56:45.119035  5822 net.cpp:367] bn4a_branch2c -> res4a_branch2c (in-place)
I1128 12:56:45.119293  5822 net.cpp:122] Setting up bn4a_branch2c
I1128 12:56:45.119300  5822 net.cpp:129] Top shape: 1 1024 38 63 (2451456)
I1128 12:56:45.119302  5822 net.cpp:137] Memory required for data: 2144023380
I1128 12:56:45.119307  5822 layer_factory.hpp:77] Creating layer scale4a_branch2c
I1128 12:56:45.119313  5822 net.cpp:84] Creating Layer scale4a_branch2c
I1128 12:56:45.119315  5822 net.cpp:406] scale4a_branch2c <- res4a_branch2c
I1128 12:56:45.119318  5822 net.cpp:367] scale4a_branch2c -> res4a_branch2c (in-place)
I1128 12:56:45.119360  5822 layer_factory.hpp:77] Creating layer scale4a_branch2c
I1128 12:56:45.119535  5822 net.cpp:122] Setting up scale4a_branch2c
I1128 12:56:45.119542  5822 net.cpp:129] Top shape: 1 1024 38 63 (2451456)
I1128 12:56:45.119545  5822 net.cpp:137] Memory required for data: 2153829204
I1128 12:56:45.119549  5822 layer_factory.hpp:77] Creating layer res4a_branch1
I1128 12:56:45.119555  5822 net.cpp:84] Creating Layer res4a_branch1
I1128 12:56:45.119559  5822 net.cpp:406] res4a_branch1 <- res3d_res3d_relu_0_split_1
I1128 12:56:45.119562  5822 net.cpp:380] res4a_branch1 -> res4a_branch1
I1128 12:56:45.125761  5822 net.cpp:122] Setting up res4a_branch1
I1128 12:56:45.125773  5822 net.cpp:129] Top shape: 1 1024 38 63 (2451456)
I1128 12:56:45.125777  5822 net.cpp:137] Memory required for data: 2163635028
I1128 12:56:45.125780  5822 layer_factory.hpp:77] Creating layer bn4a_branch1
I1128 12:56:45.125785  5822 net.cpp:84] Creating Layer bn4a_branch1
I1128 12:56:45.125789  5822 net.cpp:406] bn4a_branch1 <- res4a_branch1
I1128 12:56:45.125793  5822 net.cpp:367] bn4a_branch1 -> res4a_branch1 (in-place)
I1128 12:56:45.126060  5822 net.cpp:122] Setting up bn4a_branch1
I1128 12:56:45.126067  5822 net.cpp:129] Top shape: 1 1024 38 63 (2451456)
I1128 12:56:45.126070  5822 net.cpp:137] Memory required for data: 2173440852
I1128 12:56:45.126075  5822 layer_factory.hpp:77] Creating layer scale4a_branch1
I1128 12:56:45.126080  5822 net.cpp:84] Creating Layer scale4a_branch1
I1128 12:56:45.126081  5822 net.cpp:406] scale4a_branch1 <- res4a_branch1
I1128 12:56:45.126085  5822 net.cpp:367] scale4a_branch1 -> res4a_branch1 (in-place)
I1128 12:56:45.126127  5822 layer_factory.hpp:77] Creating layer scale4a_branch1
I1128 12:56:45.126283  5822 net.cpp:122] Setting up scale4a_branch1
I1128 12:56:45.126291  5822 net.cpp:129] Top shape: 1 1024 38 63 (2451456)
I1128 12:56:45.126292  5822 net.cpp:137] Memory required for data: 2183246676
I1128 12:56:45.126296  5822 layer_factory.hpp:77] Creating layer res4a
I1128 12:56:45.126314  5822 net.cpp:84] Creating Layer res4a
I1128 12:56:45.126318  5822 net.cpp:406] res4a <- res4a_branch1
I1128 12:56:45.126322  5822 net.cpp:406] res4a <- res4a_branch2c
I1128 12:56:45.126327  5822 net.cpp:380] res4a -> res4a
I1128 12:56:45.126356  5822 net.cpp:122] Setting up res4a
I1128 12:56:45.126361  5822 net.cpp:129] Top shape: 1 1024 38 63 (2451456)
I1128 12:56:45.126363  5822 net.cpp:137] Memory required for data: 2193052500
I1128 12:56:45.126366  5822 layer_factory.hpp:77] Creating layer res4a_relu
I1128 12:56:45.126370  5822 net.cpp:84] Creating Layer res4a_relu
I1128 12:56:45.126372  5822 net.cpp:406] res4a_relu <- res4a
I1128 12:56:45.126375  5822 net.cpp:367] res4a_relu -> res4a (in-place)
I1128 12:56:45.126688  5822 net.cpp:122] Setting up res4a_relu
I1128 12:56:45.126695  5822 net.cpp:129] Top shape: 1 1024 38 63 (2451456)
I1128 12:56:45.126698  5822 net.cpp:137] Memory required for data: 2202858324
I1128 12:56:45.126700  5822 layer_factory.hpp:77] Creating layer res4a_res4a_relu_0_split
I1128 12:56:45.126705  5822 net.cpp:84] Creating Layer res4a_res4a_relu_0_split
I1128 12:56:45.126708  5822 net.cpp:406] res4a_res4a_relu_0_split <- res4a
I1128 12:56:45.126713  5822 net.cpp:380] res4a_res4a_relu_0_split -> res4a_res4a_relu_0_split_0
I1128 12:56:45.126718  5822 net.cpp:380] res4a_res4a_relu_0_split -> res4a_res4a_relu_0_split_1
I1128 12:56:45.126771  5822 net.cpp:122] Setting up res4a_res4a_relu_0_split
I1128 12:56:45.126777  5822 net.cpp:129] Top shape: 1 1024 38 63 (2451456)
I1128 12:56:45.126780  5822 net.cpp:129] Top shape: 1 1024 38 63 (2451456)
I1128 12:56:45.126782  5822 net.cpp:137] Memory required for data: 2222469972
I1128 12:56:45.126785  5822 layer_factory.hpp:77] Creating layer res4b_branch2a
I1128 12:56:45.126791  5822 net.cpp:84] Creating Layer res4b_branch2a
I1128 12:56:45.126793  5822 net.cpp:406] res4b_branch2a <- res4a_res4a_relu_0_split_0
I1128 12:56:45.126798  5822 net.cpp:380] res4b_branch2a -> res4b_branch2a
I1128 12:56:45.131162  5822 net.cpp:122] Setting up res4b_branch2a
I1128 12:56:45.131175  5822 net.cpp:129] Top shape: 1 256 38 63 (612864)
I1128 12:56:45.131176  5822 net.cpp:137] Memory required for data: 2224921428
I1128 12:56:45.131181  5822 layer_factory.hpp:77] Creating layer bn4b_branch2a
I1128 12:56:45.131187  5822 net.cpp:84] Creating Layer bn4b_branch2a
I1128 12:56:45.131191  5822 net.cpp:406] bn4b_branch2a <- res4b_branch2a
I1128 12:56:45.131194  5822 net.cpp:367] bn4b_branch2a -> res4b_branch2a (in-place)
I1128 12:56:45.131461  5822 net.cpp:122] Setting up bn4b_branch2a
I1128 12:56:45.131469  5822 net.cpp:129] Top shape: 1 256 38 63 (612864)
I1128 12:56:45.131470  5822 net.cpp:137] Memory required for data: 2227372884
I1128 12:56:45.131476  5822 layer_factory.hpp:77] Creating layer scale4b_branch2a
I1128 12:56:45.131481  5822 net.cpp:84] Creating Layer scale4b_branch2a
I1128 12:56:45.131484  5822 net.cpp:406] scale4b_branch2a <- res4b_branch2a
I1128 12:56:45.131487  5822 net.cpp:367] scale4b_branch2a -> res4b_branch2a (in-place)
I1128 12:56:45.131534  5822 layer_factory.hpp:77] Creating layer scale4b_branch2a
I1128 12:56:45.131690  5822 net.cpp:122] Setting up scale4b_branch2a
I1128 12:56:45.131696  5822 net.cpp:129] Top shape: 1 256 38 63 (612864)
I1128 12:56:45.131698  5822 net.cpp:137] Memory required for data: 2229824340
I1128 12:56:45.131702  5822 layer_factory.hpp:77] Creating layer res4b_branch2a_relu
I1128 12:56:45.131706  5822 net.cpp:84] Creating Layer res4b_branch2a_relu
I1128 12:56:45.131708  5822 net.cpp:406] res4b_branch2a_relu <- res4b_branch2a
I1128 12:56:45.131712  5822 net.cpp:367] res4b_branch2a_relu -> res4b_branch2a (in-place)
I1128 12:56:45.132362  5822 net.cpp:122] Setting up res4b_branch2a_relu
I1128 12:56:45.132372  5822 net.cpp:129] Top shape: 1 256 38 63 (612864)
I1128 12:56:45.132375  5822 net.cpp:137] Memory required for data: 2232275796
I1128 12:56:45.132377  5822 layer_factory.hpp:77] Creating layer res4b_branch2b
I1128 12:56:45.132385  5822 net.cpp:84] Creating Layer res4b_branch2b
I1128 12:56:45.132387  5822 net.cpp:406] res4b_branch2b <- res4b_branch2a
I1128 12:56:45.132392  5822 net.cpp:380] res4b_branch2b -> res4b_branch2b
I1128 12:56:45.139467  5822 net.cpp:122] Setting up res4b_branch2b
I1128 12:56:45.139479  5822 net.cpp:129] Top shape: 1 256 38 63 (612864)
I1128 12:56:45.139482  5822 net.cpp:137] Memory required for data: 2234727252
I1128 12:56:45.139487  5822 layer_factory.hpp:77] Creating layer bn4b_branch2b
I1128 12:56:45.139492  5822 net.cpp:84] Creating Layer bn4b_branch2b
I1128 12:56:45.139495  5822 net.cpp:406] bn4b_branch2b <- res4b_branch2b
I1128 12:56:45.139499  5822 net.cpp:367] bn4b_branch2b -> res4b_branch2b (in-place)
I1128 12:56:45.139775  5822 net.cpp:122] Setting up bn4b_branch2b
I1128 12:56:45.139782  5822 net.cpp:129] Top shape: 1 256 38 63 (612864)
I1128 12:56:45.139784  5822 net.cpp:137] Memory required for data: 2237178708
I1128 12:56:45.139789  5822 layer_factory.hpp:77] Creating layer scale4b_branch2b
I1128 12:56:45.139796  5822 net.cpp:84] Creating Layer scale4b_branch2b
I1128 12:56:45.139797  5822 net.cpp:406] scale4b_branch2b <- res4b_branch2b
I1128 12:56:45.139801  5822 net.cpp:367] scale4b_branch2b -> res4b_branch2b (in-place)
I1128 12:56:45.139849  5822 layer_factory.hpp:77] Creating layer scale4b_branch2b
I1128 12:56:45.140003  5822 net.cpp:122] Setting up scale4b_branch2b
I1128 12:56:45.140010  5822 net.cpp:129] Top shape: 1 256 38 63 (612864)
I1128 12:56:45.140013  5822 net.cpp:137] Memory required for data: 2239630164
I1128 12:56:45.140017  5822 layer_factory.hpp:77] Creating layer res4b_branch2b_relu
I1128 12:56:45.140022  5822 net.cpp:84] Creating Layer res4b_branch2b_relu
I1128 12:56:45.140024  5822 net.cpp:406] res4b_branch2b_relu <- res4b_branch2b
I1128 12:56:45.140027  5822 net.cpp:367] res4b_branch2b_relu -> res4b_branch2b (in-place)
I1128 12:56:45.140352  5822 net.cpp:122] Setting up res4b_branch2b_relu
I1128 12:56:45.140362  5822 net.cpp:129] Top shape: 1 256 38 63 (612864)
I1128 12:56:45.140363  5822 net.cpp:137] Memory required for data: 2242081620
I1128 12:56:45.140367  5822 layer_factory.hpp:77] Creating layer res4b_branch2c
I1128 12:56:45.140373  5822 net.cpp:84] Creating Layer res4b_branch2c
I1128 12:56:45.140377  5822 net.cpp:406] res4b_branch2c <- res4b_branch2b
I1128 12:56:45.140381  5822 net.cpp:380] res4b_branch2c -> res4b_branch2c
I1128 12:56:45.144127  5822 net.cpp:122] Setting up res4b_branch2c
I1128 12:56:45.144140  5822 net.cpp:129] Top shape: 1 1024 38 63 (2451456)
I1128 12:56:45.144141  5822 net.cpp:137] Memory required for data: 2251887444
I1128 12:56:45.144145  5822 layer_factory.hpp:77] Creating layer bn4b_branch2c
I1128 12:56:45.144151  5822 net.cpp:84] Creating Layer bn4b_branch2c
I1128 12:56:45.144153  5822 net.cpp:406] bn4b_branch2c <- res4b_branch2c
I1128 12:56:45.144158  5822 net.cpp:367] bn4b_branch2c -> res4b_branch2c (in-place)
I1128 12:56:45.144441  5822 net.cpp:122] Setting up bn4b_branch2c
I1128 12:56:45.144448  5822 net.cpp:129] Top shape: 1 1024 38 63 (2451456)
I1128 12:56:45.144451  5822 net.cpp:137] Memory required for data: 2261693268
I1128 12:56:45.144456  5822 layer_factory.hpp:77] Creating layer scale4b_branch2c
I1128 12:56:45.144461  5822 net.cpp:84] Creating Layer scale4b_branch2c
I1128 12:56:45.144464  5822 net.cpp:406] scale4b_branch2c <- res4b_branch2c
I1128 12:56:45.144467  5822 net.cpp:367] scale4b_branch2c -> res4b_branch2c (in-place)
I1128 12:56:45.144512  5822 layer_factory.hpp:77] Creating layer scale4b_branch2c
I1128 12:56:45.144685  5822 net.cpp:122] Setting up scale4b_branch2c
I1128 12:56:45.144691  5822 net.cpp:129] Top shape: 1 1024 38 63 (2451456)
I1128 12:56:45.144693  5822 net.cpp:137] Memory required for data: 2271499092
I1128 12:56:45.144698  5822 layer_factory.hpp:77] Creating layer res4b
I1128 12:56:45.144703  5822 net.cpp:84] Creating Layer res4b
I1128 12:56:45.144706  5822 net.cpp:406] res4b <- res4a_res4a_relu_0_split_1
I1128 12:56:45.144709  5822 net.cpp:406] res4b <- res4b_branch2c
I1128 12:56:45.144712  5822 net.cpp:380] res4b -> res4b
I1128 12:56:45.144747  5822 net.cpp:122] Setting up res4b
I1128 12:56:45.144752  5822 net.cpp:129] Top shape: 1 1024 38 63 (2451456)
I1128 12:56:45.144755  5822 net.cpp:137] Memory required for data: 2281304916
I1128 12:56:45.144757  5822 layer_factory.hpp:77] Creating layer res4b_relu
I1128 12:56:45.144762  5822 net.cpp:84] Creating Layer res4b_relu
I1128 12:56:45.144764  5822 net.cpp:406] res4b_relu <- res4b
I1128 12:56:45.144768  5822 net.cpp:367] res4b_relu -> res4b (in-place)
I1128 12:56:45.145090  5822 net.cpp:122] Setting up res4b_relu
I1128 12:56:45.145099  5822 net.cpp:129] Top shape: 1 1024 38 63 (2451456)
I1128 12:56:45.145102  5822 net.cpp:137] Memory required for data: 2291110740
I1128 12:56:45.145104  5822 layer_factory.hpp:77] Creating layer res4b_res4b_relu_0_split
I1128 12:56:45.145108  5822 net.cpp:84] Creating Layer res4b_res4b_relu_0_split
I1128 12:56:45.145110  5822 net.cpp:406] res4b_res4b_relu_0_split <- res4b
I1128 12:56:45.145115  5822 net.cpp:380] res4b_res4b_relu_0_split -> res4b_res4b_relu_0_split_0
I1128 12:56:45.145120  5822 net.cpp:380] res4b_res4b_relu_0_split -> res4b_res4b_relu_0_split_1
I1128 12:56:45.145175  5822 net.cpp:122] Setting up res4b_res4b_relu_0_split
I1128 12:56:45.145180  5822 net.cpp:129] Top shape: 1 1024 38 63 (2451456)
I1128 12:56:45.145184  5822 net.cpp:129] Top shape: 1 1024 38 63 (2451456)
I1128 12:56:45.145185  5822 net.cpp:137] Memory required for data: 2310722388
I1128 12:56:45.145189  5822 layer_factory.hpp:77] Creating layer res4c_branch2a
I1128 12:56:45.145195  5822 net.cpp:84] Creating Layer res4c_branch2a
I1128 12:56:45.145197  5822 net.cpp:406] res4c_branch2a <- res4b_res4b_relu_0_split_0
I1128 12:56:45.145200  5822 net.cpp:380] res4c_branch2a -> res4c_branch2a
I1128 12:56:45.149786  5822 net.cpp:122] Setting up res4c_branch2a
I1128 12:56:45.149798  5822 net.cpp:129] Top shape: 1 256 38 63 (612864)
I1128 12:56:45.149801  5822 net.cpp:137] Memory required for data: 2313173844
I1128 12:56:45.149806  5822 layer_factory.hpp:77] Creating layer bn4c_branch2a
I1128 12:56:45.149811  5822 net.cpp:84] Creating Layer bn4c_branch2a
I1128 12:56:45.149813  5822 net.cpp:406] bn4c_branch2a <- res4c_branch2a
I1128 12:56:45.149816  5822 net.cpp:367] bn4c_branch2a -> res4c_branch2a (in-place)
I1128 12:56:45.150085  5822 net.cpp:122] Setting up bn4c_branch2a
I1128 12:56:45.150094  5822 net.cpp:129] Top shape: 1 256 38 63 (612864)
I1128 12:56:45.150095  5822 net.cpp:137] Memory required for data: 2315625300
I1128 12:56:45.150100  5822 layer_factory.hpp:77] Creating layer scale4c_branch2a
I1128 12:56:45.150105  5822 net.cpp:84] Creating Layer scale4c_branch2a
I1128 12:56:45.150108  5822 net.cpp:406] scale4c_branch2a <- res4c_branch2a
I1128 12:56:45.150111  5822 net.cpp:367] scale4c_branch2a -> res4c_branch2a (in-place)
I1128 12:56:45.150159  5822 layer_factory.hpp:77] Creating layer scale4c_branch2a
I1128 12:56:45.150315  5822 net.cpp:122] Setting up scale4c_branch2a
I1128 12:56:45.150321  5822 net.cpp:129] Top shape: 1 256 38 63 (612864)
I1128 12:56:45.150323  5822 net.cpp:137] Memory required for data: 2318076756
I1128 12:56:45.150327  5822 layer_factory.hpp:77] Creating layer res4c_branch2a_relu
I1128 12:56:45.150331  5822 net.cpp:84] Creating Layer res4c_branch2a_relu
I1128 12:56:45.150334  5822 net.cpp:406] res4c_branch2a_relu <- res4c_branch2a
I1128 12:56:45.150337  5822 net.cpp:367] res4c_branch2a_relu -> res4c_branch2a (in-place)
I1128 12:56:45.150651  5822 net.cpp:122] Setting up res4c_branch2a_relu
I1128 12:56:45.150660  5822 net.cpp:129] Top shape: 1 256 38 63 (612864)
I1128 12:56:45.150662  5822 net.cpp:137] Memory required for data: 2320528212
I1128 12:56:45.150665  5822 layer_factory.hpp:77] Creating layer res4c_branch2b
I1128 12:56:45.150671  5822 net.cpp:84] Creating Layer res4c_branch2b
I1128 12:56:45.150674  5822 net.cpp:406] res4c_branch2b <- res4c_branch2a
I1128 12:56:45.150678  5822 net.cpp:380] res4c_branch2b -> res4c_branch2b
I1128 12:56:45.157755  5822 net.cpp:122] Setting up res4c_branch2b
I1128 12:56:45.157766  5822 net.cpp:129] Top shape: 1 256 38 63 (612864)
I1128 12:56:45.157769  5822 net.cpp:137] Memory required for data: 2322979668
I1128 12:56:45.157774  5822 layer_factory.hpp:77] Creating layer bn4c_branch2b
I1128 12:56:45.157779  5822 net.cpp:84] Creating Layer bn4c_branch2b
I1128 12:56:45.157783  5822 net.cpp:406] bn4c_branch2b <- res4c_branch2b
I1128 12:56:45.157788  5822 net.cpp:367] bn4c_branch2b -> res4c_branch2b (in-place)
I1128 12:56:45.158069  5822 net.cpp:122] Setting up bn4c_branch2b
I1128 12:56:45.158077  5822 net.cpp:129] Top shape: 1 256 38 63 (612864)
I1128 12:56:45.158079  5822 net.cpp:137] Memory required for data: 2325431124
I1128 12:56:45.158083  5822 layer_factory.hpp:77] Creating layer scale4c_branch2b
I1128 12:56:45.158088  5822 net.cpp:84] Creating Layer scale4c_branch2b
I1128 12:56:45.158092  5822 net.cpp:406] scale4c_branch2b <- res4c_branch2b
I1128 12:56:45.158094  5822 net.cpp:367] scale4c_branch2b -> res4c_branch2b (in-place)
I1128 12:56:45.158146  5822 layer_factory.hpp:77] Creating layer scale4c_branch2b
I1128 12:56:45.158304  5822 net.cpp:122] Setting up scale4c_branch2b
I1128 12:56:45.158310  5822 net.cpp:129] Top shape: 1 256 38 63 (612864)
I1128 12:56:45.158313  5822 net.cpp:137] Memory required for data: 2327882580
I1128 12:56:45.158318  5822 layer_factory.hpp:77] Creating layer res4c_branch2b_relu
I1128 12:56:45.158323  5822 net.cpp:84] Creating Layer res4c_branch2b_relu
I1128 12:56:45.158324  5822 net.cpp:406] res4c_branch2b_relu <- res4c_branch2b
I1128 12:56:45.158327  5822 net.cpp:367] res4c_branch2b_relu -> res4c_branch2b (in-place)
I1128 12:56:45.158982  5822 net.cpp:122] Setting up res4c_branch2b_relu
I1128 12:56:45.158993  5822 net.cpp:129] Top shape: 1 256 38 63 (612864)
I1128 12:56:45.158995  5822 net.cpp:137] Memory required for data: 2330334036
I1128 12:56:45.158998  5822 layer_factory.hpp:77] Creating layer res4c_branch2c
I1128 12:56:45.159005  5822 net.cpp:84] Creating Layer res4c_branch2c
I1128 12:56:45.159008  5822 net.cpp:406] res4c_branch2c <- res4c_branch2b
I1128 12:56:45.159013  5822 net.cpp:380] res4c_branch2c -> res4c_branch2c
I1128 12:56:45.162571  5822 net.cpp:122] Setting up res4c_branch2c
I1128 12:56:45.162582  5822 net.cpp:129] Top shape: 1 1024 38 63 (2451456)
I1128 12:56:45.162585  5822 net.cpp:137] Memory required for data: 2340139860
I1128 12:56:45.162590  5822 layer_factory.hpp:77] Creating layer bn4c_branch2c
I1128 12:56:45.162595  5822 net.cpp:84] Creating Layer bn4c_branch2c
I1128 12:56:45.162597  5822 net.cpp:406] bn4c_branch2c <- res4c_branch2c
I1128 12:56:45.162602  5822 net.cpp:367] bn4c_branch2c -> res4c_branch2c (in-place)
I1128 12:56:45.162885  5822 net.cpp:122] Setting up bn4c_branch2c
I1128 12:56:45.162892  5822 net.cpp:129] Top shape: 1 1024 38 63 (2451456)
I1128 12:56:45.162894  5822 net.cpp:137] Memory required for data: 2349945684
I1128 12:56:45.162899  5822 layer_factory.hpp:77] Creating layer scale4c_branch2c
I1128 12:56:45.162904  5822 net.cpp:84] Creating Layer scale4c_branch2c
I1128 12:56:45.162907  5822 net.cpp:406] scale4c_branch2c <- res4c_branch2c
I1128 12:56:45.162910  5822 net.cpp:367] scale4c_branch2c -> res4c_branch2c (in-place)
I1128 12:56:45.162958  5822 layer_factory.hpp:77] Creating layer scale4c_branch2c
I1128 12:56:45.163130  5822 net.cpp:122] Setting up scale4c_branch2c
I1128 12:56:45.163136  5822 net.cpp:129] Top shape: 1 1024 38 63 (2451456)
I1128 12:56:45.163138  5822 net.cpp:137] Memory required for data: 2359751508
I1128 12:56:45.163142  5822 layer_factory.hpp:77] Creating layer res4c
I1128 12:56:45.163148  5822 net.cpp:84] Creating Layer res4c
I1128 12:56:45.163151  5822 net.cpp:406] res4c <- res4b_res4b_relu_0_split_1
I1128 12:56:45.163154  5822 net.cpp:406] res4c <- res4c_branch2c
I1128 12:56:45.163158  5822 net.cpp:380] res4c -> res4c
I1128 12:56:45.163188  5822 net.cpp:122] Setting up res4c
I1128 12:56:45.163193  5822 net.cpp:129] Top shape: 1 1024 38 63 (2451456)
I1128 12:56:45.163197  5822 net.cpp:137] Memory required for data: 2369557332
I1128 12:56:45.163198  5822 layer_factory.hpp:77] Creating layer res4c_relu
I1128 12:56:45.163202  5822 net.cpp:84] Creating Layer res4c_relu
I1128 12:56:45.163203  5822 net.cpp:406] res4c_relu <- res4c
I1128 12:56:45.163208  5822 net.cpp:367] res4c_relu -> res4c (in-place)
I1128 12:56:45.163524  5822 net.cpp:122] Setting up res4c_relu
I1128 12:56:45.163533  5822 net.cpp:129] Top shape: 1 1024 38 63 (2451456)
I1128 12:56:45.163535  5822 net.cpp:137] Memory required for data: 2379363156
I1128 12:56:45.163537  5822 layer_factory.hpp:77] Creating layer res4c_res4c_relu_0_split
I1128 12:56:45.163542  5822 net.cpp:84] Creating Layer res4c_res4c_relu_0_split
I1128 12:56:45.163545  5822 net.cpp:406] res4c_res4c_relu_0_split <- res4c
I1128 12:56:45.163549  5822 net.cpp:380] res4c_res4c_relu_0_split -> res4c_res4c_relu_0_split_0
I1128 12:56:45.163554  5822 net.cpp:380] res4c_res4c_relu_0_split -> res4c_res4c_relu_0_split_1
I1128 12:56:45.163610  5822 net.cpp:122] Setting up res4c_res4c_relu_0_split
I1128 12:56:45.163616  5822 net.cpp:129] Top shape: 1 1024 38 63 (2451456)
I1128 12:56:45.163619  5822 net.cpp:129] Top shape: 1 1024 38 63 (2451456)
I1128 12:56:45.163621  5822 net.cpp:137] Memory required for data: 2398974804
I1128 12:56:45.163624  5822 layer_factory.hpp:77] Creating layer res4d_branch2a
I1128 12:56:45.163631  5822 net.cpp:84] Creating Layer res4d_branch2a
I1128 12:56:45.163633  5822 net.cpp:406] res4d_branch2a <- res4c_res4c_relu_0_split_0
I1128 12:56:45.163637  5822 net.cpp:380] res4d_branch2a -> res4d_branch2a
I1128 12:56:45.168017  5822 net.cpp:122] Setting up res4d_branch2a
I1128 12:56:45.168030  5822 net.cpp:129] Top shape: 1 256 38 63 (612864)
I1128 12:56:45.168031  5822 net.cpp:137] Memory required for data: 2401426260
I1128 12:56:45.168036  5822 layer_factory.hpp:77] Creating layer bn4d_branch2a
I1128 12:56:45.168041  5822 net.cpp:84] Creating Layer bn4d_branch2a
I1128 12:56:45.168045  5822 net.cpp:406] bn4d_branch2a <- res4d_branch2a
I1128 12:56:45.168050  5822 net.cpp:367] bn4d_branch2a -> res4d_branch2a (in-place)
I1128 12:56:45.168329  5822 net.cpp:122] Setting up bn4d_branch2a
I1128 12:56:45.168336  5822 net.cpp:129] Top shape: 1 256 38 63 (612864)
I1128 12:56:45.168339  5822 net.cpp:137] Memory required for data: 2403877716
I1128 12:56:45.168344  5822 layer_factory.hpp:77] Creating layer scale4d_branch2a
I1128 12:56:45.168349  5822 net.cpp:84] Creating Layer scale4d_branch2a
I1128 12:56:45.168351  5822 net.cpp:406] scale4d_branch2a <- res4d_branch2a
I1128 12:56:45.168355  5822 net.cpp:367] scale4d_branch2a -> res4d_branch2a (in-place)
I1128 12:56:45.168407  5822 layer_factory.hpp:77] Creating layer scale4d_branch2a
I1128 12:56:45.168565  5822 net.cpp:122] Setting up scale4d_branch2a
I1128 12:56:45.168570  5822 net.cpp:129] Top shape: 1 256 38 63 (612864)
I1128 12:56:45.168572  5822 net.cpp:137] Memory required for data: 2406329172
I1128 12:56:45.168576  5822 layer_factory.hpp:77] Creating layer res4d_branch2a_relu
I1128 12:56:45.168581  5822 net.cpp:84] Creating Layer res4d_branch2a_relu
I1128 12:56:45.168582  5822 net.cpp:406] res4d_branch2a_relu <- res4d_branch2a
I1128 12:56:45.168586  5822 net.cpp:367] res4d_branch2a_relu -> res4d_branch2a (in-place)
I1128 12:56:45.168920  5822 net.cpp:122] Setting up res4d_branch2a_relu
I1128 12:56:45.168928  5822 net.cpp:129] Top shape: 1 256 38 63 (612864)
I1128 12:56:45.168931  5822 net.cpp:137] Memory required for data: 2408780628
I1128 12:56:45.168933  5822 layer_factory.hpp:77] Creating layer res4d_branch2b
I1128 12:56:45.168941  5822 net.cpp:84] Creating Layer res4d_branch2b
I1128 12:56:45.168943  5822 net.cpp:406] res4d_branch2b <- res4d_branch2a
I1128 12:56:45.168948  5822 net.cpp:380] res4d_branch2b -> res4d_branch2b
I1128 12:56:45.176039  5822 net.cpp:122] Setting up res4d_branch2b
I1128 12:56:45.176051  5822 net.cpp:129] Top shape: 1 256 38 63 (612864)
I1128 12:56:45.176054  5822 net.cpp:137] Memory required for data: 2411232084
I1128 12:56:45.176059  5822 layer_factory.hpp:77] Creating layer bn4d_branch2b
I1128 12:56:45.176064  5822 net.cpp:84] Creating Layer bn4d_branch2b
I1128 12:56:45.176069  5822 net.cpp:406] bn4d_branch2b <- res4d_branch2b
I1128 12:56:45.176072  5822 net.cpp:367] bn4d_branch2b -> res4d_branch2b (in-place)
I1128 12:56:45.176364  5822 net.cpp:122] Setting up bn4d_branch2b
I1128 12:56:45.176371  5822 net.cpp:129] Top shape: 1 256 38 63 (612864)
I1128 12:56:45.176374  5822 net.cpp:137] Memory required for data: 2413683540
I1128 12:56:45.176379  5822 layer_factory.hpp:77] Creating layer scale4d_branch2b
I1128 12:56:45.176385  5822 net.cpp:84] Creating Layer scale4d_branch2b
I1128 12:56:45.176388  5822 net.cpp:406] scale4d_branch2b <- res4d_branch2b
I1128 12:56:45.176391  5822 net.cpp:367] scale4d_branch2b -> res4d_branch2b (in-place)
I1128 12:56:45.176445  5822 layer_factory.hpp:77] Creating layer scale4d_branch2b
I1128 12:56:45.176607  5822 net.cpp:122] Setting up scale4d_branch2b
I1128 12:56:45.176614  5822 net.cpp:129] Top shape: 1 256 38 63 (612864)
I1128 12:56:45.176616  5822 net.cpp:137] Memory required for data: 2416134996
I1128 12:56:45.176620  5822 layer_factory.hpp:77] Creating layer res4d_branch2b_relu
I1128 12:56:45.176625  5822 net.cpp:84] Creating Layer res4d_branch2b_relu
I1128 12:56:45.176626  5822 net.cpp:406] res4d_branch2b_relu <- res4d_branch2b
I1128 12:56:45.176630  5822 net.cpp:367] res4d_branch2b_relu -> res4d_branch2b (in-place)
I1128 12:56:45.177301  5822 net.cpp:122] Setting up res4d_branch2b_relu
I1128 12:56:45.177311  5822 net.cpp:129] Top shape: 1 256 38 63 (612864)
I1128 12:56:45.177314  5822 net.cpp:137] Memory required for data: 2418586452
I1128 12:56:45.177316  5822 layer_factory.hpp:77] Creating layer res4d_branch2c
I1128 12:56:45.177325  5822 net.cpp:84] Creating Layer res4d_branch2c
I1128 12:56:45.177328  5822 net.cpp:406] res4d_branch2c <- res4d_branch2b
I1128 12:56:45.177333  5822 net.cpp:380] res4d_branch2c -> res4d_branch2c
I1128 12:56:45.180788  5822 net.cpp:122] Setting up res4d_branch2c
I1128 12:56:45.180799  5822 net.cpp:129] Top shape: 1 1024 38 63 (2451456)
I1128 12:56:45.180800  5822 net.cpp:137] Memory required for data: 2428392276
I1128 12:56:45.180805  5822 layer_factory.hpp:77] Creating layer bn4d_branch2c
I1128 12:56:45.180810  5822 net.cpp:84] Creating Layer bn4d_branch2c
I1128 12:56:45.180815  5822 net.cpp:406] bn4d_branch2c <- res4d_branch2c
I1128 12:56:45.180819  5822 net.cpp:367] bn4d_branch2c -> res4d_branch2c (in-place)
I1128 12:56:45.181104  5822 net.cpp:122] Setting up bn4d_branch2c
I1128 12:56:45.181110  5822 net.cpp:129] Top shape: 1 1024 38 63 (2451456)
I1128 12:56:45.181113  5822 net.cpp:137] Memory required for data: 2438198100
I1128 12:56:45.181119  5822 layer_factory.hpp:77] Creating layer scale4d_branch2c
I1128 12:56:45.181123  5822 net.cpp:84] Creating Layer scale4d_branch2c
I1128 12:56:45.181125  5822 net.cpp:406] scale4d_branch2c <- res4d_branch2c
I1128 12:56:45.181129  5822 net.cpp:367] scale4d_branch2c -> res4d_branch2c (in-place)
I1128 12:56:45.181177  5822 layer_factory.hpp:77] Creating layer scale4d_branch2c
I1128 12:56:45.181349  5822 net.cpp:122] Setting up scale4d_branch2c
I1128 12:56:45.181355  5822 net.cpp:129] Top shape: 1 1024 38 63 (2451456)
I1128 12:56:45.181357  5822 net.cpp:137] Memory required for data: 2448003924
I1128 12:56:45.181362  5822 layer_factory.hpp:77] Creating layer res4d
I1128 12:56:45.181366  5822 net.cpp:84] Creating Layer res4d
I1128 12:56:45.181368  5822 net.cpp:406] res4d <- res4c_res4c_relu_0_split_1
I1128 12:56:45.181380  5822 net.cpp:406] res4d <- res4d_branch2c
I1128 12:56:45.181383  5822 net.cpp:380] res4d -> res4d
I1128 12:56:45.181416  5822 net.cpp:122] Setting up res4d
I1128 12:56:45.181422  5822 net.cpp:129] Top shape: 1 1024 38 63 (2451456)
I1128 12:56:45.181424  5822 net.cpp:137] Memory required for data: 2457809748
I1128 12:56:45.181427  5822 layer_factory.hpp:77] Creating layer res4d_relu
I1128 12:56:45.181430  5822 net.cpp:84] Creating Layer res4d_relu
I1128 12:56:45.181433  5822 net.cpp:406] res4d_relu <- res4d
I1128 12:56:45.181437  5822 net.cpp:367] res4d_relu -> res4d (in-place)
I1128 12:56:45.181753  5822 net.cpp:122] Setting up res4d_relu
I1128 12:56:45.181761  5822 net.cpp:129] Top shape: 1 1024 38 63 (2451456)
I1128 12:56:45.181763  5822 net.cpp:137] Memory required for data: 2467615572
I1128 12:56:45.181766  5822 layer_factory.hpp:77] Creating layer res4d_res4d_relu_0_split
I1128 12:56:45.181771  5822 net.cpp:84] Creating Layer res4d_res4d_relu_0_split
I1128 12:56:45.181773  5822 net.cpp:406] res4d_res4d_relu_0_split <- res4d
I1128 12:56:45.181777  5822 net.cpp:380] res4d_res4d_relu_0_split -> res4d_res4d_relu_0_split_0
I1128 12:56:45.181782  5822 net.cpp:380] res4d_res4d_relu_0_split -> res4d_res4d_relu_0_split_1
I1128 12:56:45.181841  5822 net.cpp:122] Setting up res4d_res4d_relu_0_split
I1128 12:56:45.181848  5822 net.cpp:129] Top shape: 1 1024 38 63 (2451456)
I1128 12:56:45.181850  5822 net.cpp:129] Top shape: 1 1024 38 63 (2451456)
I1128 12:56:45.181852  5822 net.cpp:137] Memory required for data: 2487227220
I1128 12:56:45.181854  5822 layer_factory.hpp:77] Creating layer res4e_branch2a
I1128 12:56:45.181861  5822 net.cpp:84] Creating Layer res4e_branch2a
I1128 12:56:45.181864  5822 net.cpp:406] res4e_branch2a <- res4d_res4d_relu_0_split_0
I1128 12:56:45.181867  5822 net.cpp:380] res4e_branch2a -> res4e_branch2a
I1128 12:56:45.186252  5822 net.cpp:122] Setting up res4e_branch2a
I1128 12:56:45.186264  5822 net.cpp:129] Top shape: 1 256 38 63 (612864)
I1128 12:56:45.186266  5822 net.cpp:137] Memory required for data: 2489678676
I1128 12:56:45.186270  5822 layer_factory.hpp:77] Creating layer bn4e_branch2a
I1128 12:56:45.186276  5822 net.cpp:84] Creating Layer bn4e_branch2a
I1128 12:56:45.186278  5822 net.cpp:406] bn4e_branch2a <- res4e_branch2a
I1128 12:56:45.186283  5822 net.cpp:367] bn4e_branch2a -> res4e_branch2a (in-place)
I1128 12:56:45.186564  5822 net.cpp:122] Setting up bn4e_branch2a
I1128 12:56:45.186571  5822 net.cpp:129] Top shape: 1 256 38 63 (612864)
I1128 12:56:45.186574  5822 net.cpp:137] Memory required for data: 2492130132
I1128 12:56:45.186579  5822 layer_factory.hpp:77] Creating layer scale4e_branch2a
I1128 12:56:45.186584  5822 net.cpp:84] Creating Layer scale4e_branch2a
I1128 12:56:45.186589  5822 net.cpp:406] scale4e_branch2a <- res4e_branch2a
I1128 12:56:45.186592  5822 net.cpp:367] scale4e_branch2a -> res4e_branch2a (in-place)
I1128 12:56:45.186645  5822 layer_factory.hpp:77] Creating layer scale4e_branch2a
I1128 12:56:45.186810  5822 net.cpp:122] Setting up scale4e_branch2a
I1128 12:56:45.186815  5822 net.cpp:129] Top shape: 1 256 38 63 (612864)
I1128 12:56:45.186818  5822 net.cpp:137] Memory required for data: 2494581588
I1128 12:56:45.186822  5822 layer_factory.hpp:77] Creating layer res4e_branch2a_relu
I1128 12:56:45.186827  5822 net.cpp:84] Creating Layer res4e_branch2a_relu
I1128 12:56:45.186830  5822 net.cpp:406] res4e_branch2a_relu <- res4e_branch2a
I1128 12:56:45.186833  5822 net.cpp:367] res4e_branch2a_relu -> res4e_branch2a (in-place)
I1128 12:56:45.187146  5822 net.cpp:122] Setting up res4e_branch2a_relu
I1128 12:56:45.187155  5822 net.cpp:129] Top shape: 1 256 38 63 (612864)
I1128 12:56:45.187156  5822 net.cpp:137] Memory required for data: 2497033044
I1128 12:56:45.187160  5822 layer_factory.hpp:77] Creating layer res4e_branch2b
I1128 12:56:45.187166  5822 net.cpp:84] Creating Layer res4e_branch2b
I1128 12:56:45.187170  5822 net.cpp:406] res4e_branch2b <- res4e_branch2a
I1128 12:56:45.187175  5822 net.cpp:380] res4e_branch2b -> res4e_branch2b
I1128 12:56:45.194357  5822 net.cpp:122] Setting up res4e_branch2b
I1128 12:56:45.194368  5822 net.cpp:129] Top shape: 1 256 38 63 (612864)
I1128 12:56:45.194371  5822 net.cpp:137] Memory required for data: 2499484500
I1128 12:56:45.194376  5822 layer_factory.hpp:77] Creating layer bn4e_branch2b
I1128 12:56:45.194381  5822 net.cpp:84] Creating Layer bn4e_branch2b
I1128 12:56:45.194384  5822 net.cpp:406] bn4e_branch2b <- res4e_branch2b
I1128 12:56:45.194388  5822 net.cpp:367] bn4e_branch2b -> res4e_branch2b (in-place)
I1128 12:56:45.194680  5822 net.cpp:122] Setting up bn4e_branch2b
I1128 12:56:45.194686  5822 net.cpp:129] Top shape: 1 256 38 63 (612864)
I1128 12:56:45.194689  5822 net.cpp:137] Memory required for data: 2501935956
I1128 12:56:45.194694  5822 layer_factory.hpp:77] Creating layer scale4e_branch2b
I1128 12:56:45.194701  5822 net.cpp:84] Creating Layer scale4e_branch2b
I1128 12:56:45.194705  5822 net.cpp:406] scale4e_branch2b <- res4e_branch2b
I1128 12:56:45.194708  5822 net.cpp:367] scale4e_branch2b -> res4e_branch2b (in-place)
I1128 12:56:45.194761  5822 layer_factory.hpp:77] Creating layer scale4e_branch2b
I1128 12:56:45.194922  5822 net.cpp:122] Setting up scale4e_branch2b
I1128 12:56:45.194928  5822 net.cpp:129] Top shape: 1 256 38 63 (612864)
I1128 12:56:45.194931  5822 net.cpp:137] Memory required for data: 2504387412
I1128 12:56:45.194936  5822 layer_factory.hpp:77] Creating layer res4e_branch2b_relu
I1128 12:56:45.194939  5822 net.cpp:84] Creating Layer res4e_branch2b_relu
I1128 12:56:45.194942  5822 net.cpp:406] res4e_branch2b_relu <- res4e_branch2b
I1128 12:56:45.194947  5822 net.cpp:367] res4e_branch2b_relu -> res4e_branch2b (in-place)
I1128 12:56:45.195612  5822 net.cpp:122] Setting up res4e_branch2b_relu
I1128 12:56:45.195623  5822 net.cpp:129] Top shape: 1 256 38 63 (612864)
I1128 12:56:45.195626  5822 net.cpp:137] Memory required for data: 2506838868
I1128 12:56:45.195628  5822 layer_factory.hpp:77] Creating layer res4e_branch2c
I1128 12:56:45.195636  5822 net.cpp:84] Creating Layer res4e_branch2c
I1128 12:56:45.195641  5822 net.cpp:406] res4e_branch2c <- res4e_branch2b
I1128 12:56:45.195646  5822 net.cpp:380] res4e_branch2c -> res4e_branch2c
I1128 12:56:45.199089  5822 net.cpp:122] Setting up res4e_branch2c
I1128 12:56:45.199100  5822 net.cpp:129] Top shape: 1 1024 38 63 (2451456)
I1128 12:56:45.199102  5822 net.cpp:137] Memory required for data: 2516644692
I1128 12:56:45.199105  5822 layer_factory.hpp:77] Creating layer bn4e_branch2c
I1128 12:56:45.199111  5822 net.cpp:84] Creating Layer bn4e_branch2c
I1128 12:56:45.199115  5822 net.cpp:406] bn4e_branch2c <- res4e_branch2c
I1128 12:56:45.199120  5822 net.cpp:367] bn4e_branch2c -> res4e_branch2c (in-place)
I1128 12:56:45.199414  5822 net.cpp:122] Setting up bn4e_branch2c
I1128 12:56:45.199421  5822 net.cpp:129] Top shape: 1 1024 38 63 (2451456)
I1128 12:56:45.199424  5822 net.cpp:137] Memory required for data: 2526450516
I1128 12:56:45.199429  5822 layer_factory.hpp:77] Creating layer scale4e_branch2c
I1128 12:56:45.199435  5822 net.cpp:84] Creating Layer scale4e_branch2c
I1128 12:56:45.199439  5822 net.cpp:406] scale4e_branch2c <- res4e_branch2c
I1128 12:56:45.199441  5822 net.cpp:367] scale4e_branch2c -> res4e_branch2c (in-place)
I1128 12:56:45.199492  5822 layer_factory.hpp:77] Creating layer scale4e_branch2c
I1128 12:56:45.199664  5822 net.cpp:122] Setting up scale4e_branch2c
I1128 12:56:45.199671  5822 net.cpp:129] Top shape: 1 1024 38 63 (2451456)
I1128 12:56:45.199672  5822 net.cpp:137] Memory required for data: 2536256340
I1128 12:56:45.199677  5822 layer_factory.hpp:77] Creating layer res4e
I1128 12:56:45.199681  5822 net.cpp:84] Creating Layer res4e
I1128 12:56:45.199683  5822 net.cpp:406] res4e <- res4d_res4d_relu_0_split_1
I1128 12:56:45.199687  5822 net.cpp:406] res4e <- res4e_branch2c
I1128 12:56:45.199690  5822 net.cpp:380] res4e -> res4e
I1128 12:56:45.199721  5822 net.cpp:122] Setting up res4e
I1128 12:56:45.199726  5822 net.cpp:129] Top shape: 1 1024 38 63 (2451456)
I1128 12:56:45.199729  5822 net.cpp:137] Memory required for data: 2546062164
I1128 12:56:45.199731  5822 layer_factory.hpp:77] Creating layer res4e_relu
I1128 12:56:45.199735  5822 net.cpp:84] Creating Layer res4e_relu
I1128 12:56:45.199738  5822 net.cpp:406] res4e_relu <- res4e
I1128 12:56:45.199740  5822 net.cpp:367] res4e_relu -> res4e (in-place)
I1128 12:56:45.200063  5822 net.cpp:122] Setting up res4e_relu
I1128 12:56:45.200070  5822 net.cpp:129] Top shape: 1 1024 38 63 (2451456)
I1128 12:56:45.200073  5822 net.cpp:137] Memory required for data: 2555867988
I1128 12:56:45.200075  5822 layer_factory.hpp:77] Creating layer res4e_res4e_relu_0_split
I1128 12:56:45.200079  5822 net.cpp:84] Creating Layer res4e_res4e_relu_0_split
I1128 12:56:45.200081  5822 net.cpp:406] res4e_res4e_relu_0_split <- res4e
I1128 12:56:45.200085  5822 net.cpp:380] res4e_res4e_relu_0_split -> res4e_res4e_relu_0_split_0
I1128 12:56:45.200091  5822 net.cpp:380] res4e_res4e_relu_0_split -> res4e_res4e_relu_0_split_1
I1128 12:56:45.200150  5822 net.cpp:122] Setting up res4e_res4e_relu_0_split
I1128 12:56:45.200155  5822 net.cpp:129] Top shape: 1 1024 38 63 (2451456)
I1128 12:56:45.200158  5822 net.cpp:129] Top shape: 1 1024 38 63 (2451456)
I1128 12:56:45.200160  5822 net.cpp:137] Memory required for data: 2575479636
I1128 12:56:45.200163  5822 layer_factory.hpp:77] Creating layer res4f_branch2a
I1128 12:56:45.200170  5822 net.cpp:84] Creating Layer res4f_branch2a
I1128 12:56:45.200173  5822 net.cpp:406] res4f_branch2a <- res4e_res4e_relu_0_split_0
I1128 12:56:45.200177  5822 net.cpp:380] res4f_branch2a -> res4f_branch2a
I1128 12:56:45.204599  5822 net.cpp:122] Setting up res4f_branch2a
I1128 12:56:45.204610  5822 net.cpp:129] Top shape: 1 256 38 63 (612864)
I1128 12:56:45.204613  5822 net.cpp:137] Memory required for data: 2577931092
I1128 12:56:45.204617  5822 layer_factory.hpp:77] Creating layer bn4f_branch2a
I1128 12:56:45.204623  5822 net.cpp:84] Creating Layer bn4f_branch2a
I1128 12:56:45.204627  5822 net.cpp:406] bn4f_branch2a <- res4f_branch2a
I1128 12:56:45.204632  5822 net.cpp:367] bn4f_branch2a -> res4f_branch2a (in-place)
I1128 12:56:45.204917  5822 net.cpp:122] Setting up bn4f_branch2a
I1128 12:56:45.204924  5822 net.cpp:129] Top shape: 1 256 38 63 (612864)
I1128 12:56:45.204926  5822 net.cpp:137] Memory required for data: 2580382548
I1128 12:56:45.204931  5822 layer_factory.hpp:77] Creating layer scale4f_branch2a
I1128 12:56:45.204936  5822 net.cpp:84] Creating Layer scale4f_branch2a
I1128 12:56:45.204941  5822 net.cpp:406] scale4f_branch2a <- res4f_branch2a
I1128 12:56:45.204943  5822 net.cpp:367] scale4f_branch2a -> res4f_branch2a (in-place)
I1128 12:56:45.204994  5822 layer_factory.hpp:77] Creating layer scale4f_branch2a
I1128 12:56:45.205157  5822 net.cpp:122] Setting up scale4f_branch2a
I1128 12:56:45.205163  5822 net.cpp:129] Top shape: 1 256 38 63 (612864)
I1128 12:56:45.205165  5822 net.cpp:137] Memory required for data: 2582834004
I1128 12:56:45.205170  5822 layer_factory.hpp:77] Creating layer res4f_branch2a_relu
I1128 12:56:45.205174  5822 net.cpp:84] Creating Layer res4f_branch2a_relu
I1128 12:56:45.205178  5822 net.cpp:406] res4f_branch2a_relu <- res4f_branch2a
I1128 12:56:45.205180  5822 net.cpp:367] res4f_branch2a_relu -> res4f_branch2a (in-place)
I1128 12:56:45.205518  5822 net.cpp:122] Setting up res4f_branch2a_relu
I1128 12:56:45.205526  5822 net.cpp:129] Top shape: 1 256 38 63 (612864)
I1128 12:56:45.205529  5822 net.cpp:137] Memory required for data: 2585285460
I1128 12:56:45.205531  5822 layer_factory.hpp:77] Creating layer res4f_branch2b
I1128 12:56:45.205538  5822 net.cpp:84] Creating Layer res4f_branch2b
I1128 12:56:45.205543  5822 net.cpp:406] res4f_branch2b <- res4f_branch2a
I1128 12:56:45.205549  5822 net.cpp:380] res4f_branch2b -> res4f_branch2b
I1128 12:56:45.212656  5822 net.cpp:122] Setting up res4f_branch2b
I1128 12:56:45.212668  5822 net.cpp:129] Top shape: 1 256 38 63 (612864)
I1128 12:56:45.212671  5822 net.cpp:137] Memory required for data: 2587736916
I1128 12:56:45.212676  5822 layer_factory.hpp:77] Creating layer bn4f_branch2b
I1128 12:56:45.212680  5822 net.cpp:84] Creating Layer bn4f_branch2b
I1128 12:56:45.212683  5822 net.cpp:406] bn4f_branch2b <- res4f_branch2b
I1128 12:56:45.212688  5822 net.cpp:367] bn4f_branch2b -> res4f_branch2b (in-place)
I1128 12:56:45.212986  5822 net.cpp:122] Setting up bn4f_branch2b
I1128 12:56:45.212992  5822 net.cpp:129] Top shape: 1 256 38 63 (612864)
I1128 12:56:45.212996  5822 net.cpp:137] Memory required for data: 2590188372
I1128 12:56:45.213001  5822 layer_factory.hpp:77] Creating layer scale4f_branch2b
I1128 12:56:45.213006  5822 net.cpp:84] Creating Layer scale4f_branch2b
I1128 12:56:45.213008  5822 net.cpp:406] scale4f_branch2b <- res4f_branch2b
I1128 12:56:45.213012  5822 net.cpp:367] scale4f_branch2b -> res4f_branch2b (in-place)
I1128 12:56:45.213063  5822 layer_factory.hpp:77] Creating layer scale4f_branch2b
I1128 12:56:45.213230  5822 net.cpp:122] Setting up scale4f_branch2b
I1128 12:56:45.213237  5822 net.cpp:129] Top shape: 1 256 38 63 (612864)
I1128 12:56:45.213238  5822 net.cpp:137] Memory required for data: 2592639828
I1128 12:56:45.213243  5822 layer_factory.hpp:77] Creating layer res4f_branch2b_relu
I1128 12:56:45.213246  5822 net.cpp:84] Creating Layer res4f_branch2b_relu
I1128 12:56:45.213248  5822 net.cpp:406] res4f_branch2b_relu <- res4f_branch2b
I1128 12:56:45.213253  5822 net.cpp:367] res4f_branch2b_relu -> res4f_branch2b (in-place)
I1128 12:56:45.213596  5822 net.cpp:122] Setting up res4f_branch2b_relu
I1128 12:56:45.213605  5822 net.cpp:129] Top shape: 1 256 38 63 (612864)
I1128 12:56:45.213608  5822 net.cpp:137] Memory required for data: 2595091284
I1128 12:56:45.213609  5822 layer_factory.hpp:77] Creating layer res4f_branch2c
I1128 12:56:45.213616  5822 net.cpp:84] Creating Layer res4f_branch2c
I1128 12:56:45.213619  5822 net.cpp:406] res4f_branch2c <- res4f_branch2b
I1128 12:56:45.213624  5822 net.cpp:380] res4f_branch2c -> res4f_branch2c
I1128 12:56:45.217083  5822 net.cpp:122] Setting up res4f_branch2c
I1128 12:56:45.217094  5822 net.cpp:129] Top shape: 1 1024 38 63 (2451456)
I1128 12:56:45.217097  5822 net.cpp:137] Memory required for data: 2604897108
I1128 12:56:45.217102  5822 layer_factory.hpp:77] Creating layer bn4f_branch2c
I1128 12:56:45.217108  5822 net.cpp:84] Creating Layer bn4f_branch2c
I1128 12:56:45.217111  5822 net.cpp:406] bn4f_branch2c <- res4f_branch2c
I1128 12:56:45.217116  5822 net.cpp:367] bn4f_branch2c -> res4f_branch2c (in-place)
I1128 12:56:45.217420  5822 net.cpp:122] Setting up bn4f_branch2c
I1128 12:56:45.217428  5822 net.cpp:129] Top shape: 1 1024 38 63 (2451456)
I1128 12:56:45.217430  5822 net.cpp:137] Memory required for data: 2614702932
I1128 12:56:45.217453  5822 layer_factory.hpp:77] Creating layer scale4f_branch2c
I1128 12:56:45.217460  5822 net.cpp:84] Creating Layer scale4f_branch2c
I1128 12:56:45.217463  5822 net.cpp:406] scale4f_branch2c <- res4f_branch2c
I1128 12:56:45.217466  5822 net.cpp:367] scale4f_branch2c -> res4f_branch2c (in-place)
I1128 12:56:45.217516  5822 layer_factory.hpp:77] Creating layer scale4f_branch2c
I1128 12:56:45.217694  5822 net.cpp:122] Setting up scale4f_branch2c
I1128 12:56:45.217701  5822 net.cpp:129] Top shape: 1 1024 38 63 (2451456)
I1128 12:56:45.217703  5822 net.cpp:137] Memory required for data: 2624508756
I1128 12:56:45.217707  5822 layer_factory.hpp:77] Creating layer res4f
I1128 12:56:45.217713  5822 net.cpp:84] Creating Layer res4f
I1128 12:56:45.217716  5822 net.cpp:406] res4f <- res4e_res4e_relu_0_split_1
I1128 12:56:45.217720  5822 net.cpp:406] res4f <- res4f_branch2c
I1128 12:56:45.217725  5822 net.cpp:380] res4f -> res4f
I1128 12:56:45.217758  5822 net.cpp:122] Setting up res4f
I1128 12:56:45.217763  5822 net.cpp:129] Top shape: 1 1024 38 63 (2451456)
I1128 12:56:45.217767  5822 net.cpp:137] Memory required for data: 2634314580
I1128 12:56:45.217768  5822 layer_factory.hpp:77] Creating layer res4f_relu
I1128 12:56:45.217772  5822 net.cpp:84] Creating Layer res4f_relu
I1128 12:56:45.217775  5822 net.cpp:406] res4f_relu <- res4f
I1128 12:56:45.217778  5822 net.cpp:367] res4f_relu -> res4f (in-place)
I1128 12:56:45.218467  5822 net.cpp:122] Setting up res4f_relu
I1128 12:56:45.218478  5822 net.cpp:129] Top shape: 1 1024 38 63 (2451456)
I1128 12:56:45.218480  5822 net.cpp:137] Memory required for data: 2644120404
I1128 12:56:45.218483  5822 layer_factory.hpp:77] Creating layer res4f_res4f_relu_0_split
I1128 12:56:45.218488  5822 net.cpp:84] Creating Layer res4f_res4f_relu_0_split
I1128 12:56:45.218492  5822 net.cpp:406] res4f_res4f_relu_0_split <- res4f
I1128 12:56:45.218495  5822 net.cpp:380] res4f_res4f_relu_0_split -> res4f_res4f_relu_0_split_0
I1128 12:56:45.218502  5822 net.cpp:380] res4f_res4f_relu_0_split -> res4f_res4f_relu_0_split_1
I1128 12:56:45.218562  5822 net.cpp:122] Setting up res4f_res4f_relu_0_split
I1128 12:56:45.218569  5822 net.cpp:129] Top shape: 1 1024 38 63 (2451456)
I1128 12:56:45.218571  5822 net.cpp:129] Top shape: 1 1024 38 63 (2451456)
I1128 12:56:45.218574  5822 net.cpp:137] Memory required for data: 2663732052
I1128 12:56:45.218575  5822 layer_factory.hpp:77] Creating layer rpn_conv/3x3
I1128 12:56:45.218583  5822 net.cpp:84] Creating Layer rpn_conv/3x3
I1128 12:56:45.218586  5822 net.cpp:406] rpn_conv/3x3 <- res4f_res4f_relu_0_split_0
I1128 12:56:45.218591  5822 net.cpp:380] rpn_conv/3x3 -> rpn/output
I1128 12:56:45.259286  5822 net.cpp:122] Setting up rpn_conv/3x3
I1128 12:56:45.259310  5822 net.cpp:129] Top shape: 1 512 38 63 (1225728)
I1128 12:56:45.259311  5822 net.cpp:137] Memory required for data: 2668634964
I1128 12:56:45.259320  5822 layer_factory.hpp:77] Creating layer rpn_relu/3x3
I1128 12:56:45.259328  5822 net.cpp:84] Creating Layer rpn_relu/3x3
I1128 12:56:45.259332  5822 net.cpp:406] rpn_relu/3x3 <- rpn/output
I1128 12:56:45.259338  5822 net.cpp:367] rpn_relu/3x3 -> rpn/output (in-place)
I1128 12:56:45.259677  5822 net.cpp:122] Setting up rpn_relu/3x3
I1128 12:56:45.259687  5822 net.cpp:129] Top shape: 1 512 38 63 (1225728)
I1128 12:56:45.259690  5822 net.cpp:137] Memory required for data: 2673537876
I1128 12:56:45.259692  5822 layer_factory.hpp:77] Creating layer rpn/output_rpn_relu/3x3_0_split
I1128 12:56:45.259697  5822 net.cpp:84] Creating Layer rpn/output_rpn_relu/3x3_0_split
I1128 12:56:45.259701  5822 net.cpp:406] rpn/output_rpn_relu/3x3_0_split <- rpn/output
I1128 12:56:45.259706  5822 net.cpp:380] rpn/output_rpn_relu/3x3_0_split -> rpn/output_rpn_relu/3x3_0_split_0
I1128 12:56:45.259711  5822 net.cpp:380] rpn/output_rpn_relu/3x3_0_split -> rpn/output_rpn_relu/3x3_0_split_1
I1128 12:56:45.259773  5822 net.cpp:122] Setting up rpn/output_rpn_relu/3x3_0_split
I1128 12:56:45.259778  5822 net.cpp:129] Top shape: 1 512 38 63 (1225728)
I1128 12:56:45.259781  5822 net.cpp:129] Top shape: 1 512 38 63 (1225728)
I1128 12:56:45.259783  5822 net.cpp:137] Memory required for data: 2683343700
I1128 12:56:45.259785  5822 layer_factory.hpp:77] Creating layer rpn_cls_score
I1128 12:56:45.259795  5822 net.cpp:84] Creating Layer rpn_cls_score
I1128 12:56:45.259799  5822 net.cpp:406] rpn_cls_score <- rpn/output_rpn_relu/3x3_0_split_0
I1128 12:56:45.259804  5822 net.cpp:380] rpn_cls_score -> rpn_cls_score
I1128 12:56:45.261667  5822 net.cpp:122] Setting up rpn_cls_score
I1128 12:56:45.261677  5822 net.cpp:129] Top shape: 1 18 38 63 (43092)
I1128 12:56:45.261679  5822 net.cpp:137] Memory required for data: 2683516068
I1128 12:56:45.261684  5822 layer_factory.hpp:77] Creating layer rpn_cls_score_rpn_cls_score_0_split
I1128 12:56:45.261690  5822 net.cpp:84] Creating Layer rpn_cls_score_rpn_cls_score_0_split
I1128 12:56:45.261693  5822 net.cpp:406] rpn_cls_score_rpn_cls_score_0_split <- rpn_cls_score
I1128 12:56:45.261699  5822 net.cpp:380] rpn_cls_score_rpn_cls_score_0_split -> rpn_cls_score_rpn_cls_score_0_split_0
I1128 12:56:45.261704  5822 net.cpp:380] rpn_cls_score_rpn_cls_score_0_split -> rpn_cls_score_rpn_cls_score_0_split_1
I1128 12:56:45.261762  5822 net.cpp:122] Setting up rpn_cls_score_rpn_cls_score_0_split
I1128 12:56:45.261768  5822 net.cpp:129] Top shape: 1 18 38 63 (43092)
I1128 12:56:45.261771  5822 net.cpp:129] Top shape: 1 18 38 63 (43092)
I1128 12:56:45.261772  5822 net.cpp:137] Memory required for data: 2683860804
I1128 12:56:45.261775  5822 layer_factory.hpp:77] Creating layer rpn_bbox_pred
I1128 12:56:45.261782  5822 net.cpp:84] Creating Layer rpn_bbox_pred
I1128 12:56:45.261785  5822 net.cpp:406] rpn_bbox_pred <- rpn/output_rpn_relu/3x3_0_split_1
I1128 12:56:45.261790  5822 net.cpp:380] rpn_bbox_pred -> rpn_bbox_pred
I1128 12:56:45.263653  5822 net.cpp:122] Setting up rpn_bbox_pred
I1128 12:56:45.263664  5822 net.cpp:129] Top shape: 1 36 38 63 (86184)
I1128 12:56:45.263667  5822 net.cpp:137] Memory required for data: 2684205540
I1128 12:56:45.263672  5822 layer_factory.hpp:77] Creating layer rpn_bbox_pred_rpn_bbox_pred_0_split
I1128 12:56:45.263679  5822 net.cpp:84] Creating Layer rpn_bbox_pred_rpn_bbox_pred_0_split
I1128 12:56:45.263681  5822 net.cpp:406] rpn_bbox_pred_rpn_bbox_pred_0_split <- rpn_bbox_pred
I1128 12:56:45.263686  5822 net.cpp:380] rpn_bbox_pred_rpn_bbox_pred_0_split -> rpn_bbox_pred_rpn_bbox_pred_0_split_0
I1128 12:56:45.263691  5822 net.cpp:380] rpn_bbox_pred_rpn_bbox_pred_0_split -> rpn_bbox_pred_rpn_bbox_pred_0_split_1
I1128 12:56:45.263751  5822 net.cpp:122] Setting up rpn_bbox_pred_rpn_bbox_pred_0_split
I1128 12:56:45.263756  5822 net.cpp:129] Top shape: 1 36 38 63 (86184)
I1128 12:56:45.263759  5822 net.cpp:129] Top shape: 1 36 38 63 (86184)
I1128 12:56:45.263761  5822 net.cpp:137] Memory required for data: 2684895012
I1128 12:56:45.263763  5822 layer_factory.hpp:77] Creating layer rpn_cls_score_reshape
I1128 12:56:45.263769  5822 net.cpp:84] Creating Layer rpn_cls_score_reshape
I1128 12:56:45.263772  5822 net.cpp:406] rpn_cls_score_reshape <- rpn_cls_score_rpn_cls_score_0_split_0
I1128 12:56:45.263777  5822 net.cpp:380] rpn_cls_score_reshape -> rpn_cls_score_reshape
I1128 12:56:45.263811  5822 net.cpp:122] Setting up rpn_cls_score_reshape
I1128 12:56:45.263818  5822 net.cpp:129] Top shape: 1 2 342 63 (43092)
I1128 12:56:45.263819  5822 net.cpp:137] Memory required for data: 2685067380
I1128 12:56:45.263821  5822 layer_factory.hpp:77] Creating layer rpn_cls_score_reshape_rpn_cls_score_reshape_0_split
I1128 12:56:45.263825  5822 net.cpp:84] Creating Layer rpn_cls_score_reshape_rpn_cls_score_reshape_0_split
I1128 12:56:45.263829  5822 net.cpp:406] rpn_cls_score_reshape_rpn_cls_score_reshape_0_split <- rpn_cls_score_reshape
I1128 12:56:45.263833  5822 net.cpp:380] rpn_cls_score_reshape_rpn_cls_score_reshape_0_split -> rpn_cls_score_reshape_rpn_cls_score_reshape_0_split_0
I1128 12:56:45.263839  5822 net.cpp:380] rpn_cls_score_reshape_rpn_cls_score_reshape_0_split -> rpn_cls_score_reshape_rpn_cls_score_reshape_0_split_1
I1128 12:56:45.263892  5822 net.cpp:122] Setting up rpn_cls_score_reshape_rpn_cls_score_reshape_0_split
I1128 12:56:45.263898  5822 net.cpp:129] Top shape: 1 2 342 63 (43092)
I1128 12:56:45.263901  5822 net.cpp:129] Top shape: 1 2 342 63 (43092)
I1128 12:56:45.263903  5822 net.cpp:137] Memory required for data: 2685412116
I1128 12:56:45.263906  5822 layer_factory.hpp:77] Creating layer rpn-data
I1128 12:56:45.264248  5822 net.cpp:84] Creating Layer rpn-data
I1128 12:56:45.264258  5822 net.cpp:406] rpn-data <- rpn_cls_score_rpn_cls_score_0_split_1
I1128 12:56:45.264262  5822 net.cpp:406] rpn-data <- gt_boxes_input-data_2_split_0
I1128 12:56:45.264266  5822 net.cpp:406] rpn-data <- im_info_input-data_1_split_0
I1128 12:56:45.264271  5822 net.cpp:406] rpn-data <- data_input-data_0_split_1
I1128 12:56:45.264274  5822 net.cpp:380] rpn-data -> rpn_labels
I1128 12:56:45.264281  5822 net.cpp:380] rpn-data -> rpn_bbox_targets
I1128 12:56:45.264286  5822 net.cpp:380] rpn-data -> rpn_bbox_inside_weights
I1128 12:56:45.264292  5822 net.cpp:380] rpn-data -> rpn_bbox_outside_weights
I1128 12:56:45.264938  5822 net.cpp:122] Setting up rpn-data
I1128 12:56:45.264950  5822 net.cpp:129] Top shape: 1 1 342 63 (21546)
I1128 12:56:45.264952  5822 net.cpp:129] Top shape: 1 36 38 63 (86184)
I1128 12:56:45.264955  5822 net.cpp:129] Top shape: 1 36 38 63 (86184)
I1128 12:56:45.264958  5822 net.cpp:129] Top shape: 1 36 38 63 (86184)
I1128 12:56:45.264961  5822 net.cpp:137] Memory required for data: 2686532508
I1128 12:56:45.264962  5822 layer_factory.hpp:77] Creating layer rpn_loss_cls
I1128 12:56:45.264969  5822 net.cpp:84] Creating Layer rpn_loss_cls
I1128 12:56:45.264973  5822 net.cpp:406] rpn_loss_cls <- rpn_cls_score_reshape_rpn_cls_score_reshape_0_split_0
I1128 12:56:45.264977  5822 net.cpp:406] rpn_loss_cls <- rpn_labels
…
I1128 12:56:45.266315  5822 net.cpp:129] Top shape: (1)
I1128 12:56:45.266319  5822 net.cpp:132]     with loss weight 1
I1128 12:56:45.266321  5822 net.cpp:137] Memory required for data: 2686532516
I1128 12:56:45.266324  5822 layer_factory.hpp:77] Creating layer rpn_cls_prob
I1128 12:56:45.266327  5822 net.cpp:84] Creating Layer rpn_cls_prob
I1128 12:56:45.266330  5822 net.cpp:406] rpn_cls_prob <- rpn_cls_score_reshape_rpn_cls_score_reshape_0_split_1
I1128 12:56:45.266333  5822 net.cpp:380] rpn_cls_prob -> rpn_cls_prob
I1128 12:56:45.267107  5822 net.cpp:122] Setting up rpn_cls_prob
I1128 12:56:45.267118  5822 net.cpp:129] Top shape: 1 2 342 63 (43092)
I1128 12:56:45.267122  5822 net.cpp:137] Memory required for data: 2686704884
I1128 12:56:45.267123  5822 layer_factory.hpp:77] Creating layer rpn_cls_prob_reshape
I1128 12:56:45.267129  5822 net.cpp:84] Creating Layer rpn_cls_prob_reshape
I1128 12:56:45.267132  5822 net.cpp:406] rpn_cls_prob_reshape <- rpn_cls_prob
I1128 12:56:45.267138  5822 net.cpp:380] rpn_cls_prob_reshape -> rpn_cls_prob_reshape
I1128 12:56:45.267175  5822 net.cpp:122] Setting up rpn_cls_prob_reshape
I1128 12:56:45.267181  5822 net.cpp:129] Top shape: 1 18 38 63 (43092)
I1128 12:56:45.267184  5822 net.cpp:137] Memory required for data: 2686877252
I1128 12:56:45.267185  5822 layer_factory.hpp:77] Creating layer proposal
I1128 12:56:45.267835  5822 net.cpp:84] Creating Layer proposal
I1128 12:56:45.267845  5822 net.cpp:406] proposal <- rpn_cls_prob_reshape
I1128 12:56:45.267850  5822 net.cpp:406] proposal <- rpn_bbox_pred_rpn_bbox_pred_0_split_1
I1128 12:56:45.267853  5822 net.cpp:406] proposal <- im_info_input-data_1_split_1
I1128 12:56:45.267858  5822 net.cpp:380] proposal -> rpn_rois
I1128 12:56:45.268270  5822 net.cpp:122] Setting up proposal
I1128 12:56:45.268280  5822 net.cpp:129] Top shape: 1 5 (5)
I1128 12:56:45.268283  5822 net.cpp:137] Memory required for data: 2686877272
I1128 12:56:45.268286  5822 layer_factory.hpp:77] Creating layer roi-data
I1128 12:56:45.268394  5822 net.cpp:84] Creating Layer roi-data
I1128 12:56:45.268402  5822 net.cpp:406] roi-data <- rpn_rois
I1128 12:56:45.268406  5822 net.cpp:406] roi-data <- gt_boxes_input-data_2_split_1
I1128 12:56:45.268411  5822 net.cpp:380] roi-data -> rois
I1128 12:56:45.268417  5822 net.cpp:380] roi-data -> labels
I1128 12:56:45.268422  5822 net.cpp:380] roi-data -> bbox_targets
I1128 12:56:45.268427  5822 net.cpp:380] roi-data -> bbox_inside_weights
I1128 12:56:45.268431  5822 net.cpp:380] roi-data -> bbox_outside_weights
I1128 12:56:45.268963  5822 net.cpp:122] Setting up roi-data
I1128 12:56:45.268972  5822 net.cpp:129] Top shape: 1 5 (5)
I1128 12:56:45.268975  5822 net.cpp:129] Top shape: 1 1 (1)
I1128 12:56:45.268978  5822 net.cpp:129] Top shape: 1 324 (324)
I1128 12:56:45.268980  5822 net.cpp:129] Top shape: 1 324 (324)
I1128 12:56:45.268983  5822 net.cpp:129] Top shape: 1 324 (324)
I1128 12:56:45.268985  5822 net.cpp:137] Memory required for data: 2686881184
I1128 12:56:45.268987  5822 layer_factory.hpp:77] Creating layer roi_pool5
I1128 12:56:45.268992  5822 net.cpp:84] Creating Layer roi_pool5
I1128 12:56:45.268996  5822 net.cpp:406] roi_pool5 <- res4f_res4f_relu_0_split_1
I1128 12:56:45.268999  5822 net.cpp:406] roi_pool5 <- rois
I1128 12:56:45.269003  5822 net.cpp:380] roi_pool5 -> roi_pool5
I1128 12:56:45.269009  5822 roi_pooling_layer.cpp:30] Spatial scale: 0.0625
I1128 12:56:45.269069  5822 net.cpp:122] Setting up roi_pool5
I1128 12:56:45.269076  5822 net.cpp:129] Top shape: 1 1024 14 14 (200704)
I1128 12:56:45.269078  5822 net.cpp:137] Memory required for data: 2687684000
I1128 12:56:45.269080  5822 layer_factory.hpp:77] Creating layer roi_pool5_roi_pool5_0_split
I1128 12:56:45.269084  5822 net.cpp:84] Creating Layer roi_pool5_roi_pool5_0_split
I1128 12:56:45.269088  5822 net.cpp:406] roi_pool5_roi_pool5_0_split <- roi_pool5
I1128 12:56:45.269091  5822 net.cpp:380] roi_pool5_roi_pool5_0_split -> roi_pool5_roi_pool5_0_split_0
I1128 12:56:45.269096  5822 net.cpp:380] roi_pool5_roi_pool5_0_split -> roi_pool5_roi_pool5_0_split_1
I1128 12:56:45.269146  5822 net.cpp:122] Setting up roi_pool5_roi_pool5_0_split
I1128 12:56:45.269151  5822 net.cpp:129] Top shape: 1 1024 14 14 (200704)
I1128 12:56:45.269155  5822 net.cpp:129] Top shape: 1 1024 14 14 (200704)
I1128 12:56:45.269156  5822 net.cpp:137] Memory required for data: 2689289632
I1128 12:56:45.269160  5822 layer_factory.hpp:77] Creating layer res5a_branch2a
I1128 12:56:45.269166  5822 net.cpp:84] Creating Layer res5a_branch2a
I1128 12:56:45.269168  5822 net.cpp:406] res5a_branch2a <- roi_pool5_roi_pool5_0_split_0
I1128 12:56:45.269173  5822 net.cpp:380] res5a_branch2a -> res5a_branch2a
I1128 12:56:45.275516  5822 net.cpp:122] Setting up res5a_branch2a
I1128 12:56:45.275528  5822 net.cpp:129] Top shape: 1 512 7 7 (25088)
I1128 12:56:45.275530  5822 net.cpp:137] Memory required for data: 2689389984
I1128 12:56:45.275535  5822 layer_factory.hpp:77] Creating layer bn5a_branch2a
I1128 12:56:45.275542  5822 net.cpp:84] Creating Layer bn5a_branch2a
I1128 12:56:45.275544  5822 net.cpp:406] bn5a_branch2a <- res5a_branch2a
I1128 12:56:45.275549  5822 net.cpp:367] bn5a_branch2a -> res5a_branch2a (in-place)
I1128 12:56:45.275858  5822 net.cpp:122] Setting up bn5a_branch2a
I1128 12:56:45.275866  5822 net.cpp:129] Top shape: 1 512 7 7 (25088)
I1128 12:56:45.275867  5822 net.cpp:137] Memory required for data: 2689490336
I1128 12:56:45.275872  5822 layer_factory.hpp:77] Creating layer scale5a_branch2a
I1128 12:56:45.275878  5822 net.cpp:84] Creating Layer scale5a_branch2a
I1128 12:56:45.275882  5822 net.cpp:406] scale5a_branch2a <- res5a_branch2a
I1128 12:56:45.275887  5822 net.cpp:367] scale5a_branch2a -> res5a_branch2a (in-place)
I1128 12:56:45.275938  5822 layer_factory.hpp:77] Creating layer scale5a_branch2a
I1128 12:56:45.276111  5822 net.cpp:122] Setting up scale5a_branch2a
I1128 12:56:45.276118  5822 net.cpp:129] Top shape: 1 512 7 7 (25088)
I1128 12:56:45.276119  5822 net.cpp:137] Memory required for data: 2689590688
I1128 12:56:45.276124  5822 layer_factory.hpp:77] Creating layer res5a_branch2a_relu
I1128 12:56:45.276127  5822 net.cpp:84] Creating Layer res5a_branch2a_relu
I1128 12:56:45.276130  5822 net.cpp:406] res5a_branch2a_relu <- res5a_branch2a
I1128 12:56:45.276134  5822 net.cpp:367] res5a_branch2a_relu -> res5a_branch2a (in-place)
I1128 12:56:45.276473  5822 net.cpp:122] Setting up res5a_branch2a_relu
I1128 12:56:45.276481  5822 net.cpp:129] Top shape: 1 512 7 7 (25088)
I1128 12:56:45.276484  5822 net.cpp:137] Memory required for data: 2689691040
I1128 12:56:45.276485  5822 layer_factory.hpp:77] Creating layer res5a_branch2b
I1128 12:56:45.276494  5822 net.cpp:84] Creating Layer res5a_branch2b
I1128 12:56:45.276497  5822 net.cpp:406] res5a_branch2b <- res5a_branch2a
I1128 12:56:45.276501  5822 net.cpp:380] res5a_branch2b -> res5a_branch2b
I1128 12:56:45.297827  5822 net.cpp:122] Setting up res5a_branch2b
I1128 12:56:45.297844  5822 net.cpp:129] Top shape: 1 512 7 7 (25088)
I1128 12:56:45.297847  5822 net.cpp:137] Memory required for data: 2689791392
I1128 12:56:45.297853  5822 layer_factory.hpp:77] Creating layer bn5a_branch2b
I1128 12:56:45.297860  5822 net.cpp:84] Creating Layer bn5a_branch2b
I1128 12:56:45.297864  5822 net.cpp:406] bn5a_branch2b <- res5a_branch2b
I1128 12:56:45.297870  5822 net.cpp:367] bn5a_branch2b -> res5a_branch2b (in-place)
I1128 12:56:45.298194  5822 net.cpp:122] Setting up bn5a_branch2b
I1128 12:56:45.298202  5822 net.cpp:129] Top shape: 1 512 7 7 (25088)
I1128 12:56:45.298203  5822 net.cpp:137] Memory required for data: 2689891744
I1128 12:56:45.298209  5822 layer_factory.hpp:77] Creating layer scale5a_branch2b
I1128 12:56:45.298214  5822 net.cpp:84] Creating Layer scale5a_branch2b
I1128 12:56:45.298218  5822 net.cpp:406] scale5a_branch2b <- res5a_branch2b
I1128 12:56:45.298220  5822 net.cpp:367] scale5a_branch2b -> res5a_branch2b (in-place)
I1128 12:56:45.298274  5822 layer_factory.hpp:77] Creating layer scale5a_branch2b
I1128 12:56:45.298449  5822 net.cpp:122] Setting up scale5a_branch2b
I1128 12:56:45.298454  5822 net.cpp:129] Top shape: 1 512 7 7 (25088)
I1128 12:56:45.298456  5822 net.cpp:137] Memory required for data: 2689992096
I1128 12:56:45.298461  5822 layer_factory.hpp:77] Creating layer res5a_branch2b_relu
I1128 12:56:45.298465  5822 net.cpp:84] Creating Layer res5a_branch2b_relu
I1128 12:56:45.298468  5822 net.cpp:406] res5a_branch2b_relu <- res5a_branch2b
I1128 12:56:45.298472  5822 net.cpp:367] res5a_branch2b_relu -> res5a_branch2b (in-place)
I1128 12:56:45.298820  5822 net.cpp:122] Setting up res5a_branch2b_relu
I1128 12:56:45.298830  5822 net.cpp:129] Top shape: 1 512 7 7 (25088)
I1128 12:56:45.298831  5822 net.cpp:137] Memory required for data: 2690092448
I1128 12:56:45.298835  5822 layer_factory.hpp:77] Creating layer res5a_branch2c
I1128 12:56:45.298842  5822 net.cpp:84] Creating Layer res5a_branch2c
I1128 12:56:45.298846  5822 net.cpp:406] res5a_branch2c <- res5a_branch2b
I1128 12:56:45.298851  5822 net.cpp:380] res5a_branch2c -> res5a_branch2c
I1128 12:56:45.309289  5822 net.cpp:122] Setting up res5a_branch2c
I1128 12:56:45.309301  5822 net.cpp:129] Top shape: 1 2048 7 7 (100352)
I1128 12:56:45.309304  5822 net.cpp:137] Memory required for data: 2690493856
I1128 12:56:45.309309  5822 layer_factory.hpp:77] Creating layer bn5a_branch2c
I1128 12:56:45.309314  5822 net.cpp:84] Creating Layer bn5a_branch2c
I1128 12:56:45.309317  5822 net.cpp:406] bn5a_branch2c <- res5a_branch2c
I1128 12:56:45.309321  5822 net.cpp:367] bn5a_branch2c -> res5a_branch2c (in-place)
I1128 12:56:45.309659  5822 net.cpp:122] Setting up bn5a_branch2c
I1128 12:56:45.309666  5822 net.cpp:129] Top shape: 1 2048 7 7 (100352)
I1128 12:56:45.309669  5822 net.cpp:137] Memory required for data: 2690895264
I1128 12:56:45.309674  5822 layer_factory.hpp:77] Creating layer scale5a_branch2c
I1128 12:56:45.309679  5822 net.cpp:84] Creating Layer scale5a_branch2c
I1128 12:56:45.309682  5822 net.cpp:406] scale5a_branch2c <- res5a_branch2c
I1128 12:56:45.309685  5822 net.cpp:367] scale5a_branch2c -> res5a_branch2c (in-place)
I1128 12:56:45.309739  5822 layer_factory.hpp:77] Creating layer scale5a_branch2c
I1128 12:56:45.309916  5822 net.cpp:122] Setting up scale5a_branch2c
I1128 12:56:45.309922  5822 net.cpp:129] Top shape: 1 2048 7 7 (100352)
I1128 12:56:45.309926  5822 net.cpp:137] Memory required for data: 2691296672
I1128 12:56:45.309929  5822 layer_factory.hpp:77] Creating layer res5a_branch1
I1128 12:56:45.309937  5822 net.cpp:84] Creating Layer res5a_branch1
I1128 12:56:45.309939  5822 net.cpp:406] res5a_branch1 <- roi_pool5_roi_pool5_0_split_1
I1128 12:56:45.309944  5822 net.cpp:380] res5a_branch1 -> res5a_branch1
I1128 12:56:45.328665  5822 net.cpp:122] Setting up res5a_branch1
I1128 12:56:45.328680  5822 net.cpp:129] Top shape: 1 2048 7 7 (100352)
I1128 12:56:45.328683  5822 net.cpp:137] Memory required for data: 2691698080
I1128 12:56:45.328688  5822 layer_factory.hpp:77] Creating layer bn5a_branch1
I1128 12:56:45.328694  5822 net.cpp:84] Creating Layer bn5a_branch1
I1128 12:56:45.328698  5822 net.cpp:406] bn5a_branch1 <- res5a_branch1
I1128 12:56:45.328702  5822 net.cpp:367] bn5a_branch1 -> res5a_branch1 (in-place)
I1128 12:56:45.329006  5822 net.cpp:122] Setting up bn5a_branch1
I1128 12:56:45.329013  5822 net.cpp:129] Top shape: 1 2048 7 7 (100352)
I1128 12:56:45.329015  5822 net.cpp:137] Memory required for data: 2692099488
I1128 12:56:45.329020  5822 layer_factory.hpp:77] Creating layer scale5a_branch1
I1128 12:56:45.329026  5822 net.cpp:84] Creating Layer scale5a_branch1
I1128 12:56:45.329028  5822 net.cpp:406] scale5a_branch1 <- res5a_branch1
I1128 12:56:45.329032  5822 net.cpp:367] scale5a_branch1 -> res5a_branch1 (in-place)
I1128 12:56:45.329102  5822 layer_factory.hpp:77] Creating layer scale5a_branch1
I1128 12:56:45.329282  5822 net.cpp:122] Setting up scale5a_branch1
I1128 12:56:45.329289  5822 net.cpp:129] Top shape: 1 2048 7 7 (100352)
I1128 12:56:45.329291  5822 net.cpp:137] Memory required for data: 2692500896
I1128 12:56:45.329295  5822 layer_factory.hpp:77] Creating layer res5a
I1128 12:56:45.329300  5822 net.cpp:84] Creating Layer res5a
I1128 12:56:45.329303  5822 net.cpp:406] res5a <- res5a_branch1
I1128 12:56:45.329306  5822 net.cpp:406] res5a <- res5a_branch2c
I1128 12:56:45.329309  5822 net.cpp:380] res5a -> res5a
I1128 12:56:45.329344  5822 net.cpp:122] Setting up res5a
I1128 12:56:45.329349  5822 net.cpp:129] Top shape: 1 2048 7 7 (100352)
I1128 12:56:45.329350  5822 net.cpp:137] Memory required for data: 2692902304
I1128 12:56:45.329352  5822 layer_factory.hpp:77] Creating layer res5a_relu
I1128 12:56:45.329356  5822 net.cpp:84] Creating Layer res5a_relu
I1128 12:56:45.329360  5822 net.cpp:406] res5a_relu <- res5a
I1128 12:56:45.329362  5822 net.cpp:367] res5a_relu -> res5a (in-place)
I1128 12:56:45.330713  5822 net.cpp:122] Setting up res5a_relu
I1128 12:56:45.330724  5822 net.cpp:129] Top shape: 1 2048 7 7 (100352)
I1128 12:56:45.330726  5822 net.cpp:137] Memory required for data: 2693303712
I1128 12:56:45.330729  5822 layer_factory.hpp:77] Creating layer res5a_res5a_relu_0_split
I1128 12:56:45.330734  5822 net.cpp:84] Creating Layer res5a_res5a_relu_0_split
I1128 12:56:45.330739  5822 net.cpp:406] res5a_res5a_relu_0_split <- res5a
I1128 12:56:45.330742  5822 net.cpp:380] res5a_res5a_relu_0_split -> res5a_res5a_relu_0_split_0
I1128 12:56:45.330762  5822 net.cpp:380] res5a_res5a_relu_0_split -> res5a_res5a_relu_0_split_1
I1128 12:56:45.330827  5822 net.cpp:122] Setting up res5a_res5a_relu_0_split
I1128 12:56:45.330833  5822 net.cpp:129] Top shape: 1 2048 7 7 (100352)
I1128 12:56:45.330837  5822 net.cpp:129] Top shape: 1 2048 7 7 (100352)
I1128 12:56:45.330839  5822 net.cpp:137] Memory required for data: 2694106528
I1128 12:56:45.330842  5822 layer_factory.hpp:77] Creating layer res5b_branch2a
I1128 12:56:45.330849  5822 net.cpp:84] Creating Layer res5b_branch2a
I1128 12:56:45.330852  5822 net.cpp:406] res5b_branch2a <- res5a_res5a_relu_0_split_0
I1128 12:56:45.330857  5822 net.cpp:380] res5b_branch2a -> res5b_branch2a
I1128 12:56:45.341553  5822 net.cpp:122] Setting up res5b_branch2a
I1128 12:56:45.341567  5822 net.cpp:129] Top shape: 1 512 7 7 (25088)
I1128 12:56:45.341569  5822 net.cpp:137] Memory required for data: 2694206880
I1128 12:56:45.341574  5822 layer_factory.hpp:77] Creating layer bn5b_branch2a
I1128 12:56:45.341579  5822 net.cpp:84] Creating Layer bn5b_branch2a
I1128 12:56:45.341583  5822 net.cpp:406] bn5b_branch2a <- res5b_branch2a
I1128 12:56:45.341588  5822 net.cpp:367] bn5b_branch2a -> res5b_branch2a (in-place)
I1128 12:56:45.341898  5822 net.cpp:122] Setting up bn5b_branch2a
I1128 12:56:45.341905  5822 net.cpp:129] Top shape: 1 512 7 7 (25088)
I1128 12:56:45.341909  5822 net.cpp:137] Memory required for data: 2694307232
I1128 12:56:45.341914  5822 layer_factory.hpp:77] Creating layer scale5b_branch2a
I1128 12:56:45.341919  5822 net.cpp:84] Creating Layer scale5b_branch2a
I1128 12:56:45.341922  5822 net.cpp:406] scale5b_branch2a <- res5b_branch2a
I1128 12:56:45.341925  5822 net.cpp:367] scale5b_branch2a -> res5b_branch2a (in-place)
I1128 12:56:45.341977  5822 layer_factory.hpp:77] Creating layer scale5b_branch2a
I1128 12:56:45.342152  5822 net.cpp:122] Setting up scale5b_branch2a
I1128 12:56:45.342159  5822 net.cpp:129] Top shape: 1 512 7 7 (25088)
I1128 12:56:45.342161  5822 net.cpp:137] Memory required for data: 2694407584
I1128 12:56:45.342165  5822 layer_factory.hpp:77] Creating layer res5b_branch2a_relu
I1128 12:56:45.342170  5822 net.cpp:84] Creating Layer res5b_branch2a_relu
I1128 12:56:45.342172  5822 net.cpp:406] res5b_branch2a_relu <- res5b_branch2a
I1128 12:56:45.342176  5822 net.cpp:367] res5b_branch2a_relu -> res5b_branch2a (in-place)
I1128 12:56:45.342512  5822 net.cpp:122] Setting up res5b_branch2a_relu
I1128 12:56:45.342520  5822 net.cpp:129] Top shape: 1 512 7 7 (25088)
I1128 12:56:45.342523  5822 net.cpp:137] Memory required for data: 2694507936
I1128 12:56:45.342526  5822 layer_factory.hpp:77] Creating layer res5b_branch2b
I1128 12:56:45.342533  5822 net.cpp:84] Creating Layer res5b_branch2b
I1128 12:56:45.342536  5822 net.cpp:406] res5b_branch2b <- res5b_branch2a
I1128 12:56:45.342541  5822 net.cpp:380] res5b_branch2b -> res5b_branch2b
I1128 12:56:45.363802  5822 net.cpp:122] Setting up res5b_branch2b
I1128 12:56:45.363819  5822 net.cpp:129] Top shape: 1 512 7 7 (25088)
I1128 12:56:45.363822  5822 net.cpp:137] Memory required for data: 2694608288
I1128 12:56:45.363828  5822 layer_factory.hpp:77] Creating layer bn5b_branch2b
I1128 12:56:45.363837  5822 net.cpp:84] Creating Layer bn5b_branch2b
I1128 12:56:45.363842  5822 net.cpp:406] bn5b_branch2b <- res5b_branch2b
I1128 12:56:45.363847  5822 net.cpp:367] bn5b_branch2b -> res5b_branch2b (in-place)
I1128 12:56:45.364183  5822 net.cpp:122] Setting up bn5b_branch2b
I1128 12:56:45.364190  5822 net.cpp:129] Top shape: 1 512 7 7 (25088)
I1128 12:56:45.364193  5822 net.cpp:137] Memory required for data: 2694708640
I1128 12:56:45.364199  5822 layer_factory.hpp:77] Creating layer scale5b_branch2b
I1128 12:56:45.364204  5822 net.cpp:84] Creating Layer scale5b_branch2b
I1128 12:56:45.364207  5822 net.cpp:406] scale5b_branch2b <- res5b_branch2b
I1128 12:56:45.364212  5822 net.cpp:367] scale5b_branch2b -> res5b_branch2b (in-place)
I1128 12:56:45.364262  5822 layer_factory.hpp:77] Creating layer scale5b_branch2b
I1128 12:56:45.364441  5822 net.cpp:122] Setting up scale5b_branch2b
I1128 12:56:45.364449  5822 net.cpp:129] Top shape: 1 512 7 7 (25088)
I1128 12:56:45.364450  5822 net.cpp:137] Memory required for data: 2694808992
I1128 12:56:45.364454  5822 layer_factory.hpp:77] Creating layer res5b_branch2b_relu
I1128 12:56:45.364459  5822 net.cpp:84] Creating Layer res5b_branch2b_relu
I1128 12:56:45.364461  5822 net.cpp:406] res5b_branch2b_relu <- res5b_branch2b
I1128 12:56:45.364465  5822 net.cpp:367] res5b_branch2b_relu -> res5b_branch2b (in-place)
I1128 12:56:45.364804  5822 net.cpp:122] Setting up res5b_branch2b_relu
I1128 12:56:45.364812  5822 net.cpp:129] Top shape: 1 512 7 7 (25088)
I1128 12:56:45.364815  5822 net.cpp:137] Memory required for data: 2694909344
I1128 12:56:45.364819  5822 layer_factory.hpp:77] Creating layer res5b_branch2c
I1128 12:56:45.364826  5822 net.cpp:84] Creating Layer res5b_branch2c
I1128 12:56:45.364828  5822 net.cpp:406] res5b_branch2c <- res5b_branch2b
I1128 12:56:45.364833  5822 net.cpp:380] res5b_branch2c -> res5b_branch2c
I1128 12:56:45.375314  5822 net.cpp:122] Setting up res5b_branch2c
I1128 12:56:45.375326  5822 net.cpp:129] Top shape: 1 2048 7 7 (100352)
I1128 12:56:45.375329  5822 net.cpp:137] Memory required for data: 2695310752
I1128 12:56:45.375334  5822 layer_factory.hpp:77] Creating layer bn5b_branch2c
I1128 12:56:45.375339  5822 net.cpp:84] Creating Layer bn5b_branch2c
I1128 12:56:45.375342  5822 net.cpp:406] bn5b_branch2c <- res5b_branch2c
I1128 12:56:45.375347  5822 net.cpp:367] bn5b_branch2c -> res5b_branch2c (in-place)
I1128 12:56:45.375666  5822 net.cpp:122] Setting up bn5b_branch2c
I1128 12:56:45.375674  5822 net.cpp:129] Top shape: 1 2048 7 7 (100352)
I1128 12:56:45.375675  5822 net.cpp:137] Memory required for data: 2695712160
I1128 12:56:45.375681  5822 layer_factory.hpp:77] Creating layer scale5b_branch2c
I1128 12:56:45.375685  5822 net.cpp:84] Creating Layer scale5b_branch2c
I1128 12:56:45.375689  5822 net.cpp:406] scale5b_branch2c <- res5b_branch2c
I1128 12:56:45.375692  5822 net.cpp:367] scale5b_branch2c -> res5b_branch2c (in-place)
I1128 12:56:45.375744  5822 layer_factory.hpp:77] Creating layer scale5b_branch2c
I1128 12:56:45.375918  5822 net.cpp:122] Setting up scale5b_branch2c
I1128 12:56:45.375926  5822 net.cpp:129] Top shape: 1 2048 7 7 (100352)
I1128 12:56:45.375927  5822 net.cpp:137] Memory required for data: 2696113568
I1128 12:56:45.375931  5822 layer_factory.hpp:77] Creating layer res5b
I1128 12:56:45.375936  5822 net.cpp:84] Creating Layer res5b
I1128 12:56:45.375938  5822 net.cpp:406] res5b <- res5a_res5a_relu_0_split_1
I1128 12:56:45.375941  5822 net.cpp:406] res5b <- res5b_branch2c
I1128 12:56:45.375946  5822 net.cpp:380] res5b -> res5b
I1128 12:56:45.375994  5822 net.cpp:122] Setting up res5b
I1128 12:56:45.376001  5822 net.cpp:129] Top shape: 1 2048 7 7 (100352)
I1128 12:56:45.376003  5822 net.cpp:137] Memory required for data: 2696514976
I1128 12:56:45.376006  5822 layer_factory.hpp:77] Creating layer res5b_relu
I1128 12:56:45.376011  5822 net.cpp:84] Creating Layer res5b_relu
I1128 12:56:45.376014  5822 net.cpp:406] res5b_relu <- res5b
I1128 12:56:45.376018  5822 net.cpp:367] res5b_relu -> res5b (in-place)
I1128 12:56:45.376346  5822 net.cpp:122] Setting up res5b_relu
I1128 12:56:45.376354  5822 net.cpp:129] Top shape: 1 2048 7 7 (100352)
I1128 12:56:45.376358  5822 net.cpp:137] Memory required for data: 2696916384
I1128 12:56:45.376359  5822 layer_factory.hpp:77] Creating layer res5b_res5b_relu_0_split
I1128 12:56:45.376363  5822 net.cpp:84] Creating Layer res5b_res5b_relu_0_split
I1128 12:56:45.376368  5822 net.cpp:406] res5b_res5b_relu_0_split <- res5b
I1128 12:56:45.376370  5822 net.cpp:380] res5b_res5b_relu_0_split -> res5b_res5b_relu_0_split_0
I1128 12:56:45.376375  5822 net.cpp:380] res5b_res5b_relu_0_split -> res5b_res5b_relu_0_split_1
I1128 12:56:45.376438  5822 net.cpp:122] Setting up res5b_res5b_relu_0_split
I1128 12:56:45.376444  5822 net.cpp:129] Top shape: 1 2048 7 7 (100352)
I1128 12:56:45.376447  5822 net.cpp:129] Top shape: 1 2048 7 7 (100352)
I1128 12:56:45.376449  5822 net.cpp:137] Memory required for data: 2697719200
I1128 12:56:45.376452  5822 layer_factory.hpp:77] Creating layer res5c_branch2a
I1128 12:56:45.376459  5822 net.cpp:84] Creating Layer res5c_branch2a
I1128 12:56:45.376462  5822 net.cpp:406] res5c_branch2a <- res5b_res5b_relu_0_split_0
I1128 12:56:45.376466  5822 net.cpp:380] res5c_branch2a -> res5c_branch2a
I1128 12:56:45.386922  5822 net.cpp:122] Setting up res5c_branch2a
I1128 12:56:45.386934  5822 net.cpp:129] Top shape: 1 512 7 7 (25088)
I1128 12:56:45.386939  5822 net.cpp:137] Memory required for data: 2697819552
I1128 12:56:45.386943  5822 layer_factory.hpp:77] Creating layer bn5c_branch2a
I1128 12:56:45.386948  5822 net.cpp:84] Creating Layer bn5c_branch2a
I1128 12:56:45.386952  5822 net.cpp:406] bn5c_branch2a <- res5c_branch2a
I1128 12:56:45.386956  5822 net.cpp:367] bn5c_branch2a -> res5c_branch2a (in-place)
I1128 12:56:45.387287  5822 net.cpp:122] Setting up bn5c_branch2a
I1128 12:56:45.387295  5822 net.cpp:129] Top shape: 1 512 7 7 (25088)
I1128 12:56:45.387297  5822 net.cpp:137] Memory required for data: 2697919904
I1128 12:56:45.387303  5822 layer_factory.hpp:77] Creating layer scale5c_branch2a
I1128 12:56:45.387308  5822 net.cpp:84] Creating Layer scale5c_branch2a
I1128 12:56:45.387310  5822 net.cpp:406] scale5c_branch2a <- res5c_branch2a
I1128 12:56:45.387315  5822 net.cpp:367] scale5c_branch2a -> res5c_branch2a (in-place)
I1128 12:56:45.387367  5822 layer_factory.hpp:77] Creating layer scale5c_branch2a
I1128 12:56:45.387547  5822 net.cpp:122] Setting up scale5c_branch2a
I1128 12:56:45.387552  5822 net.cpp:129] Top shape: 1 512 7 7 (25088)
I1128 12:56:45.387555  5822 net.cpp:137] Memory required for data: 2698020256
I1128 12:56:45.387559  5822 layer_factory.hpp:77] Creating layer res5c_branch2a_relu
I1128 12:56:45.387563  5822 net.cpp:84] Creating Layer res5c_branch2a_relu
I1128 12:56:45.387567  5822 net.cpp:406] res5c_branch2a_relu <- res5c_branch2a
I1128 12:56:45.387570  5822 net.cpp:367] res5c_branch2a_relu -> res5c_branch2a (in-place)
I1128 12:56:45.388267  5822 net.cpp:122] Setting up res5c_branch2a_relu
I1128 12:56:45.388276  5822 net.cpp:129] Top shape: 1 512 7 7 (25088)
I1128 12:56:45.388279  5822 net.cpp:137] Memory required for data: 2698120608
I1128 12:56:45.388283  5822 layer_factory.hpp:77] Creating layer res5c_branch2b
I1128 12:56:45.388289  5822 net.cpp:84] Creating Layer res5c_branch2b
I1128 12:56:45.388293  5822 net.cpp:406] res5c_branch2b <- res5c_branch2a
I1128 12:56:45.388298  5822 net.cpp:380] res5c_branch2b -> res5c_branch2b
I1128 12:56:45.409584  5822 net.cpp:122] Setting up res5c_branch2b
I1128 12:56:45.409601  5822 net.cpp:129] Top shape: 1 512 7 7 (25088)
I1128 12:56:45.409605  5822 net.cpp:137] Memory required for data: 2698220960
I1128 12:56:45.409610  5822 layer_factory.hpp:77] Creating layer bn5c_branch2b
I1128 12:56:45.409617  5822 net.cpp:84] Creating Layer bn5c_branch2b
I1128 12:56:45.409621  5822 net.cpp:406] bn5c_branch2b <- res5c_branch2b
I1128 12:56:45.409626  5822 net.cpp:367] bn5c_branch2b -> res5c_branch2b (in-place)
I1128 12:56:45.409965  5822 net.cpp:122] Setting up bn5c_branch2b
I1128 12:56:45.409972  5822 net.cpp:129] Top shape: 1 512 7 7 (25088)
I1128 12:56:45.409974  5822 net.cpp:137] Memory required for data: 2698321312
I1128 12:56:45.409981  5822 layer_factory.hpp:77] Creating layer scale5c_branch2b
I1128 12:56:45.410020  5822 net.cpp:84] Creating Layer scale5c_branch2b
I1128 12:56:45.410025  5822 net.cpp:406] scale5c_branch2b <- res5c_branch2b
I1128 12:56:45.410029  5822 net.cpp:367] scale5c_branch2b -> res5c_branch2b (in-place)
I1128 12:56:45.410087  5822 layer_factory.hpp:77] Creating layer scale5c_branch2b
I1128 12:56:45.410274  5822 net.cpp:122] Setting up scale5c_branch2b
I1128 12:56:45.410280  5822 net.cpp:129] Top shape: 1 512 7 7 (25088)
I1128 12:56:45.410282  5822 net.cpp:137] Memory required for data: 2698421664
I1128 12:56:45.410287  5822 layer_factory.hpp:77] Creating layer res5c_branch2b_relu
I1128 12:56:45.410291  5822 net.cpp:84] Creating Layer res5c_branch2b_relu
I1128 12:56:45.410295  5822 net.cpp:406] res5c_branch2b_relu <- res5c_branch2b
I1128 12:56:45.410298  5822 net.cpp:367] res5c_branch2b_relu -> res5c_branch2b (in-place)
I1128 12:56:45.410660  5822 net.cpp:122] Setting up res5c_branch2b_relu
I1128 12:56:45.410668  5822 net.cpp:129] Top shape: 1 512 7 7 (25088)
I1128 12:56:45.410671  5822 net.cpp:137] Memory required for data: 2698522016
I1128 12:56:45.410675  5822 layer_factory.hpp:77] Creating layer res5c_branch2c
I1128 12:56:45.410681  5822 net.cpp:84] Creating Layer res5c_branch2c
I1128 12:56:45.410684  5822 net.cpp:406] res5c_branch2c <- res5c_branch2b
I1128 12:56:45.410689  5822 net.cpp:380] res5c_branch2c -> res5c_branch2c
I1128 12:56:45.421205  5822 net.cpp:122] Setting up res5c_branch2c
I1128 12:56:45.421216  5822 net.cpp:129] Top shape: 1 2048 7 7 (100352)
I1128 12:56:45.421221  5822 net.cpp:137] Memory required for data: 2698923424
I1128 12:56:45.421224  5822 layer_factory.hpp:77] Creating layer bn5c_branch2c
I1128 12:56:45.421231  5822 net.cpp:84] Creating Layer bn5c_branch2c
I1128 12:56:45.421233  5822 net.cpp:406] bn5c_branch2c <- res5c_branch2c
I1128 12:56:45.421237  5822 net.cpp:367] bn5c_branch2c -> res5c_branch2c (in-place)
I1128 12:56:45.421573  5822 net.cpp:122] Setting up bn5c_branch2c
I1128 12:56:45.421581  5822 net.cpp:129] Top shape: 1 2048 7 7 (100352)
I1128 12:56:45.421583  5822 net.cpp:137] Memory required for data: 2699324832
I1128 12:56:45.421588  5822 layer_factory.hpp:77] Creating layer scale5c_branch2c
I1128 12:56:45.421593  5822 net.cpp:84] Creating Layer scale5c_branch2c
I1128 12:56:45.421596  5822 net.cpp:406] scale5c_branch2c <- res5c_branch2c
I1128 12:56:45.421599  5822 net.cpp:367] scale5c_branch2c -> res5c_branch2c (in-place)
I1128 12:56:45.421651  5822 layer_factory.hpp:77] Creating layer scale5c_branch2c
I1128 12:56:45.421833  5822 net.cpp:122] Setting up scale5c_branch2c
I1128 12:56:45.421838  5822 net.cpp:129] Top shape: 1 2048 7 7 (100352)
I1128 12:56:45.421840  5822 net.cpp:137] Memory required for data: 2699726240
I1128 12:56:45.421845  5822 layer_factory.hpp:77] Creating layer res5c
I1128 12:56:45.421849  5822 net.cpp:84] Creating Layer res5c
I1128 12:56:45.421852  5822 net.cpp:406] res5c <- res5b_res5b_relu_0_split_1
I1128 12:56:45.421855  5822 net.cpp:406] res5c <- res5c_branch2c
I1128 12:56:45.421859  5822 net.cpp:380] res5c -> res5c
I1128 12:56:45.421897  5822 net.cpp:122] Setting up res5c
I1128 12:56:45.421902  5822 net.cpp:129] Top shape: 1 2048 7 7 (100352)
I1128 12:56:45.421905  5822 net.cpp:137] Memory required for data: 2700127648
I1128 12:56:45.421906  5822 layer_factory.hpp:77] Creating layer res5c_relu
I1128 12:56:45.421911  5822 net.cpp:84] Creating Layer res5c_relu
I1128 12:56:45.421913  5822 net.cpp:406] res5c_relu <- res5c
I1128 12:56:45.421916  5822 net.cpp:367] res5c_relu -> res5c (in-place)
I1128 12:56:45.422247  5822 net.cpp:122] Setting up res5c_relu
I1128 12:56:45.422255  5822 net.cpp:129] Top shape: 1 2048 7 7 (100352)
I1128 12:56:45.422256  5822 net.cpp:137] Memory required for data: 2700529056
I1128 12:56:45.422258  5822 layer_factory.hpp:77] Creating layer pool5
I1128 12:56:45.422263  5822 net.cpp:84] Creating Layer pool5
I1128 12:56:45.422266  5822 net.cpp:406] pool5 <- res5c
I1128 12:56:45.422271  5822 net.cpp:380] pool5 -> pool5
I1128 12:56:45.423028  5822 net.cpp:122] Setting up pool5
I1128 12:56:45.423038  5822 net.cpp:129] Top shape: 1 2048 1 1 (2048)
I1128 12:56:45.423041  5822 net.cpp:137] Memory required for data: 2700537248
I1128 12:56:45.423044  5822 layer_factory.hpp:77] Creating layer pool5_pool5_0_split
I1128 12:56:45.423049  5822 net.cpp:84] Creating Layer pool5_pool5_0_split
I1128 12:56:45.423053  5822 net.cpp:406] pool5_pool5_0_split <- pool5
I1128 12:56:45.423058  5822 net.cpp:380] pool5_pool5_0_split -> pool5_pool5_0_split_0
I1128 12:56:45.423063  5822 net.cpp:380] pool5_pool5_0_split -> pool5_pool5_0_split_1
I1128 12:56:45.423121  5822 net.cpp:122] Setting up pool5_pool5_0_split
I1128 12:56:45.423126  5822 net.cpp:129] Top shape: 1 2048 1 1 (2048)
I1128 12:56:45.423130  5822 net.cpp:129] Top shape: 1 2048 1 1 (2048)
I1128 12:56:45.423131  5822 net.cpp:137] Memory required for data: 2700553632
I1128 12:56:45.423133  5822 layer_factory.hpp:77] Creating layer cls_score
I1128 12:56:45.423140  5822 net.cpp:84] Creating Layer cls_score
I1128 12:56:45.423142  5822 net.cpp:406] cls_score <- pool5_pool5_0_split_0
I1128 12:56:45.423147  5822 net.cpp:380] cls_score -> cls_score
I1128 12:56:45.425467  5822 net.cpp:122] Setting up cls_score
I1128 12:56:45.425477  5822 net.cpp:129] Top shape: 1 81 (81)
I1128 12:56:45.425479  5822 net.cpp:137] Memory required for data: 2700553956
I1128 12:56:45.425484  5822 layer_factory.hpp:77] Creating layer bbox_pred
I1128 12:56:45.425490  5822 net.cpp:84] Creating Layer bbox_pred
I1128 12:56:45.425493  5822 net.cpp:406] bbox_pred <- pool5_pool5_0_split_1
I1128 12:56:45.425498  5822 net.cpp:380] bbox_pred -> bbox_pred
I1128 12:56:45.431387  5822 net.cpp:122] Setting up bbox_pred
I1128 12:56:45.431397  5822 net.cpp:129] Top shape: 1 324 (324)
I1128 12:56:45.431399  5822 net.cpp:137] Memory required for data: 2700555252
I1128 12:56:45.431404  5822 layer_factory.hpp:77] Creating layer loss_cls
I1128 12:56:45.431411  5822 net.cpp:84] Creating Layer loss_cls
I1128 12:56:45.431412  5822 net.cpp:406] loss_cls <- cls_score
I1128 12:56:45.431416  5822 net.cpp:406] loss_cls <- labels
I1128 12:56:45.431421  5822 net.cpp:380] loss_cls -> loss_cls
…
