…
I0425 16:53:22.506830  6192 net.cpp:322] The NetState phase (0) differed from the phase (1) specified by a rule in layer jnt
I0425 16:53:22.507165  6192 net.cpp:49] Initializing net from parameters:
name: "AlexNet"
state {
  phase: TRAIN
}
layer {
  name: "data"
  type: "Data"
  top: "data"
  include {
    phase: TRAIN
  }
  transform_param {
    mean_file: "lmdbs/image_mean.binaryproto"
  }
  data_param {
    source: "lmdbs/train_img.lmdb"
    batch_size: 64
    backend: LMDB
  }
}
layer {
  name: "jnt"
  type: "Data"
  top: "jnt"
  include {
    phase: TRAIN
  }
  data_param {
    source: "lmdbs/train_joint.lmdb"
    batch_size: 64
    backend: LMDB
  }
}
layer {
  name: "conv1"
  type: "Convolution"
  bottom: "data"
  top: "conv1"
  param {
    lr_mult: 0.5
    decay_mult: 0.5
  }
  param {
    lr_mult: 0.5
    decay_mult: 0
  }
  convolution_param {
    num_output: 96
    kernel_size: 11
    stride: 4
    weight_filler {
      type: "gaussian"
      std: 0.01
    }
    bias_filler {
      type: "constant"
      value: 0
    }
  }
}
layer {
  name: "relu1"
  type: "ReLU"
  bottom: "conv1"
  top: "conv1"
}
layer {
  name: "norm1"
  type: "LRN"
  bottom: "conv1"
  top: "norm1"
  lrn_param {
    local_size: 5
    alpha: 0.0001
    beta: 0.75
  }
}
layer {
  name: "pool1"
  type: "Pooling"
  bottom: "norm1"
  top: "pool1"
  pooling_param {
    pool: MAX
    kernel_size: 3
    stride: 2
  }
}
layer {
  name: "conv2"
  type: "Convolution"
  bottom: "pool1"
  top: "conv2"
  param {
    lr_mult: 0.5
    decay_mult: 0.5
  }
  param {
    lr_mult: 0.5
    decay_mult: 0
  }
  convolution_param {
    num_output: 256
    pad: 2
    kernel_size: 5
    group: 2
    weight_filler {
      type: "gaussian"
      std: 0.01
    }
    bias_filler {
      type: "constant"
      value: 0.1
    }
  }
}
layer {
  name: "relu2"
  type: "ReLU"
  bottom: "conv2"
  top: "conv2"
}
layer {
  name: "norm2"
  type: "LRN"
  bottom: "conv2"
  top: "norm2"
  lrn_param {
    local_size: 5
    alpha: 0.0001
    beta: 0.75
  }
}
layer {
  name: "pool2"
  type: "Pooling"
  bottom: "norm2"
  top: "pool2"
  pooling_param {
    pool: MAX
    kernel_size: 3
    stride: 2
  }
}
layer {
  name: "conv3"
  type: "Convolution"
  bottom: "pool2"
  top: "conv3"
  param {
    lr_mult: 0.5
    decay_mult: 0.5
  }
  param {
    lr_mult: 0.5
    decay_mult: 0
  }
  convolution_param {
    num_output: 384
    pad: 1
    kernel_size: 3
    weight_filler {
      type: "gaussian"
      std: 0.01
    }
    bias_filler {
      type: "constant"
      value: 0
    }
  }
}
layer {
  name: "relu3"
  type: "ReLU"
  bottom: "conv3"
  top: "conv3"
}
layer {
  name: "conv4"
  type: "Convolution"
  bottom: "conv3"
  top: "conv4"
  param {
    lr_mult: 0.4
    decay_mult: 0.4
  }
  param {
    lr_mult: 0.7
    decay_mult: 0
  }
  convolution_param {
    num_output: 384
    pad: 1
    kernel_size: 3
    group: 2
    weight_filler {
      type: "gaussian"
      std: 0.01
    }
    bias_filler {
      type: "constant"
      value: 0.1
    }
  }
}
layer {
  name: "relu4"
  type: "ReLU"
  bottom: "conv4"
  top: "conv4"
}
layer {
  name: "conv5"
  type: "Convolution"
  bottom: "conv4"
  top: "conv5"
  param {
    lr_mult: 0.5
    decay_mult: 0.5
  }
  param {
    lr_mult: 0.5
    decay_mult: 0
  }
  convolution_param {
    num_output: 256
    pad: 1
    kernel_size: 3
    group: 2
    weight_filler {
      type: "gaussian"
      std: 0.01
    }
    bias_filler {
      type: "constant"
      value: 0.1
    }
  }
}
layer {
  name: "relu5"
  type: "ReLU"
  bottom: "conv5"
  top: "conv5"
}
layer {
  name: "pool5"
  type: "Pooling"
  bottom: "conv5"
  top: "pool5"
  pooling_param {
    pool: MAX
    kernel_size: 3
    stride: 2
  }
}
layer {
  name: "fc6-joints"
  type: "InnerProduct"
  bottom: "pool5"
  top: "fc6-joints"
  param {
    lr_mult: 0.2
    decay_mult: 0.2
  }
  param {
    lr_mult: 0.2
    decay_mult: 0
  }
  inner_product_param {
    num_output: 4096
    weight_filler {
      type: "gaussian"
      std: 0.005
    }
    bias_filler {
      type: "constant"
      value: 0.1
    }
  }
}
layer {
  name: "relu6"
  type: "ReLU"
  bottom: "fc6-joints"
  top: "fc6-joints"
}
layer {
  name: "drop6"
  type: "Dropout"
  bottom: "fc6-joints"
  top: "fc6-joints"
  dropout_param {
    dropout_ratio: 0.5
  }
}
layer {
  name: "fc7-joints"
  type: "InnerProduct"
  bottom: "fc6-joints"
  top: "fc7-joints"
  param {
    lr_mult: 0.15
    decay_mult: 0.15
  }
  param {
    lr_mult: 0.15
    decay_mult: 0
  }
  inner_product_param {
    num_output: 4096
    weight_filler {
      type: "gaussian"
      std: 0.005
    }
    bias_filler {
      type: "constant"
      value: 0.1
    }
  }
}
layer {
  name: "relu7"
  type: "ReLU"
  bottom: "fc7-joints"
  top: "fc7-joints"
}
layer {
  name: "drop7"
  type: "Dropout"
  bottom: "fc7-joints"
  top: "fc7-joints"
  dropout_param {
    dropout_ratio: 0.5
  }
}
layer {
  name: "fc8-joints"
  type: "InnerProduct"
  bottom: "fc7-joints"
  top: "fc8-joints"
  param {
    lr_mult: 1
    decay_mult: 1
  }
  param {
    lr_mult: 1
    decay_mult: 0
  }
  inner_product_param {
    num_output: 18
    weight_filler {
      type: "gaussian"
      std: 0.0005
    }
    bias_filler {
      type: "constant"
      value: 0
    }
  }
}
layer {
  name: "reg_loss"
  type: "EuclideanLoss"
  bottom: "fc8-joints"
  bottom: "jnt"
  top: "reg_loss"
  loss_weight: 1
}
I0425 16:53:22.507405  6192 layer_factory.hpp:77] Creating layer data
I0425 16:53:22.508179  6192 net.cpp:106] Creating Layer data
I0425 16:53:22.508206  6192 net.cpp:411] data -> data
I0425 16:53:22.508262  6192 data_transformer.cpp:25] Loading mean file from: lmdbs/image_mean.binaryproto
I0425 16:53:22.510119  6197 db_lmdb.cpp:38] Opened lmdb lmdbs/train_img.lmdb
I0425 16:53:22.526098  6192 data_layer.cpp:41] output data size: 64,3,227,227
I0425 16:53:22.647403  6192 net.cpp:150] Setting up data
I0425 16:53:22.647485  6192 net.cpp:157] Top shape: 64 3 227 227 (9893568)
I0425 16:53:22.647496  6192 net.cpp:165] Memory required for data: 39574272
I0425 16:53:22.647516  6192 layer_factory.hpp:77] Creating layer jnt
I0425 16:53:22.647675  6192 net.cpp:106] Creating Layer jnt
I0425 16:53:22.647697  6192 net.cpp:411] jnt -> jnt
I0425 16:53:22.650146  6199 db_lmdb.cpp:38] Opened lmdb lmdbs/train_joint.lmdb
I0425 16:53:22.662905  6192 data_layer.cpp:41] output data size: 64,18,1,1
I0425 16:53:22.664074  6192 net.cpp:150] Setting up jnt
I0425 16:53:22.664103  6192 net.cpp:157] Top shape: 64 18 1 1 (1152)
I0425 16:53:22.664111  6192 net.cpp:165] Memory required for data: 39578880
I0425 16:53:22.664121  6192 layer_factory.hpp:77] Creating layer conv1
I0425 16:53:22.664149  6192 net.cpp:106] Creating Layer conv1
I0425 16:53:22.664161  6192 net.cpp:454] conv1 <- data
I0425 16:53:22.664186  6192 net.cpp:411] conv1 -> conv1
I0425 16:53:22.984148  6192 net.cpp:150] Setting up conv1
I0425 16:53:22.984220  6192 net.cpp:157] Top shape: 64 96 55 55 (18585600)
I0425 16:53:22.984230  6192 net.cpp:165] Memory required for data: 113921280
I0425 16:53:22.984264  6192 layer_factory.hpp:77] Creating layer relu1
I0425 16:53:22.984287  6192 net.cpp:106] Creating Layer relu1
I0425 16:53:22.984297  6192 net.cpp:454] relu1 <- conv1
I0425 16:53:22.984310  6192 net.cpp:397] relu1 -> conv1 (in-place)
I0425 16:53:22.984773  6192 net.cpp:150] Setting up relu1
I0425 16:53:22.984797  6192 net.cpp:157] Top shape: 64 96 55 55 (18585600)
I0425 16:53:22.984807  6192 net.cpp:165] Memory required for data: 188263680
I0425 16:53:22.984815  6192 layer_factory.hpp:77] Creating layer norm1
I0425 16:53:22.984853  6192 net.cpp:106] Creating Layer norm1
I0425 16:53:22.984880  6192 net.cpp:454] norm1 <- conv1
I0425 16:53:22.984894  6192 net.cpp:411] norm1 -> norm1
I0425 16:53:22.985241  6192 net.cpp:150] Setting up norm1
I0425 16:53:22.985265  6192 net.cpp:157] Top shape: 64 96 55 55 (18585600)
I0425 16:53:22.985272  6192 net.cpp:165] Memory required for data: 262606080
I0425 16:53:22.985281  6192 layer_factory.hpp:77] Creating layer pool1
I0425 16:53:22.985296  6192 net.cpp:106] Creating Layer pool1
I0425 16:53:22.985304  6192 net.cpp:454] pool1 <- norm1
I0425 16:53:22.985316  6192 net.cpp:411] pool1 -> pool1
I0425 16:53:22.985980  6192 net.cpp:150] Setting up pool1
I0425 16:53:22.986007  6192 net.cpp:157] Top shape: 64 96 27 27 (4478976)
I0425 16:53:22.986016  6192 net.cpp:165] Memory required for data: 280521984
I0425 16:53:22.986024  6192 layer_factory.hpp:77] Creating layer conv2
I0425 16:53:22.986045  6192 net.cpp:106] Creating Layer conv2
I0425 16:53:22.986054  6192 net.cpp:454] conv2 <- pool1
I0425 16:53:22.986068  6192 net.cpp:411] conv2 -> conv2
I0425 16:53:23.006333  6192 net.cpp:150] Setting up conv2
I0425 16:53:23.006363  6192 net.cpp:157] Top shape: 64 256 27 27 (11943936)
I0425 16:53:23.006372  6192 net.cpp:165] Memory required for data: 328297728
I0425 16:53:23.006392  6192 layer_factory.hpp:77] Creating layer relu2
I0425 16:53:23.006405  6192 net.cpp:106] Creating Layer relu2
I0425 16:53:23.006414  6192 net.cpp:454] relu2 <- conv2
I0425 16:53:23.006425  6192 net.cpp:397] relu2 -> conv2 (in-place)
I0425 16:53:23.006877  6192 net.cpp:150] Setting up relu2
I0425 16:53:23.006902  6192 net.cpp:157] Top shape: 64 256 27 27 (11943936)
I0425 16:53:23.006911  6192 net.cpp:165] Memory required for data: 376073472
I0425 16:53:23.006919  6192 layer_factory.hpp:77] Creating layer norm2
I0425 16:53:23.006937  6192 net.cpp:106] Creating Layer norm2
I0425 16:53:23.006945  6192 net.cpp:454] norm2 <- conv2
I0425 16:53:23.006958  6192 net.cpp:411] norm2 -> norm2
I0425 16:53:23.007277  6192 net.cpp:150] Setting up norm2
I0425 16:53:23.007297  6192 net.cpp:157] Top shape: 64 256 27 27 (11943936)
I0425 16:53:23.007305  6192 net.cpp:165] Memory required for data: 423849216
I0425 16:53:23.007313  6192 layer_factory.hpp:77] Creating layer pool2
I0425 16:53:23.007325  6192 net.cpp:106] Creating Layer pool2
I0425 16:53:23.007334  6192 net.cpp:454] pool2 <- norm2
I0425 16:53:23.007346  6192 net.cpp:411] pool2 -> pool2
I0425 16:53:23.007827  6192 net.cpp:150] Setting up pool2
I0425 16:53:23.007851  6192 net.cpp:157] Top shape: 64 256 13 13 (2768896)
I0425 16:53:23.007859  6192 net.cpp:165] Memory required for data: 434924800
I0425 16:53:23.007869  6192 layer_factory.hpp:77] Creating layer conv3
I0425 16:53:23.007884  6192 net.cpp:106] Creating Layer conv3
I0425 16:53:23.007894  6192 net.cpp:454] conv3 <- pool2
I0425 16:53:23.007906  6192 net.cpp:411] conv3 -> conv3
I0425 16:53:23.058614  6192 net.cpp:150] Setting up conv3
I0425 16:53:23.058645  6192 net.cpp:157] Top shape: 64 384 13 13 (4153344)
I0425 16:53:23.058655  6192 net.cpp:165] Memory required for data: 451538176
I0425 16:53:23.058675  6192 layer_factory.hpp:77] Creating layer relu3
I0425 16:53:23.058688  6192 net.cpp:106] Creating Layer relu3
I0425 16:53:23.058697  6192 net.cpp:454] relu3 <- conv3
I0425 16:53:23.058709  6192 net.cpp:397] relu3 -> conv3 (in-place)
I0425 16:53:23.058984  6192 net.cpp:150] Setting up relu3
I0425 16:53:23.059003  6192 net.cpp:157] Top shape: 64 384 13 13 (4153344)
I0425 16:53:23.059010  6192 net.cpp:165] Memory required for data: 468151552
I0425 16:53:23.059020  6192 layer_factory.hpp:77] Creating layer conv4
I0425 16:53:23.059036  6192 net.cpp:106] Creating Layer conv4
I0425 16:53:23.059043  6192 net.cpp:454] conv4 <- conv3
I0425 16:53:23.059056  6192 net.cpp:411] conv4 -> conv4
I0425 16:53:23.098415  6192 net.cpp:150] Setting up conv4
I0425 16:53:23.098448  6192 net.cpp:157] Top shape: 64 384 13 13 (4153344)
I0425 16:53:23.098456  6192 net.cpp:165] Memory required for data: 484764928
I0425 16:53:23.098470  6192 layer_factory.hpp:77] Creating layer relu4
I0425 16:53:23.098505  6192 net.cpp:106] Creating Layer relu4
I0425 16:53:23.098515  6192 net.cpp:454] relu4 <- conv4
I0425 16:53:23.098526  6192 net.cpp:397] relu4 -> conv4 (in-place)
I0425 16:53:23.099004  6192 net.cpp:150] Setting up relu4
I0425 16:53:23.099028  6192 net.cpp:157] Top shape: 64 384 13 13 (4153344)
I0425 16:53:23.099036  6192 net.cpp:165] Memory required for data: 501378304
I0425 16:53:23.099045  6192 layer_factory.hpp:77] Creating layer conv5
I0425 16:53:23.099064  6192 net.cpp:106] Creating Layer conv5
I0425 16:53:23.099072  6192 net.cpp:454] conv5 <- conv4
I0425 16:53:23.099089  6192 net.cpp:411] conv5 -> conv5
I0425 16:53:23.126425  6192 net.cpp:150] Setting up conv5
I0425 16:53:23.126454  6192 net.cpp:157] Top shape: 64 256 13 13 (2768896)
I0425 16:53:23.126463  6192 net.cpp:165] Memory required for data: 512453888
I0425 16:53:23.126483  6192 layer_factory.hpp:77] Creating layer relu5
I0425 16:53:23.126499  6192 net.cpp:106] Creating Layer relu5
I0425 16:53:23.126507  6192 net.cpp:454] relu5 <- conv5
I0425 16:53:23.126518  6192 net.cpp:397] relu5 -> conv5 (in-place)
I0425 16:53:23.126996  6192 net.cpp:150] Setting up relu5
I0425 16:53:23.127022  6192 net.cpp:157] Top shape: 64 256 13 13 (2768896)
I0425 16:53:23.127032  6192 net.cpp:165] Memory required for data: 523529472
I0425 16:53:23.127040  6192 layer_factory.hpp:77] Creating layer pool5
I0425 16:53:23.127056  6192 net.cpp:106] Creating Layer pool5
I0425 16:53:23.127065  6192 net.cpp:454] pool5 <- conv5
I0425 16:53:23.127077  6192 net.cpp:411] pool5 -> pool5
I0425 16:53:23.127445  6192 net.cpp:150] Setting up pool5
I0425 16:53:23.127466  6192 net.cpp:157] Top shape: 64 256 6 6 (589824)
I0425 16:53:23.127475  6192 net.cpp:165] Memory required for data: 525888768
I0425 16:53:23.127482  6192 layer_factory.hpp:77] Creating layer fc6-joints
I0425 16:53:23.127501  6192 net.cpp:106] Creating Layer fc6-joints
I0425 16:53:23.127509  6192 net.cpp:454] fc6-joints <- pool5
I0425 16:53:23.127522  6192 net.cpp:411] fc6-joints -> fc6-joints
I0425 16:53:25.231753  6192 net.cpp:150] Setting up fc6-joints
I0425 16:53:25.231824  6192 net.cpp:157] Top shape: 64 4096 (262144)
I0425 16:53:25.231834  6192 net.cpp:165] Memory required for data: 526937344
I0425 16:53:25.231856  6192 layer_factory.hpp:77] Creating layer relu6
I0425 16:53:25.231879  6192 net.cpp:106] Creating Layer relu6
I0425 16:53:25.231890  6192 net.cpp:454] relu6 <- fc6-joints
I0425 16:53:25.231909  6192 net.cpp:397] relu6 -> fc6-joints (in-place)
I0425 16:53:25.232640  6192 net.cpp:150] Setting up relu6
I0425 16:53:25.232662  6192 net.cpp:157] Top shape: 64 4096 (262144)
I0425 16:53:25.232671  6192 net.cpp:165] Memory required for data: 527985920
I0425 16:53:25.232679  6192 layer_factory.hpp:77] Creating layer drop6
I0425 16:53:25.232697  6192 net.cpp:106] Creating Layer drop6
I0425 16:53:25.232705  6192 net.cpp:454] drop6 <- fc6-joints
I0425 16:53:25.232717  6192 net.cpp:397] drop6 -> fc6-joints (in-place)
I0425 16:53:25.232779  6192 net.cpp:150] Setting up drop6
I0425 16:53:25.232790  6192 net.cpp:157] Top shape: 64 4096 (262144)
I0425 16:53:25.232797  6192 net.cpp:165] Memory required for data: 529034496
I0425 16:53:25.232805  6192 layer_factory.hpp:77] Creating layer fc7-joints
I0425 16:53:25.232825  6192 net.cpp:106] Creating Layer fc7-joints
I0425 16:53:25.232833  6192 net.cpp:454] fc7-joints <- fc6-joints
I0425 16:53:25.232847  6192 net.cpp:411] fc7-joints -> fc7-joints
I0425 16:53:26.168020  6192 net.cpp:150] Setting up fc7-joints
I0425 16:53:26.168093  6192 net.cpp:157] Top shape: 64 4096 (262144)
I0425 16:53:26.168103  6192 net.cpp:165] Memory required for data: 530083072
I0425 16:53:26.168153  6192 layer_factory.hpp:77] Creating layer relu7
I0425 16:53:26.168184  6192 net.cpp:106] Creating Layer relu7
I0425 16:53:26.168226  6192 net.cpp:454] relu7 <- fc7-joints
I0425 16:53:26.168248  6192 net.cpp:397] relu7 -> fc7-joints (in-place)
I0425 16:53:26.169514  6192 net.cpp:150] Setting up relu7
I0425 16:53:26.169536  6192 net.cpp:157] Top shape: 64 4096 (262144)
I0425 16:53:26.169555  6192 net.cpp:165] Memory required for data: 531131648
I0425 16:53:26.169584  6192 layer_factory.hpp:77] Creating layer drop7
I0425 16:53:26.169600  6192 net.cpp:106] Creating Layer drop7
I0425 16:53:26.169610  6192 net.cpp:454] drop7 <- fc7-joints
I0425 16:53:26.169620  6192 net.cpp:397] drop7 -> fc7-joints (in-place)
I0425 16:53:26.169677  6192 net.cpp:150] Setting up drop7
I0425 16:53:26.169689  6192 net.cpp:157] Top shape: 64 4096 (262144)
I0425 16:53:26.169697  6192 net.cpp:165] Memory required for data: 532180224
I0425 16:53:26.169703  6192 layer_factory.hpp:77] Creating layer fc8-joints
I0425 16:53:26.169721  6192 net.cpp:106] Creating Layer fc8-joints
I0425 16:53:26.169728  6192 net.cpp:454] fc8-joints <- fc7-joints
I0425 16:53:26.169740  6192 net.cpp:411] fc8-joints -> fc8-joints
I0425 16:53:26.174103  6192 net.cpp:150] Setting up fc8-joints
I0425 16:53:26.174123  6192 net.cpp:157] Top shape: 64 18 (1152)
I0425 16:53:26.174129  6192 net.cpp:165] Memory required for data: 532184832
I0425 16:53:26.174141  6192 layer_factory.hpp:77] Creating layer reg_loss
I0425 16:53:26.174154  6192 net.cpp:106] Creating Layer reg_loss
I0425 16:53:26.174161  6192 net.cpp:454] reg_loss <- fc8-joints
I0425 16:53:26.174170  6192 net.cpp:454] reg_loss <- jnt
I0425 16:53:26.174198  6192 net.cpp:411] reg_loss -> reg_loss
…
I0425 16:53:26.176126  6192 net.cpp:322] The NetState phase (1) differed from the phase (0) specified by a rule in layer jnt
I0425 16:53:26.176462  6192 net.cpp:49] Initializing net from parameters:
name: "AlexNet"
state {
  phase: TEST
}
layer {
  name: "data"
  type: "Data"
  top: "data"
  include {
    phase: TEST
  }
  transform_param {
    mean_file: "lmdbs/image_mean.binaryproto"
  }
  data_param {
    source: "lmdbs/valid_img.lmdb"
    batch_size: 128
    backend: LMDB
  }
}
layer {
  name: "jnt"
  type: "Data"
  top: "jnt"
  include {
    phase: TEST
  }
  data_param {
    source: "lmdbs/valid_joint.lmdb"
    batch_size: 128
    backend: LMDB
  }
}
layer {
  name: "conv1"
  type: "Convolution"
  bottom: "data"
  top: "conv1"
  param {
    lr_mult: 0.5
    decay_mult: 0.5
  }
  param {
    lr_mult: 0.5
    decay_mult: 0
  }
  convolution_param {
    num_output: 96
    kernel_size: 11
    stride: 4
    weight_filler {
      type: "gaussian"
      std: 0.01
    }
    bias_filler {
      type: "constant"
      value: 0
    }
  }
}
layer {
  name: "relu1"
  type: "ReLU"
  bottom: "conv1"
  top: "conv1"
}
layer {
  name: "norm1"
  type: "LRN"
  bottom: "conv1"
  top: "norm1"
  lrn_param {
    local_size: 5
    alpha: 0.0001
    beta: 0.75
  }
}
layer {
  name: "pool1"
  type: "Pooling"
  bottom: "norm1"
  top: "pool1"
  pooling_param {
    pool: MAX
    kernel_size: 3
    stride: 2
  }
}
layer {
  name: "conv2"
  type: "Convolution"
  bottom: "pool1"
  top: "conv2"
  param {
    lr_mult: 0.5
    decay_mult: 0.5
  }
  param {
    lr_mult: 0.5
    decay_mult: 0
  }
  convolution_param {
    num_output: 256
    pad: 2
    kernel_size: 5
    group: 2
    weight_filler {
      type: "gaussian"
      std: 0.01
    }
    bias_filler {
      type: "constant"
      value: 0.1
    }
  }
}
layer {
  name: "relu2"
  type: "ReLU"
  bottom: "conv2"
  top: "conv2"
}
layer {
  name: "norm2"
  type: "LRN"
  bottom: "conv2"
  top: "norm2"
  lrn_param {
    local_size: 5
    alpha: 0.0001
    beta: 0.75
  }
}
layer {
  name: "pool2"
  type: "Pooling"
  bottom: "norm2"
  top: "pool2"
  pooling_param {
    pool: MAX
    kernel_size: 3
    stride: 2
  }
}
layer {
  name: "conv3"
  type: "Convolution"
  bottom: "pool2"
  top: "conv3"
  param {
    lr_mult: 0.5
    decay_mult: 0.5
  }
  param {
    lr_mult: 0.5
    decay_mult: 0
  }
  convolution_param {
    num_output: 384
    pad: 1
    kernel_size: 3
    weight_filler {
      type: "gaussian"
      std: 0.01
    }
    bias_filler {
      type: "constant"
      value: 0
    }
  }
}
layer {
  name: "relu3"
  type: "ReLU"
  bottom: "conv3"
  top: "conv3"
}
layer {
  name: "conv4"
  type: "Convolution"
  bottom: "conv3"
  top: "conv4"
  param {
    lr_mult: 0.4
    decay_mult: 0.4
  }
  param {
    lr_mult: 0.7
    decay_mult: 0
  }
  convolution_param {
    num_output: 384
    pad: 1
    kernel_size: 3
    group: 2
    weight_filler {
      type: "gaussian"
      std: 0.01
    }
    bias_filler {
      type: "constant"
      value: 0.1
    }
  }
}
layer {
  name: "relu4"
  type: "ReLU"
  bottom: "conv4"
  top: "conv4"
}
layer {
  name: "conv5"
  type: "Convolution"
  bottom: "conv4"
  top: "conv5"
  param {
    lr_mult: 0.5
    decay_mult: 0.5
  }
  param {
    lr_mult: 0.5
    decay_mult: 0
  }
  convolution_param {
    num_output: 256
    pad: 1
    kernel_size: 3
    group: 2
    weight_filler {
      type: "gaussian"
      std: 0.01
    }
    bias_filler {
      type: "constant"
      value: 0.1
    }
  }
}
layer {
  name: "relu5"
  type: "ReLU"
  bottom: "conv5"
  top: "conv5"
}
layer {
  name: "pool5"
  type: "Pooling"
  bottom: "conv5"
  top: "pool5"
  pooling_param {
    pool: MAX
    kernel_size: 3
    stride: 2
  }
}
layer {
  name: "fc6-joints"
  type: "InnerProduct"
  bottom: "pool5"
  top: "fc6-joints"
  param {
    lr_mult: 0.2
    decay_mult: 0.2
  }
  param {
    lr_mult: 0.2
    decay_mult: 0
  }
  inner_product_param {
    num_output: 4096
    weight_filler {
      type: "gaussian"
      std: 0.005
    }
    bias_filler {
      type: "constant"
      value: 0.1
    }
  }
}
layer {
  name: "relu6"
  type: "ReLU"
  bottom: "fc6-joints"
  top: "fc6-joints"
}
layer {
  name: "drop6"
  type: "Dropout"
  bottom: "fc6-joints"
  top: "fc6-joints"
  dropout_param {
    dropout_ratio: 0.5
  }
}
layer {
  name: "fc7-joints"
  type: "InnerProduct"
  bottom: "fc6-joints"
  top: "fc7-joints"
  param {
    lr_mult: 0.15
    decay_mult: 0.15
  }
  param {
    lr_mult: 0.15
    decay_mult: 0
  }
  inner_product_param {
    num_output: 4096
    weight_filler {
      type: "gaussian"
      std: 0.005
    }
    bias_filler {
      type: "constant"
      value: 0.1
    }
  }
}
layer {
  name: "relu7"
  type: "ReLU"
  bottom: "fc7-joints"
  top: "fc7-joints"
}
layer {
  name: "drop7"
  type: "Dropout"
  bottom: "fc7-joints"
  top: "fc7-joints"
  dropout_param {
    dropout_ratio: 0.5
  }
}
layer {
  name: "fc8-joints"
  type: "InnerProduct"
  bottom: "fc7-joints"
  top: "fc8-joints"
  param {
    lr_mult: 1
    decay_mult: 1
  }
  param {
    lr_mult: 1
    decay_mult: 0
  }
  inner_product_param {
    num_output: 18
    weight_filler {
      type: "gaussian"
      std: 0.0005
    }
    bias_filler {
      type: "constant"
      value: 0
    }
  }
}
layer {
  name: "reg_loss"
  type: "EuclideanLoss"
  bottom: "fc8-joints"
  bottom: "jnt"
  top: "reg_loss"
  loss_weight: 1
}
I0425 16:53:26.176656  6192 layer_factory.hpp:77] Creating layer data
I0425 16:53:26.176908  6192 net.cpp:106] Creating Layer data
I0425 16:53:26.176925  6192 net.cpp:411] data -> data
I0425 16:53:26.176944  6192 data_transformer.cpp:25] Loading mean file from: lmdbs/image_mean.binaryproto
I0425 16:53:26.178742  6201 db_lmdb.cpp:38] Opened lmdb lmdbs/valid_img.lmdb
I0425 16:53:26.180958  6192 data_layer.cpp:41] output data size: 128,3,227,227
I0425 16:53:26.379464  6192 net.cpp:150] Setting up data
I0425 16:53:26.379528  6192 net.cpp:157] Top shape: 128 3 227 227 (19787136)
I0425 16:53:26.379537  6192 net.cpp:165] Memory required for data: 79148544
I0425 16:53:26.379551  6192 layer_factory.hpp:77] Creating layer jnt
I0425 16:53:26.379781  6192 net.cpp:106] Creating Layer jnt
I0425 16:53:26.379799  6192 net.cpp:411] jnt -> jnt
I0425 16:53:26.382658  6203 db_lmdb.cpp:38] Opened lmdb lmdbs/valid_joint.lmdb
I0425 16:53:26.389660  6192 data_layer.cpp:41] output data size: 128,18,1,1
I0425 16:53:26.390287  6192 net.cpp:150] Setting up jnt
I0425 16:53:26.390313  6192 net.cpp:157] Top shape: 128 18 1 1 (2304)
I0425 16:53:26.390321  6192 net.cpp:165] Memory required for data: 79157760
I0425 16:53:26.390331  6192 layer_factory.hpp:77] Creating layer conv1
I0425 16:53:26.390354  6192 net.cpp:106] Creating Layer conv1
I0425 16:53:26.390363  6192 net.cpp:454] conv1 <- data
I0425 16:53:26.390379  6192 net.cpp:411] conv1 -> conv1
I0425 16:53:26.394853  6192 net.cpp:150] Setting up conv1
I0425 16:53:26.394882  6192 net.cpp:157] Top shape: 128 96 55 55 (37171200)
I0425 16:53:26.394891  6192 net.cpp:165] Memory required for data: 227842560
I0425 16:53:26.394913  6192 layer_factory.hpp:77] Creating layer relu1
I0425 16:53:26.394928  6192 net.cpp:106] Creating Layer relu1
I0425 16:53:26.394937  6192 net.cpp:454] relu1 <- conv1
I0425 16:53:26.394950  6192 net.cpp:397] relu1 -> conv1 (in-place)
I0425 16:53:26.395417  6192 net.cpp:150] Setting up relu1
I0425 16:53:26.395442  6192 net.cpp:157] Top shape: 128 96 55 55 (37171200)
I0425 16:53:26.395449  6192 net.cpp:165] Memory required for data: 376527360
I0425 16:53:26.395458  6192 layer_factory.hpp:77] Creating layer norm1
I0425 16:53:26.395476  6192 net.cpp:106] Creating Layer norm1
I0425 16:53:26.395484  6192 net.cpp:454] norm1 <- conv1
I0425 16:53:26.395498  6192 net.cpp:411] norm1 -> norm1
I0425 16:53:26.395838  6192 net.cpp:150] Setting up norm1
I0425 16:53:26.395855  6192 net.cpp:157] Top shape: 128 96 55 55 (37171200)
I0425 16:53:26.395864  6192 net.cpp:165] Memory required for data: 525212160
I0425 16:53:26.395871  6192 layer_factory.hpp:77] Creating layer pool1
I0425 16:53:26.395886  6192 net.cpp:106] Creating Layer pool1
I0425 16:53:26.395895  6192 net.cpp:454] pool1 <- norm1
I0425 16:53:26.395906  6192 net.cpp:411] pool1 -> pool1
I0425 16:53:26.396420  6192 net.cpp:150] Setting up pool1
I0425 16:53:26.396443  6192 net.cpp:157] Top shape: 128 96 27 27 (8957952)
I0425 16:53:26.396451  6192 net.cpp:165] Memory required for data: 561043968
I0425 16:53:26.396487  6192 layer_factory.hpp:77] Creating layer conv2
I0425 16:53:26.396504  6192 net.cpp:106] Creating Layer conv2
I0425 16:53:26.396513  6192 net.cpp:454] conv2 <- pool1
I0425 16:53:26.396527  6192 net.cpp:411] conv2 -> conv2
I0425 16:53:26.416204  6192 net.cpp:150] Setting up conv2
I0425 16:53:26.416231  6192 net.cpp:157] Top shape: 128 256 27 27 (23887872)
I0425 16:53:26.416239  6192 net.cpp:165] Memory required for data: 656595456
I0425 16:53:26.416259  6192 layer_factory.hpp:77] Creating layer relu2
I0425 16:53:26.416271  6192 net.cpp:106] Creating Layer relu2
I0425 16:53:26.416280  6192 net.cpp:454] relu2 <- conv2
I0425 16:53:26.416291  6192 net.cpp:397] relu2 -> conv2 (in-place)
I0425 16:53:26.416852  6192 net.cpp:150] Setting up relu2
I0425 16:53:26.416875  6192 net.cpp:157] Top shape: 128 256 27 27 (23887872)
I0425 16:53:26.416883  6192 net.cpp:165] Memory required for data: 752146944
I0425 16:53:26.416892  6192 layer_factory.hpp:77] Creating layer norm2
I0425 16:53:26.416908  6192 net.cpp:106] Creating Layer norm2
I0425 16:53:26.416915  6192 net.cpp:454] norm2 <- conv2
I0425 16:53:26.416929  6192 net.cpp:411] norm2 -> norm2
I0425 16:53:26.417280  6192 net.cpp:150] Setting up norm2
I0425 16:53:26.417300  6192 net.cpp:157] Top shape: 128 256 27 27 (23887872)
I0425 16:53:26.417307  6192 net.cpp:165] Memory required for data: 847698432
I0425 16:53:26.417315  6192 layer_factory.hpp:77] Creating layer pool2
I0425 16:53:26.417327  6192 net.cpp:106] Creating Layer pool2
I0425 16:53:26.417335  6192 net.cpp:454] pool2 <- norm2
I0425 16:53:26.417346  6192 net.cpp:411] pool2 -> pool2
I0425 16:53:26.417850  6192 net.cpp:150] Setting up pool2
I0425 16:53:26.417871  6192 net.cpp:157] Top shape: 128 256 13 13 (5537792)
I0425 16:53:26.417878  6192 net.cpp:165] Memory required for data: 869849600
I0425 16:53:26.417886  6192 layer_factory.hpp:77] Creating layer conv3
I0425 16:53:26.417902  6192 net.cpp:106] Creating Layer conv3
I0425 16:53:26.417911  6192 net.cpp:454] conv3 <- pool2
I0425 16:53:26.417924  6192 net.cpp:411] conv3 -> conv3
I0425 16:53:26.468667  6192 net.cpp:150] Setting up conv3
I0425 16:53:26.468695  6192 net.cpp:157] Top shape: 128 384 13 13 (8306688)
I0425 16:53:26.468703  6192 net.cpp:165] Memory required for data: 903076352
I0425 16:53:26.468721  6192 layer_factory.hpp:77] Creating layer relu3
I0425 16:53:26.468735  6192 net.cpp:106] Creating Layer relu3
I0425 16:53:26.468744  6192 net.cpp:454] relu3 <- conv3
I0425 16:53:26.468755  6192 net.cpp:397] relu3 -> conv3 (in-place)
I0425 16:53:26.469053  6192 net.cpp:150] Setting up relu3
I0425 16:53:26.469072  6192 net.cpp:157] Top shape: 128 384 13 13 (8306688)
I0425 16:53:26.469079  6192 net.cpp:165] Memory required for data: 936303104
I0425 16:53:26.469087  6192 layer_factory.hpp:77] Creating layer conv4
I0425 16:53:26.469102  6192 net.cpp:106] Creating Layer conv4
I0425 16:53:26.469110  6192 net.cpp:454] conv4 <- conv3
I0425 16:53:26.469123  6192 net.cpp:411] conv4 -> conv4
I0425 16:53:26.508530  6192 net.cpp:150] Setting up conv4
I0425 16:53:26.508558  6192 net.cpp:157] Top shape: 128 384 13 13 (8306688)
I0425 16:53:26.508565  6192 net.cpp:165] Memory required for data: 969529856
I0425 16:53:26.508579  6192 layer_factory.hpp:77] Creating layer relu4
I0425 16:53:26.508592  6192 net.cpp:106] Creating Layer relu4
I0425 16:53:26.508600  6192 net.cpp:454] relu4 <- conv4
I0425 16:53:26.508612  6192 net.cpp:397] relu4 -> conv4 (in-place)
I0425 16:53:26.508908  6192 net.cpp:150] Setting up relu4
I0425 16:53:26.508924  6192 net.cpp:157] Top shape: 128 384 13 13 (8306688)
I0425 16:53:26.508930  6192 net.cpp:165] Memory required for data: 1002756608
I0425 16:53:26.508939  6192 layer_factory.hpp:77] Creating layer conv5
I0425 16:53:26.508954  6192 net.cpp:106] Creating Layer conv5
I0425 16:53:26.508960  6192 net.cpp:454] conv5 <- conv4
I0425 16:53:26.508983  6192 net.cpp:411] conv5 -> conv5
I0425 16:53:26.536454  6192 net.cpp:150] Setting up conv5
I0425 16:53:26.536483  6192 net.cpp:157] Top shape: 128 256 13 13 (5537792)
I0425 16:53:26.536499  6192 net.cpp:165] Memory required for data: 1024907776
I0425 16:53:26.536531  6192 layer_factory.hpp:77] Creating layer relu5
I0425 16:53:26.536545  6192 net.cpp:106] Creating Layer relu5
I0425 16:53:26.536552  6192 net.cpp:454] relu5 <- conv5
I0425 16:53:26.536564  6192 net.cpp:397] relu5 -> conv5 (in-place)
I0425 16:53:26.537047  6192 net.cpp:150] Setting up relu5
I0425 16:53:26.537073  6192 net.cpp:157] Top shape: 128 256 13 13 (5537792)
I0425 16:53:26.537081  6192 net.cpp:165] Memory required for data: 1047058944
I0425 16:53:26.537088  6192 layer_factory.hpp:77] Creating layer pool5
I0425 16:53:26.537106  6192 net.cpp:106] Creating Layer pool5
I0425 16:53:26.537113  6192 net.cpp:454] pool5 <- conv5
I0425 16:53:26.537127  6192 net.cpp:411] pool5 -> pool5
I0425 16:53:26.537483  6192 net.cpp:150] Setting up pool5
I0425 16:53:26.537500  6192 net.cpp:157] Top shape: 128 256 6 6 (1179648)
I0425 16:53:26.537508  6192 net.cpp:165] Memory required for data: 1051777536
I0425 16:53:26.537515  6192 layer_factory.hpp:77] Creating layer fc6-joints
I0425 16:53:26.537530  6192 net.cpp:106] Creating Layer fc6-joints
I0425 16:53:26.537539  6192 net.cpp:454] fc6-joints <- pool5
I0425 16:53:26.537550  6192 net.cpp:411] fc6-joints -> fc6-joints
I0425 16:53:28.630852  6192 net.cpp:150] Setting up fc6-joints
I0425 16:53:28.630919  6192 net.cpp:157] Top shape: 128 4096 (524288)
I0425 16:53:28.630928  6192 net.cpp:165] Memory required for data: 1053874688
I0425 16:53:28.630952  6192 layer_factory.hpp:77] Creating layer relu6
I0425 16:53:28.630975  6192 net.cpp:106] Creating Layer relu6
I0425 16:53:28.630985  6192 net.cpp:454] relu6 <- fc6-joints
I0425 16:53:28.631001  6192 net.cpp:397] relu6 -> fc6-joints (in-place)
I0425 16:53:28.631696  6192 net.cpp:150] Setting up relu6
I0425 16:53:28.631719  6192 net.cpp:157] Top shape: 128 4096 (524288)
I0425 16:53:28.631726  6192 net.cpp:165] Memory required for data: 1055971840
I0425 16:53:28.631736  6192 layer_factory.hpp:77] Creating layer drop6
I0425 16:53:28.631752  6192 net.cpp:106] Creating Layer drop6
I0425 16:53:28.631759  6192 net.cpp:454] drop6 <- fc6-joints
I0425 16:53:28.631772  6192 net.cpp:397] drop6 -> fc6-joints (in-place)
I0425 16:53:28.631820  6192 net.cpp:150] Setting up drop6
I0425 16:53:28.631832  6192 net.cpp:157] Top shape: 128 4096 (524288)
I0425 16:53:28.631839  6192 net.cpp:165] Memory required for data: 1058068992
I0425 16:53:28.631846  6192 layer_factory.hpp:77] Creating layer fc7-joints
I0425 16:53:28.631863  6192 net.cpp:106] Creating Layer fc7-joints
I0425 16:53:28.631870  6192 net.cpp:454] fc7-joints <- fc6-joints
I0425 16:53:28.631883  6192 net.cpp:411] fc7-joints -> fc7-joints
I0425 16:53:29.563896  6192 net.cpp:150] Setting up fc7-joints
I0425 16:53:29.563971  6192 net.cpp:157] Top shape: 128 4096 (524288)
I0425 16:53:29.563980  6192 net.cpp:165] Memory required for data: 1060166144
I0425 16:53:29.564012  6192 layer_factory.hpp:77] Creating layer relu7
I0425 16:53:29.564075  6192 net.cpp:106] Creating Layer relu7
I0425 16:53:29.564091  6192 net.cpp:454] relu7 <- fc7-joints
I0425 16:53:29.564106  6192 net.cpp:397] relu7 -> fc7-joints (in-place)
I0425 16:53:29.564844  6192 net.cpp:150] Setting up relu7
I0425 16:53:29.564864  6192 net.cpp:157] Top shape: 128 4096 (524288)
I0425 16:53:29.564872  6192 net.cpp:165] Memory required for data: 1062263296
I0425 16:53:29.564882  6192 layer_factory.hpp:77] Creating layer drop7
I0425 16:53:29.564898  6192 net.cpp:106] Creating Layer drop7
I0425 16:53:29.564908  6192 net.cpp:454] drop7 <- fc7-joints
I0425 16:53:29.564918  6192 net.cpp:397] drop7 -> fc7-joints (in-place)
I0425 16:53:29.564965  6192 net.cpp:150] Setting up drop7
I0425 16:53:29.564987  6192 net.cpp:157] Top shape: 128 4096 (524288)
I0425 16:53:29.564995  6192 net.cpp:165] Memory required for data: 1064360448
I0425 16:53:29.565001  6192 layer_factory.hpp:77] Creating layer fc8-joints
I0425 16:53:29.565019  6192 net.cpp:106] Creating Layer fc8-joints
I0425 16:53:29.565027  6192 net.cpp:454] fc8-joints <- fc7-joints
I0425 16:53:29.565053  6192 net.cpp:411] fc8-joints -> fc8-joints
I0425 16:53:29.569275  6192 net.cpp:150] Setting up fc8-joints
I0425 16:53:29.569293  6192 net.cpp:157] Top shape: 128 18 (2304)
I0425 16:53:29.569300  6192 net.cpp:165] Memory required for data: 1064369664
I0425 16:53:29.569313  6192 layer_factory.hpp:77] Creating layer reg_loss
I0425 16:53:29.569324  6192 net.cpp:106] Creating Layer reg_loss
I0425 16:53:29.569331  6192 net.cpp:454] reg_loss <- fc8-joints
I0425 16:53:29.569340  6192 net.cpp:454] reg_loss <- jnt
I0425 16:53:29.569353  6192 net.cpp:411] reg_loss -> reg_loss
…
